program(1.0)
[buildInfo = dict<tensor<string, []>, tensor<string, []>>({{"coremlc-component-MIL", "3510.2.1"}, {"coremlc-version", "3500.32.1"}, {"coremltools-component-torch", "2.7.0"}, {"coremltools-source-dialect", "TorchScript"}, {"coremltools-version", "9.0"}})]
{
    func main<ios15>(tensor<fp32, [1, 3, 518, 518]> image) {
            tensor<fp32, []> image__scaled___y_0 = const()[name = tensor<string, []>("image__scaled___y_0"), val = tensor<fp32, []>(0x1.010102p-8)];
            tensor<fp32, [1, 3, 518, 518]> image__scaled__ = mul(x = image, y = image__scaled___y_0)[name = tensor<string, []>("image__scaled__")];
            tensor<string, []> image_to_fp16_dtype_0 = const()[name = tensor<string, []>("image_to_fp16_dtype_0"), val = tensor<string, []>("fp16")];
            tensor<fp16, [1, 3, 1, 1]> mean_to_fp16 = const()[name = tensor<string, []>("mean_to_fp16"), val = tensor<fp16, [1, 3, 1, 1]>([[[[0x1.f0cp-2]], [[0x1.d3p-2]], [[0x1.9fcp-2]]]])];
            tensor<fp16, [1, 3, 518, 518]> image_to_fp16 = cast(dtype = image_to_fp16_dtype_0, x = image__scaled__)[name = tensor<string, []>("cast_32")];
            tensor<fp16, [1, 3, 518, 518]> var_6_cast_fp16 = sub(x = image_to_fp16, y = mean_to_fp16)[name = tensor<string, []>("op_6_cast_fp16")];
            tensor<fp16, [1, 3, 1, 1]> _inversed_x_3_y_0_to_fp16 = const()[name = tensor<string, []>("_inversed_x_3_y_0_to_fp16"), val = tensor<fp16, [1, 3, 1, 1]>([[[[0x1.178p+2]], [[0x1.1dcp+2]], [[0x1.1c8p+2]]]])];
            tensor<fp16, [1, 3, 518, 518]> _inversed_x_3_cast_fp16 = mul(x = var_6_cast_fp16, y = _inversed_x_3_y_0_to_fp16)[name = tensor<string, []>("_inversed_x_3_cast_fp16")];
            tensor<int32, []> var_22 = const()[name = tensor<string, []>("op_22"), val = tensor<int32, []>(1)];
            tensor<int32, []> var_25 = const()[name = tensor<string, []>("op_25"), val = tensor<int32, []>(-1)];
            tensor<string, []> x_5_pad_type_0 = const()[name = tensor<string, []>("x_5_pad_type_0"), val = tensor<string, []>("valid")];
            tensor<int32, [2]> x_5_strides_0 = const()[name = tensor<string, []>("x_5_strides_0"), val = tensor<int32, [2]>([14, 14])];
            tensor<int32, [4]> x_5_pad_0 = const()[name = tensor<string, []>("x_5_pad_0"), val = tensor<int32, [4]>([0, 0, 0, 0])];
            tensor<int32, [2]> x_5_dilations_0 = const()[name = tensor<string, []>("x_5_dilations_0"), val = tensor<int32, [2]>([1, 1])];
            tensor<int32, []> x_5_groups_0 = const()[name = tensor<string, []>("x_5_groups_0"), val = tensor<int32, []>(1)];
            tensor<fp16, [384, 3, 14, 14]> model_pretrained_patch_embed_proj_weight_to_fp16 = const()[name = tensor<string, []>("model_pretrained_patch_embed_proj_weight_to_fp16"), val = tensor<fp16, [384, 3, 14, 14]>(BLOBFILE(path = tensor<string, []>("@model_path/weights/weight.bin"), offset = tensor<uint64, []>(64)))];
            tensor<fp16, [384]> model_pretrained_patch_embed_proj_bias_to_fp16 = const()[name = tensor<string, []>("model_pretrained_patch_embed_proj_bias_to_fp16"), val = tensor<fp16, [384]>(BLOBFILE(path = tensor<string, []>("@model_path/weights/weight.bin"), offset = tensor<uint64, []>(451712)))];
            tensor<fp16, [1, 384, 37, 37]> x_5_cast_fp16 = conv(bias = model_pretrained_patch_embed_proj_bias_to_fp16, dilations = x_5_dilations_0, groups = x_5_groups_0, pad = x_5_pad_0, pad_type = x_5_pad_type_0, strides = x_5_strides_0, weight = model_pretrained_patch_embed_proj_weight_to_fp16, x = _inversed_x_3_cast_fp16)[name = tensor<string, []>("x_5_cast_fp16")];
            tensor<int32, [3]> concat_0 = const()[name = tensor<string, []>("concat_0"), val = tensor<int32, [3]>([1, 384, 1369])];
            tensor<fp16, [1, 384, 1369]> var_96_cast_fp16 = reshape(shape = concat_0, x = x_5_cast_fp16)[name = tensor<string, []>("op_96_cast_fp16")];
            tensor<int32, [3]> x_7_perm_0 = const()[name = tensor<string, []>("x_7_perm_0"), val = tensor<int32, [3]>([0, 2, 1])];
            tensor<bool, []> x_9_interleave_0 = const()[name = tensor<string, []>("x_9_interleave_0"), val = tensor<bool, []>(false)];
            tensor<fp16, [1, 1, 384]> model_pretrained_cls_token_to_fp16 = const()[name = tensor<string, []>("model_pretrained_cls_token_to_fp16"), val = tensor<fp16, [1, 1, 384]>(BLOBFILE(path = tensor<string, []>("@model_path/weights/weight.bin"), offset = tensor<uint64, []>(452544)))];
            tensor<fp16, [1, 1369, 384]> x_7_cast_fp16 = transpose(perm = x_7_perm_0, x = var_96_cast_fp16)[name = tensor<string, []>("transpose_28")];
            tensor<fp16, [1, 1370, 384]> x_9_cast_fp16 = concat(axis = var_22, interleave = x_9_interleave_0, values = (model_pretrained_cls_token_to_fp16, x_7_cast_fp16))[name = tensor<string, []>("x_9_cast_fp16")];
            tensor<fp16, [1, 1370, 384]> model_pretrained_pos_embed_to_fp16 = const()[name = tensor<string, []>("model_pretrained_pos_embed_to_fp16"), val = tensor<fp16, [1, 1370, 384]>(BLOBFILE(path = tensor<string, []>("@model_path/weights/weight.bin"), offset = tensor<uint64, []>(453376)))];
            tensor<fp16, [1, 1370, 384]> input_1_cast_fp16 = add(x = x_9_cast_fp16, y = model_pretrained_pos_embed_to_fp16)[name = tensor<string, []>("input_1_cast_fp16")];
            tensor<int32, [1]> x_11_axes_0 = const()[name = tensor<string, []>("x_11_axes_0"), val = tensor<int32, [1]>([-1])];
            tensor<fp16, [384]> model_pretrained_blocks_0_norm1_weight_to_fp16 = const()[name = tensor<string, []>("model_pretrained_blocks_0_norm1_weight_to_fp16"), val = tensor<fp16, [384]>(BLOBFILE(path = tensor<string, []>("@model_path/weights/weight.bin"), offset = tensor<uint64, []>(1505600)))];
            tensor<fp16, [384]> model_pretrained_blocks_0_norm1_bias_to_fp16 = const()[name = tensor<string, []>("model_pretrained_blocks_0_norm1_bias_to_fp16"), val = tensor<fp16, [384]>(BLOBFILE(path = tensor<string, []>("@model_path/weights/weight.bin"), offset = tensor<uint64, []>(1506432)))];
            tensor<fp16, []> var_11_to_fp16 = const()[name = tensor<string, []>("op_11_to_fp16"), val = tensor<fp16, []>(0x1.1p-20)];
            tensor<fp16, [1, 1370, 384]> x_11_cast_fp16 = layer_norm(axes = x_11_axes_0, beta = model_pretrained_blocks_0_norm1_bias_to_fp16, epsilon = var_11_to_fp16, gamma = model_pretrained_blocks_0_norm1_weight_to_fp16, x = input_1_cast_fp16)[name = tensor<string, []>("x_11_cast_fp16")];
            tensor<fp16, [1152, 384]> model_pretrained_blocks_0_attn_qkv_weight_to_fp16 = const()[name = tensor<string, []>("model_pretrained_blocks_0_attn_qkv_weight_to_fp16"), val = tensor<fp16, [1152, 384]>(BLOBFILE(path = tensor<string, []>("@model_path/weights/weight.bin"), offset = tensor<uint64, []>(1507264)))];
            tensor<fp16, [1152]> model_pretrained_blocks_0_attn_qkv_bias_to_fp16 = const()[name = tensor<string, []>("model_pretrained_blocks_0_attn_qkv_bias_to_fp16"), val = tensor<fp16, [1152]>(BLOBFILE(path = tensor<string, []>("@model_path/weights/weight.bin"), offset = tensor<uint64, []>(2392064)))];
            tensor<fp16, [1, 1370, 1152]> linear_0_cast_fp16 = linear(bias = model_pretrained_blocks_0_attn_qkv_bias_to_fp16, weight = model_pretrained_blocks_0_attn_qkv_weight_to_fp16, x = x_11_cast_fp16)[name = tensor<string, []>("linear_0_cast_fp16")];
            tensor<int32, [5]> var_125 = const()[name = tensor<string, []>("op_125"), val = tensor<int32, [5]>([1, 1370, 3, 6, 64])];
            tensor<fp16, [1, 1370, 3, 6, 64]> var_126_cast_fp16 = reshape(shape = var_125, x = linear_0_cast_fp16)[name = tensor<string, []>("op_126_cast_fp16")];
            tensor<int32, [5]> var_127 = const()[name = tensor<string, []>("op_127"), val = tensor<int32, [5]>([2, 0, 3, 1, 4])];
            tensor<int32, [5]> var_129_begin_0 = const()[name = tensor<string, []>("op_129_begin_0"), val = tensor<int32, [5]>([0, 0, 0, 0, 0])];
            tensor<int32, [5]> var_129_end_0 = const()[name = tensor<string, []>("op_129_end_0"), val = tensor<int32, [5]>([1, 1, 6, 1370, 64])];
            tensor<bool, [5]> var_129_end_mask_0 = const()[name = tensor<string, []>("op_129_end_mask_0"), val = tensor<bool, [5]>([false, true, true, true, true])];
            tensor<bool, [5]> var_129_squeeze_mask_0 = const()[name = tensor<string, []>("op_129_squeeze_mask_0"), val = tensor<bool, [5]>([true, false, false, false, false])];
            tensor<fp16, [3, 1, 6, 1370, 64]> qkv_1_cast_fp16 = transpose(perm = var_127, x = var_126_cast_fp16)[name = tensor<string, []>("transpose_27")];
            tensor<fp16, [1, 6, 1370, 64]> var_129_cast_fp16 = slice_by_index(begin = var_129_begin_0, end = var_129_end_0, end_mask = var_129_end_mask_0, squeeze_mask = var_129_squeeze_mask_0, x = qkv_1_cast_fp16)[name = tensor<string, []>("op_129_cast_fp16")];
            tensor<fp16, []> var_130_to_fp16 = const()[name = tensor<string, []>("op_130_to_fp16"), val = tensor<fp16, []>(0x1p-3)];
            tensor<fp16, [1, 6, 1370, 64]> q_1_cast_fp16 = mul(x = var_129_cast_fp16, y = var_130_to_fp16)[name = tensor<string, []>("q_1_cast_fp16")];
            tensor<int32, [5]> k_1_begin_0 = const()[name = tensor<string, []>("k_1_begin_0"), val = tensor<int32, [5]>([1, 0, 0, 0, 0])];
            tensor<int32, [5]> k_1_end_0 = const()[name = tensor<string, []>("k_1_end_0"), val = tensor<int32, [5]>([2, 1, 6, 1370, 64])];
            tensor<bool, [5]> k_1_end_mask_0 = const()[name = tensor<string, []>("k_1_end_mask_0"), val = tensor<bool, [5]>([false, true, true, true, true])];
            tensor<bool, [5]> k_1_squeeze_mask_0 = const()[name = tensor<string, []>("k_1_squeeze_mask_0"), val = tensor<bool, [5]>([true, false, false, false, false])];
            tensor<fp16, [1, 6, 1370, 64]> k_1_cast_fp16 = slice_by_index(begin = k_1_begin_0, end = k_1_end_0, end_mask = k_1_end_mask_0, squeeze_mask = k_1_squeeze_mask_0, x = qkv_1_cast_fp16)[name = tensor<string, []>("k_1_cast_fp16")];
            tensor<int32, [5]> v_1_begin_0 = const()[name = tensor<string, []>("v_1_begin_0"), val = tensor<int32, [5]>([2, 0, 0, 0, 0])];
            tensor<int32, [5]> v_1_end_0 = const()[name = tensor<string, []>("v_1_end_0"), val = tensor<int32, [5]>([3, 1, 6, 1370, 64])];
            tensor<bool, [5]> v_1_end_mask_0 = const()[name = tensor<string, []>("v_1_end_mask_0"), val = tensor<bool, [5]>([false, true, true, true, true])];
            tensor<bool, [5]> v_1_squeeze_mask_0 = const()[name = tensor<string, []>("v_1_squeeze_mask_0"), val = tensor<bool, [5]>([true, false, false, false, false])];
            tensor<fp16, [1, 6, 1370, 64]> v_1_cast_fp16 = slice_by_index(begin = v_1_begin_0, end = v_1_end_0, end_mask = v_1_end_mask_0, squeeze_mask = v_1_squeeze_mask_0, x = qkv_1_cast_fp16)[name = tensor<string, []>("v_1_cast_fp16")];
            tensor<bool, []> attn_1_transpose_x_1 = const()[name = tensor<string, []>("attn_1_transpose_x_1"), val = tensor<bool, []>(false)];
            tensor<bool, []> attn_1_transpose_y_1 = const()[name = tensor<string, []>("attn_1_transpose_y_1"), val = tensor<bool, []>(true)];
            tensor<fp16, [1, 6, 1370, 1370]> attn_1_cast_fp16 = matmul(transpose_x = attn_1_transpose_x_1, transpose_y = attn_1_transpose_y_1, x = q_1_cast_fp16, y = k_1_cast_fp16)[name = tensor<string, []>("attn_1_cast_fp16")];
            tensor<fp16, [1, 6, 1370, 1370]> input_3_cast_fp16 = softmax(axis = var_25, x = attn_1_cast_fp16)[name = tensor<string, []>("input_3_cast_fp16")];
            tensor<bool, []> var_138_transpose_x_0 = const()[name = tensor<string, []>("op_138_transpose_x_0"), val = tensor<bool, []>(false)];
            tensor<bool, []> var_138_transpose_y_0 = const()[name = tensor<string, []>("op_138_transpose_y_0"), val = tensor<bool, []>(false)];
            tensor<fp16, [1, 6, 1370, 64]> var_138_cast_fp16 = matmul(transpose_x = var_138_transpose_x_0, transpose_y = var_138_transpose_y_0, x = input_3_cast_fp16, y = v_1_cast_fp16)[name = tensor<string, []>("op_138_cast_fp16")];
            tensor<int32, [4]> var_139_perm_0 = const()[name = tensor<string, []>("op_139_perm_0"), val = tensor<int32, [4]>([0, 2, 1, 3])];
            tensor<int32, [3]> var_140 = const()[name = tensor<string, []>("op_140"), val = tensor<int32, [3]>([1, 1370, 384])];
            tensor<fp16, [1, 1370, 6, 64]> var_139_cast_fp16 = transpose(perm = var_139_perm_0, x = var_138_cast_fp16)[name = tensor<string, []>("transpose_26")];
            tensor<fp16, [1, 1370, 384]> input_5_cast_fp16 = reshape(shape = var_140, x = var_139_cast_fp16)[name = tensor<string, []>("input_5_cast_fp16")];
            tensor<fp16, [384, 384]> model_pretrained_blocks_0_attn_proj_weight_to_fp16 = const()[name = tensor<string, []>("model_pretrained_blocks_0_attn_proj_weight_to_fp16"), val = tensor<fp16, [384, 384]>(BLOBFILE(path = tensor<string, []>("@model_path/weights/weight.bin"), offset = tensor<uint64, []>(2394432)))];
            tensor<fp16, [384]> model_pretrained_blocks_0_attn_proj_bias_to_fp16 = const()[name = tensor<string, []>("model_pretrained_blocks_0_attn_proj_bias_to_fp16"), val = tensor<fp16, [384]>(BLOBFILE(path = tensor<string, []>("@model_path/weights/weight.bin"), offset = tensor<uint64, []>(2689408)))];
            tensor<fp16, [1, 1370, 384]> linear_1_cast_fp16 = linear(bias = model_pretrained_blocks_0_attn_proj_bias_to_fp16, weight = model_pretrained_blocks_0_attn_proj_weight_to_fp16, x = input_5_cast_fp16)[name = tensor<string, []>("linear_1_cast_fp16")];
            tensor<fp16, [384]> model_pretrained_blocks_0_ls1_gamma_to_fp16 = const()[name = tensor<string, []>("model_pretrained_blocks_0_ls1_gamma_to_fp16"), val = tensor<fp16, [384]>(BLOBFILE(path = tensor<string, []>("@model_path/weights/weight.bin"), offset = tensor<uint64, []>(2690240)))];
            tensor<fp16, [1, 1370, 384]> var_147_cast_fp16 = mul(x = linear_1_cast_fp16, y = model_pretrained_blocks_0_ls1_gamma_to_fp16)[name = tensor<string, []>("op_147_cast_fp16")];
            tensor<fp16, [1, 1370, 384]> input_9_cast_fp16 = add(x = input_1_cast_fp16, y = var_147_cast_fp16)[name = tensor<string, []>("input_9_cast_fp16")];
            tensor<int32, [1]> input_11_axes_0 = const()[name = tensor<string, []>("input_11_axes_0"), val = tensor<int32, [1]>([-1])];
            tensor<fp16, [384]> model_pretrained_blocks_0_norm2_weight_to_fp16 = const()[name = tensor<string, []>("model_pretrained_blocks_0_norm2_weight_to_fp16"), val = tensor<fp16, [384]>(BLOBFILE(path = tensor<string, []>("@model_path/weights/weight.bin"), offset = tensor<uint64, []>(2691072)))];
            tensor<fp16, [384]> model_pretrained_blocks_0_norm2_bias_to_fp16 = const()[name = tensor<string, []>("model_pretrained_blocks_0_norm2_bias_to_fp16"), val = tensor<fp16, [384]>(BLOBFILE(path = tensor<string, []>("@model_path/weights/weight.bin"), offset = tensor<uint64, []>(2691904)))];
            tensor<fp16, [1, 1370, 384]> input_11_cast_fp16 = layer_norm(axes = input_11_axes_0, beta = model_pretrained_blocks_0_norm2_bias_to_fp16, epsilon = var_11_to_fp16, gamma = model_pretrained_blocks_0_norm2_weight_to_fp16, x = input_9_cast_fp16)[name = tensor<string, []>("input_11_cast_fp16")];
            tensor<fp16, [1536, 384]> model_pretrained_blocks_0_mlp_fc1_weight_to_fp16 = const()[name = tensor<string, []>("model_pretrained_blocks_0_mlp_fc1_weight_to_fp16"), val = tensor<fp16, [1536, 384]>(BLOBFILE(path = tensor<string, []>("@model_path/weights/weight.bin"), offset = tensor<uint64, []>(2692736)))];
            tensor<fp16, [1536]> model_pretrained_blocks_0_mlp_fc1_bias_to_fp16 = const()[name = tensor<string, []>("model_pretrained_blocks_0_mlp_fc1_bias_to_fp16"), val = tensor<fp16, [1536]>(BLOBFILE(path = tensor<string, []>("@model_path/weights/weight.bin"), offset = tensor<uint64, []>(3872448)))];
            tensor<fp16, [1, 1370, 1536]> linear_2_cast_fp16 = linear(bias = model_pretrained_blocks_0_mlp_fc1_bias_to_fp16, weight = model_pretrained_blocks_0_mlp_fc1_weight_to_fp16, x = input_11_cast_fp16)[name = tensor<string, []>("linear_2_cast_fp16")];
            tensor<string, []> input_15_mode_0 = const()[name = tensor<string, []>("input_15_mode_0"), val = tensor<string, []>("EXACT")];
            tensor<fp16, [1, 1370, 1536]> input_15_cast_fp16 = gelu(mode = input_15_mode_0, x = linear_2_cast_fp16)[name = tensor<string, []>("input_15_cast_fp16")];
            tensor<fp16, [384, 1536]> model_pretrained_blocks_0_mlp_fc2_weight_to_fp16 = const()[name = tensor<string, []>("model_pretrained_blocks_0_mlp_fc2_weight_to_fp16"), val = tensor<fp16, [384, 1536]>(BLOBFILE(path = tensor<string, []>("@model_path/weights/weight.bin"), offset = tensor<uint64, []>(3875584)))];
            tensor<fp16, [384]> model_pretrained_blocks_0_mlp_fc2_bias_to_fp16 = const()[name = tensor<string, []>("model_pretrained_blocks_0_mlp_fc2_bias_to_fp16"), val = tensor<fp16, [384]>(BLOBFILE(path = tensor<string, []>("@model_path/weights/weight.bin"), offset = tensor<uint64, []>(5055296)))];
            tensor<fp16, [1, 1370, 384]> linear_3_cast_fp16 = linear(bias = model_pretrained_blocks_0_mlp_fc2_bias_to_fp16, weight = model_pretrained_blocks_0_mlp_fc2_weight_to_fp16, x = input_15_cast_fp16)[name = tensor<string, []>("linear_3_cast_fp16")];
            tensor<fp16, [384]> model_pretrained_blocks_0_ls2_gamma_to_fp16 = const()[name = tensor<string, []>("model_pretrained_blocks_0_ls2_gamma_to_fp16"), val = tensor<fp16, [384]>(BLOBFILE(path = tensor<string, []>("@model_path/weights/weight.bin"), offset = tensor<uint64, []>(5056128)))];
            tensor<fp16, [1, 1370, 384]> var_165_cast_fp16 = mul(x = linear_3_cast_fp16, y = model_pretrained_blocks_0_ls2_gamma_to_fp16)[name = tensor<string, []>("op_165_cast_fp16")];
            tensor<fp16, [1, 1370, 384]> input_21_cast_fp16 = add(x = input_9_cast_fp16, y = var_165_cast_fp16)[name = tensor<string, []>("input_21_cast_fp16")];
            tensor<int32, [1]> x_17_axes_0 = const()[name = tensor<string, []>("x_17_axes_0"), val = tensor<int32, [1]>([-1])];
            tensor<fp16, [384]> model_pretrained_blocks_1_norm1_weight_to_fp16 = const()[name = tensor<string, []>("model_pretrained_blocks_1_norm1_weight_to_fp16"), val = tensor<fp16, [384]>(BLOBFILE(path = tensor<string, []>("@model_path/weights/weight.bin"), offset = tensor<uint64, []>(5056960)))];
            tensor<fp16, [384]> model_pretrained_blocks_1_norm1_bias_to_fp16 = const()[name = tensor<string, []>("model_pretrained_blocks_1_norm1_bias_to_fp16"), val = tensor<fp16, [384]>(BLOBFILE(path = tensor<string, []>("@model_path/weights/weight.bin"), offset = tensor<uint64, []>(5057792)))];
            tensor<fp16, [1, 1370, 384]> x_17_cast_fp16 = layer_norm(axes = x_17_axes_0, beta = model_pretrained_blocks_1_norm1_bias_to_fp16, epsilon = var_11_to_fp16, gamma = model_pretrained_blocks_1_norm1_weight_to_fp16, x = input_21_cast_fp16)[name = tensor<string, []>("x_17_cast_fp16")];
            tensor<fp16, [1152, 384]> model_pretrained_blocks_1_attn_qkv_weight_to_fp16 = const()[name = tensor<string, []>("model_pretrained_blocks_1_attn_qkv_weight_to_fp16"), val = tensor<fp16, [1152, 384]>(BLOBFILE(path = tensor<string, []>("@model_path/weights/weight.bin"), offset = tensor<uint64, []>(5058624)))];
            tensor<fp16, [1152]> model_pretrained_blocks_1_attn_qkv_bias_to_fp16 = const()[name = tensor<string, []>("model_pretrained_blocks_1_attn_qkv_bias_to_fp16"), val = tensor<fp16, [1152]>(BLOBFILE(path = tensor<string, []>("@model_path/weights/weight.bin"), offset = tensor<uint64, []>(5943424)))];
            tensor<fp16, [1, 1370, 1152]> linear_4_cast_fp16 = linear(bias = model_pretrained_blocks_1_attn_qkv_bias_to_fp16, weight = model_pretrained_blocks_1_attn_qkv_weight_to_fp16, x = x_17_cast_fp16)[name = tensor<string, []>("linear_4_cast_fp16")];
            tensor<int32, [5]> var_188 = const()[name = tensor<string, []>("op_188"), val = tensor<int32, [5]>([1, 1370, 3, 6, 64])];
            tensor<fp16, [1, 1370, 3, 6, 64]> var_189_cast_fp16 = reshape(shape = var_188, x = linear_4_cast_fp16)[name = tensor<string, []>("op_189_cast_fp16")];
            tensor<int32, [5]> var_190 = const()[name = tensor<string, []>("op_190"), val = tensor<int32, [5]>([2, 0, 3, 1, 4])];
            tensor<int32, [5]> var_192_begin_0 = const()[name = tensor<string, []>("op_192_begin_0"), val = tensor<int32, [5]>([0, 0, 0, 0, 0])];
            tensor<int32, [5]> var_192_end_0 = const()[name = tensor<string, []>("op_192_end_0"), val = tensor<int32, [5]>([1, 1, 6, 1370, 64])];
            tensor<bool, [5]> var_192_end_mask_0 = const()[name = tensor<string, []>("op_192_end_mask_0"), val = tensor<bool, [5]>([false, true, true, true, true])];
            tensor<bool, [5]> var_192_squeeze_mask_0 = const()[name = tensor<string, []>("op_192_squeeze_mask_0"), val = tensor<bool, [5]>([true, false, false, false, false])];
            tensor<fp16, [3, 1, 6, 1370, 64]> qkv_3_cast_fp16 = transpose(perm = var_190, x = var_189_cast_fp16)[name = tensor<string, []>("transpose_25")];
            tensor<fp16, [1, 6, 1370, 64]> var_192_cast_fp16 = slice_by_index(begin = var_192_begin_0, end = var_192_end_0, end_mask = var_192_end_mask_0, squeeze_mask = var_192_squeeze_mask_0, x = qkv_3_cast_fp16)[name = tensor<string, []>("op_192_cast_fp16")];
            tensor<fp16, []> var_193_to_fp16 = const()[name = tensor<string, []>("op_193_to_fp16"), val = tensor<fp16, []>(0x1p-3)];
            tensor<fp16, [1, 6, 1370, 64]> q_3_cast_fp16 = mul(x = var_192_cast_fp16, y = var_193_to_fp16)[name = tensor<string, []>("q_3_cast_fp16")];
            tensor<int32, [5]> k_3_begin_0 = const()[name = tensor<string, []>("k_3_begin_0"), val = tensor<int32, [5]>([1, 0, 0, 0, 0])];
            tensor<int32, [5]> k_3_end_0 = const()[name = tensor<string, []>("k_3_end_0"), val = tensor<int32, [5]>([2, 1, 6, 1370, 64])];
            tensor<bool, [5]> k_3_end_mask_0 = const()[name = tensor<string, []>("k_3_end_mask_0"), val = tensor<bool, [5]>([false, true, true, true, true])];
            tensor<bool, [5]> k_3_squeeze_mask_0 = const()[name = tensor<string, []>("k_3_squeeze_mask_0"), val = tensor<bool, [5]>([true, false, false, false, false])];
            tensor<fp16, [1, 6, 1370, 64]> k_3_cast_fp16 = slice_by_index(begin = k_3_begin_0, end = k_3_end_0, end_mask = k_3_end_mask_0, squeeze_mask = k_3_squeeze_mask_0, x = qkv_3_cast_fp16)[name = tensor<string, []>("k_3_cast_fp16")];
            tensor<int32, [5]> v_3_begin_0 = const()[name = tensor<string, []>("v_3_begin_0"), val = tensor<int32, [5]>([2, 0, 0, 0, 0])];
            tensor<int32, [5]> v_3_end_0 = const()[name = tensor<string, []>("v_3_end_0"), val = tensor<int32, [5]>([3, 1, 6, 1370, 64])];
            tensor<bool, [5]> v_3_end_mask_0 = const()[name = tensor<string, []>("v_3_end_mask_0"), val = tensor<bool, [5]>([false, true, true, true, true])];
            tensor<bool, [5]> v_3_squeeze_mask_0 = const()[name = tensor<string, []>("v_3_squeeze_mask_0"), val = tensor<bool, [5]>([true, false, false, false, false])];
            tensor<fp16, [1, 6, 1370, 64]> v_3_cast_fp16 = slice_by_index(begin = v_3_begin_0, end = v_3_end_0, end_mask = v_3_end_mask_0, squeeze_mask = v_3_squeeze_mask_0, x = qkv_3_cast_fp16)[name = tensor<string, []>("v_3_cast_fp16")];
            tensor<bool, []> attn_5_transpose_x_1 = const()[name = tensor<string, []>("attn_5_transpose_x_1"), val = tensor<bool, []>(false)];
            tensor<bool, []> attn_5_transpose_y_1 = const()[name = tensor<string, []>("attn_5_transpose_y_1"), val = tensor<bool, []>(true)];
            tensor<fp16, [1, 6, 1370, 1370]> attn_5_cast_fp16 = matmul(transpose_x = attn_5_transpose_x_1, transpose_y = attn_5_transpose_y_1, x = q_3_cast_fp16, y = k_3_cast_fp16)[name = tensor<string, []>("attn_5_cast_fp16")];
            tensor<fp16, [1, 6, 1370, 1370]> input_23_cast_fp16 = softmax(axis = var_25, x = attn_5_cast_fp16)[name = tensor<string, []>("input_23_cast_fp16")];
            tensor<bool, []> var_201_transpose_x_0 = const()[name = tensor<string, []>("op_201_transpose_x_0"), val = tensor<bool, []>(false)];
            tensor<bool, []> var_201_transpose_y_0 = const()[name = tensor<string, []>("op_201_transpose_y_0"), val = tensor<bool, []>(false)];
            tensor<fp16, [1, 6, 1370, 64]> var_201_cast_fp16 = matmul(transpose_x = var_201_transpose_x_0, transpose_y = var_201_transpose_y_0, x = input_23_cast_fp16, y = v_3_cast_fp16)[name = tensor<string, []>("op_201_cast_fp16")];
            tensor<int32, [4]> var_202_perm_0 = const()[name = tensor<string, []>("op_202_perm_0"), val = tensor<int32, [4]>([0, 2, 1, 3])];
            tensor<int32, [3]> var_203 = const()[name = tensor<string, []>("op_203"), val = tensor<int32, [3]>([1, 1370, 384])];
            tensor<fp16, [1, 1370, 6, 64]> var_202_cast_fp16 = transpose(perm = var_202_perm_0, x = var_201_cast_fp16)[name = tensor<string, []>("transpose_24")];
            tensor<fp16, [1, 1370, 384]> input_25_cast_fp16 = reshape(shape = var_203, x = var_202_cast_fp16)[name = tensor<string, []>("input_25_cast_fp16")];
            tensor<fp16, [384, 384]> model_pretrained_blocks_1_attn_proj_weight_to_fp16 = const()[name = tensor<string, []>("model_pretrained_blocks_1_attn_proj_weight_to_fp16"), val = tensor<fp16, [384, 384]>(BLOBFILE(path = tensor<string, []>("@model_path/weights/weight.bin"), offset = tensor<uint64, []>(5945792)))];
            tensor<fp16, [384]> model_pretrained_blocks_1_attn_proj_bias_to_fp16 = const()[name = tensor<string, []>("model_pretrained_blocks_1_attn_proj_bias_to_fp16"), val = tensor<fp16, [384]>(BLOBFILE(path = tensor<string, []>("@model_path/weights/weight.bin"), offset = tensor<uint64, []>(6240768)))];
            tensor<fp16, [1, 1370, 384]> linear_5_cast_fp16 = linear(bias = model_pretrained_blocks_1_attn_proj_bias_to_fp16, weight = model_pretrained_blocks_1_attn_proj_weight_to_fp16, x = input_25_cast_fp16)[name = tensor<string, []>("linear_5_cast_fp16")];
            tensor<fp16, [384]> model_pretrained_blocks_1_ls1_gamma_to_fp16 = const()[name = tensor<string, []>("model_pretrained_blocks_1_ls1_gamma_to_fp16"), val = tensor<fp16, [384]>(BLOBFILE(path = tensor<string, []>("@model_path/weights/weight.bin"), offset = tensor<uint64, []>(6241600)))];
            tensor<fp16, [1, 1370, 384]> var_210_cast_fp16 = mul(x = linear_5_cast_fp16, y = model_pretrained_blocks_1_ls1_gamma_to_fp16)[name = tensor<string, []>("op_210_cast_fp16")];
            tensor<fp16, [1, 1370, 384]> input_29_cast_fp16 = add(x = input_21_cast_fp16, y = var_210_cast_fp16)[name = tensor<string, []>("input_29_cast_fp16")];
            tensor<int32, [1]> input_31_axes_0 = const()[name = tensor<string, []>("input_31_axes_0"), val = tensor<int32, [1]>([-1])];
            tensor<fp16, [384]> model_pretrained_blocks_1_norm2_weight_to_fp16 = const()[name = tensor<string, []>("model_pretrained_blocks_1_norm2_weight_to_fp16"), val = tensor<fp16, [384]>(BLOBFILE(path = tensor<string, []>("@model_path/weights/weight.bin"), offset = tensor<uint64, []>(6242432)))];
            tensor<fp16, [384]> model_pretrained_blocks_1_norm2_bias_to_fp16 = const()[name = tensor<string, []>("model_pretrained_blocks_1_norm2_bias_to_fp16"), val = tensor<fp16, [384]>(BLOBFILE(path = tensor<string, []>("@model_path/weights/weight.bin"), offset = tensor<uint64, []>(6243264)))];
            tensor<fp16, [1, 1370, 384]> input_31_cast_fp16 = layer_norm(axes = input_31_axes_0, beta = model_pretrained_blocks_1_norm2_bias_to_fp16, epsilon = var_11_to_fp16, gamma = model_pretrained_blocks_1_norm2_weight_to_fp16, x = input_29_cast_fp16)[name = tensor<string, []>("input_31_cast_fp16")];
            tensor<fp16, [1536, 384]> model_pretrained_blocks_1_mlp_fc1_weight_to_fp16 = const()[name = tensor<string, []>("model_pretrained_blocks_1_mlp_fc1_weight_to_fp16"), val = tensor<fp16, [1536, 384]>(BLOBFILE(path = tensor<string, []>("@model_path/weights/weight.bin"), offset = tensor<uint64, []>(6244096)))];
            tensor<fp16, [1536]> model_pretrained_blocks_1_mlp_fc1_bias_to_fp16 = const()[name = tensor<string, []>("model_pretrained_blocks_1_mlp_fc1_bias_to_fp16"), val = tensor<fp16, [1536]>(BLOBFILE(path = tensor<string, []>("@model_path/weights/weight.bin"), offset = tensor<uint64, []>(7423808)))];
            tensor<fp16, [1, 1370, 1536]> linear_6_cast_fp16 = linear(bias = model_pretrained_blocks_1_mlp_fc1_bias_to_fp16, weight = model_pretrained_blocks_1_mlp_fc1_weight_to_fp16, x = input_31_cast_fp16)[name = tensor<string, []>("linear_6_cast_fp16")];
            tensor<string, []> input_35_mode_0 = const()[name = tensor<string, []>("input_35_mode_0"), val = tensor<string, []>("EXACT")];
            tensor<fp16, [1, 1370, 1536]> input_35_cast_fp16 = gelu(mode = input_35_mode_0, x = linear_6_cast_fp16)[name = tensor<string, []>("input_35_cast_fp16")];
            tensor<fp16, [384, 1536]> model_pretrained_blocks_1_mlp_fc2_weight_to_fp16 = const()[name = tensor<string, []>("model_pretrained_blocks_1_mlp_fc2_weight_to_fp16"), val = tensor<fp16, [384, 1536]>(BLOBFILE(path = tensor<string, []>("@model_path/weights/weight.bin"), offset = tensor<uint64, []>(7426944)))];
            tensor<fp16, [384]> model_pretrained_blocks_1_mlp_fc2_bias_to_fp16 = const()[name = tensor<string, []>("model_pretrained_blocks_1_mlp_fc2_bias_to_fp16"), val = tensor<fp16, [384]>(BLOBFILE(path = tensor<string, []>("@model_path/weights/weight.bin"), offset = tensor<uint64, []>(8606656)))];
            tensor<fp16, [1, 1370, 384]> linear_7_cast_fp16 = linear(bias = model_pretrained_blocks_1_mlp_fc2_bias_to_fp16, weight = model_pretrained_blocks_1_mlp_fc2_weight_to_fp16, x = input_35_cast_fp16)[name = tensor<string, []>("linear_7_cast_fp16")];
            tensor<fp16, [384]> model_pretrained_blocks_1_ls2_gamma_to_fp16 = const()[name = tensor<string, []>("model_pretrained_blocks_1_ls2_gamma_to_fp16"), val = tensor<fp16, [384]>(BLOBFILE(path = tensor<string, []>("@model_path/weights/weight.bin"), offset = tensor<uint64, []>(8607488)))];
            tensor<fp16, [1, 1370, 384]> var_228_cast_fp16 = mul(x = linear_7_cast_fp16, y = model_pretrained_blocks_1_ls2_gamma_to_fp16)[name = tensor<string, []>("op_228_cast_fp16")];
            tensor<fp16, [1, 1370, 384]> input_41_cast_fp16 = add(x = input_29_cast_fp16, y = var_228_cast_fp16)[name = tensor<string, []>("input_41_cast_fp16")];
            tensor<int32, [1]> x_23_axes_0 = const()[name = tensor<string, []>("x_23_axes_0"), val = tensor<int32, [1]>([-1])];
            tensor<fp16, [384]> model_pretrained_blocks_2_norm1_weight_to_fp16 = const()[name = tensor<string, []>("model_pretrained_blocks_2_norm1_weight_to_fp16"), val = tensor<fp16, [384]>(BLOBFILE(path = tensor<string, []>("@model_path/weights/weight.bin"), offset = tensor<uint64, []>(8608320)))];
            tensor<fp16, [384]> model_pretrained_blocks_2_norm1_bias_to_fp16 = const()[name = tensor<string, []>("model_pretrained_blocks_2_norm1_bias_to_fp16"), val = tensor<fp16, [384]>(BLOBFILE(path = tensor<string, []>("@model_path/weights/weight.bin"), offset = tensor<uint64, []>(8609152)))];
            tensor<fp16, [1, 1370, 384]> x_23_cast_fp16 = layer_norm(axes = x_23_axes_0, beta = model_pretrained_blocks_2_norm1_bias_to_fp16, epsilon = var_11_to_fp16, gamma = model_pretrained_blocks_2_norm1_weight_to_fp16, x = input_41_cast_fp16)[name = tensor<string, []>("x_23_cast_fp16")];
            tensor<fp16, [1152, 384]> model_pretrained_blocks_2_attn_qkv_weight_to_fp16 = const()[name = tensor<string, []>("model_pretrained_blocks_2_attn_qkv_weight_to_fp16"), val = tensor<fp16, [1152, 384]>(BLOBFILE(path = tensor<string, []>("@model_path/weights/weight.bin"), offset = tensor<uint64, []>(8609984)))];
            tensor<fp16, [1152]> model_pretrained_blocks_2_attn_qkv_bias_to_fp16 = const()[name = tensor<string, []>("model_pretrained_blocks_2_attn_qkv_bias_to_fp16"), val = tensor<fp16, [1152]>(BLOBFILE(path = tensor<string, []>("@model_path/weights/weight.bin"), offset = tensor<uint64, []>(9494784)))];
            tensor<fp16, [1, 1370, 1152]> linear_8_cast_fp16 = linear(bias = model_pretrained_blocks_2_attn_qkv_bias_to_fp16, weight = model_pretrained_blocks_2_attn_qkv_weight_to_fp16, x = x_23_cast_fp16)[name = tensor<string, []>("linear_8_cast_fp16")];
            tensor<int32, [5]> var_251 = const()[name = tensor<string, []>("op_251"), val = tensor<int32, [5]>([1, 1370, 3, 6, 64])];
            tensor<fp16, [1, 1370, 3, 6, 64]> var_252_cast_fp16 = reshape(shape = var_251, x = linear_8_cast_fp16)[name = tensor<string, []>("op_252_cast_fp16")];
            tensor<int32, [5]> var_253 = const()[name = tensor<string, []>("op_253"), val = tensor<int32, [5]>([2, 0, 3, 1, 4])];
            tensor<int32, [5]> var_255_begin_0 = const()[name = tensor<string, []>("op_255_begin_0"), val = tensor<int32, [5]>([0, 0, 0, 0, 0])];
            tensor<int32, [5]> var_255_end_0 = const()[name = tensor<string, []>("op_255_end_0"), val = tensor<int32, [5]>([1, 1, 6, 1370, 64])];
            tensor<bool, [5]> var_255_end_mask_0 = const()[name = tensor<string, []>("op_255_end_mask_0"), val = tensor<bool, [5]>([false, true, true, true, true])];
            tensor<bool, [5]> var_255_squeeze_mask_0 = const()[name = tensor<string, []>("op_255_squeeze_mask_0"), val = tensor<bool, [5]>([true, false, false, false, false])];
            tensor<fp16, [3, 1, 6, 1370, 64]> qkv_5_cast_fp16 = transpose(perm = var_253, x = var_252_cast_fp16)[name = tensor<string, []>("transpose_23")];
            tensor<fp16, [1, 6, 1370, 64]> var_255_cast_fp16 = slice_by_index(begin = var_255_begin_0, end = var_255_end_0, end_mask = var_255_end_mask_0, squeeze_mask = var_255_squeeze_mask_0, x = qkv_5_cast_fp16)[name = tensor<string, []>("op_255_cast_fp16")];
            tensor<fp16, []> var_256_to_fp16 = const()[name = tensor<string, []>("op_256_to_fp16"), val = tensor<fp16, []>(0x1p-3)];
            tensor<fp16, [1, 6, 1370, 64]> q_5_cast_fp16 = mul(x = var_255_cast_fp16, y = var_256_to_fp16)[name = tensor<string, []>("q_5_cast_fp16")];
            tensor<int32, [5]> k_5_begin_0 = const()[name = tensor<string, []>("k_5_begin_0"), val = tensor<int32, [5]>([1, 0, 0, 0, 0])];
            tensor<int32, [5]> k_5_end_0 = const()[name = tensor<string, []>("k_5_end_0"), val = tensor<int32, [5]>([2, 1, 6, 1370, 64])];
            tensor<bool, [5]> k_5_end_mask_0 = const()[name = tensor<string, []>("k_5_end_mask_0"), val = tensor<bool, [5]>([false, true, true, true, true])];
            tensor<bool, [5]> k_5_squeeze_mask_0 = const()[name = tensor<string, []>("k_5_squeeze_mask_0"), val = tensor<bool, [5]>([true, false, false, false, false])];
            tensor<fp16, [1, 6, 1370, 64]> k_5_cast_fp16 = slice_by_index(begin = k_5_begin_0, end = k_5_end_0, end_mask = k_5_end_mask_0, squeeze_mask = k_5_squeeze_mask_0, x = qkv_5_cast_fp16)[name = tensor<string, []>("k_5_cast_fp16")];
            tensor<int32, [5]> v_5_begin_0 = const()[name = tensor<string, []>("v_5_begin_0"), val = tensor<int32, [5]>([2, 0, 0, 0, 0])];
            tensor<int32, [5]> v_5_end_0 = const()[name = tensor<string, []>("v_5_end_0"), val = tensor<int32, [5]>([3, 1, 6, 1370, 64])];
            tensor<bool, [5]> v_5_end_mask_0 = const()[name = tensor<string, []>("v_5_end_mask_0"), val = tensor<bool, [5]>([false, true, true, true, true])];
            tensor<bool, [5]> v_5_squeeze_mask_0 = const()[name = tensor<string, []>("v_5_squeeze_mask_0"), val = tensor<bool, [5]>([true, false, false, false, false])];
            tensor<fp16, [1, 6, 1370, 64]> v_5_cast_fp16 = slice_by_index(begin = v_5_begin_0, end = v_5_end_0, end_mask = v_5_end_mask_0, squeeze_mask = v_5_squeeze_mask_0, x = qkv_5_cast_fp16)[name = tensor<string, []>("v_5_cast_fp16")];
            tensor<bool, []> attn_9_transpose_x_1 = const()[name = tensor<string, []>("attn_9_transpose_x_1"), val = tensor<bool, []>(false)];
            tensor<bool, []> attn_9_transpose_y_1 = const()[name = tensor<string, []>("attn_9_transpose_y_1"), val = tensor<bool, []>(true)];
            tensor<fp16, [1, 6, 1370, 1370]> attn_9_cast_fp16 = matmul(transpose_x = attn_9_transpose_x_1, transpose_y = attn_9_transpose_y_1, x = q_5_cast_fp16, y = k_5_cast_fp16)[name = tensor<string, []>("attn_9_cast_fp16")];
            tensor<fp16, [1, 6, 1370, 1370]> input_43_cast_fp16 = softmax(axis = var_25, x = attn_9_cast_fp16)[name = tensor<string, []>("input_43_cast_fp16")];
            tensor<bool, []> var_264_transpose_x_0 = const()[name = tensor<string, []>("op_264_transpose_x_0"), val = tensor<bool, []>(false)];
            tensor<bool, []> var_264_transpose_y_0 = const()[name = tensor<string, []>("op_264_transpose_y_0"), val = tensor<bool, []>(false)];
            tensor<fp16, [1, 6, 1370, 64]> var_264_cast_fp16 = matmul(transpose_x = var_264_transpose_x_0, transpose_y = var_264_transpose_y_0, x = input_43_cast_fp16, y = v_5_cast_fp16)[name = tensor<string, []>("op_264_cast_fp16")];
            tensor<int32, [4]> var_265_perm_0 = const()[name = tensor<string, []>("op_265_perm_0"), val = tensor<int32, [4]>([0, 2, 1, 3])];
            tensor<int32, [3]> var_266 = const()[name = tensor<string, []>("op_266"), val = tensor<int32, [3]>([1, 1370, 384])];
            tensor<fp16, [1, 1370, 6, 64]> var_265_cast_fp16 = transpose(perm = var_265_perm_0, x = var_264_cast_fp16)[name = tensor<string, []>("transpose_22")];
            tensor<fp16, [1, 1370, 384]> input_45_cast_fp16 = reshape(shape = var_266, x = var_265_cast_fp16)[name = tensor<string, []>("input_45_cast_fp16")];
            tensor<fp16, [384, 384]> model_pretrained_blocks_2_attn_proj_weight_to_fp16 = const()[name = tensor<string, []>("model_pretrained_blocks_2_attn_proj_weight_to_fp16"), val = tensor<fp16, [384, 384]>(BLOBFILE(path = tensor<string, []>("@model_path/weights/weight.bin"), offset = tensor<uint64, []>(9497152)))];
            tensor<fp16, [384]> model_pretrained_blocks_2_attn_proj_bias_to_fp16 = const()[name = tensor<string, []>("model_pretrained_blocks_2_attn_proj_bias_to_fp16"), val = tensor<fp16, [384]>(BLOBFILE(path = tensor<string, []>("@model_path/weights/weight.bin"), offset = tensor<uint64, []>(9792128)))];
            tensor<fp16, [1, 1370, 384]> linear_9_cast_fp16 = linear(bias = model_pretrained_blocks_2_attn_proj_bias_to_fp16, weight = model_pretrained_blocks_2_attn_proj_weight_to_fp16, x = input_45_cast_fp16)[name = tensor<string, []>("linear_9_cast_fp16")];
            tensor<fp16, [384]> model_pretrained_blocks_2_ls1_gamma_to_fp16 = const()[name = tensor<string, []>("model_pretrained_blocks_2_ls1_gamma_to_fp16"), val = tensor<fp16, [384]>(BLOBFILE(path = tensor<string, []>("@model_path/weights/weight.bin"), offset = tensor<uint64, []>(9792960)))];
            tensor<fp16, [1, 1370, 384]> var_273_cast_fp16 = mul(x = linear_9_cast_fp16, y = model_pretrained_blocks_2_ls1_gamma_to_fp16)[name = tensor<string, []>("op_273_cast_fp16")];
            tensor<fp16, [1, 1370, 384]> input_49_cast_fp16 = add(x = input_41_cast_fp16, y = var_273_cast_fp16)[name = tensor<string, []>("input_49_cast_fp16")];
            tensor<int32, [1]> input_51_axes_0 = const()[name = tensor<string, []>("input_51_axes_0"), val = tensor<int32, [1]>([-1])];
            tensor<fp16, [384]> model_pretrained_blocks_2_norm2_weight_to_fp16 = const()[name = tensor<string, []>("model_pretrained_blocks_2_norm2_weight_to_fp16"), val = tensor<fp16, [384]>(BLOBFILE(path = tensor<string, []>("@model_path/weights/weight.bin"), offset = tensor<uint64, []>(9793792)))];
            tensor<fp16, [384]> model_pretrained_blocks_2_norm2_bias_to_fp16 = const()[name = tensor<string, []>("model_pretrained_blocks_2_norm2_bias_to_fp16"), val = tensor<fp16, [384]>(BLOBFILE(path = tensor<string, []>("@model_path/weights/weight.bin"), offset = tensor<uint64, []>(9794624)))];
            tensor<fp16, [1, 1370, 384]> input_51_cast_fp16 = layer_norm(axes = input_51_axes_0, beta = model_pretrained_blocks_2_norm2_bias_to_fp16, epsilon = var_11_to_fp16, gamma = model_pretrained_blocks_2_norm2_weight_to_fp16, x = input_49_cast_fp16)[name = tensor<string, []>("input_51_cast_fp16")];
            tensor<fp16, [1536, 384]> model_pretrained_blocks_2_mlp_fc1_weight_to_fp16 = const()[name = tensor<string, []>("model_pretrained_blocks_2_mlp_fc1_weight_to_fp16"), val = tensor<fp16, [1536, 384]>(BLOBFILE(path = tensor<string, []>("@model_path/weights/weight.bin"), offset = tensor<uint64, []>(9795456)))];
            tensor<fp16, [1536]> model_pretrained_blocks_2_mlp_fc1_bias_to_fp16 = const()[name = tensor<string, []>("model_pretrained_blocks_2_mlp_fc1_bias_to_fp16"), val = tensor<fp16, [1536]>(BLOBFILE(path = tensor<string, []>("@model_path/weights/weight.bin"), offset = tensor<uint64, []>(10975168)))];
            tensor<fp16, [1, 1370, 1536]> linear_10_cast_fp16 = linear(bias = model_pretrained_blocks_2_mlp_fc1_bias_to_fp16, weight = model_pretrained_blocks_2_mlp_fc1_weight_to_fp16, x = input_51_cast_fp16)[name = tensor<string, []>("linear_10_cast_fp16")];
            tensor<string, []> input_55_mode_0 = const()[name = tensor<string, []>("input_55_mode_0"), val = tensor<string, []>("EXACT")];
            tensor<fp16, [1, 1370, 1536]> input_55_cast_fp16 = gelu(mode = input_55_mode_0, x = linear_10_cast_fp16)[name = tensor<string, []>("input_55_cast_fp16")];
            tensor<fp16, [384, 1536]> model_pretrained_blocks_2_mlp_fc2_weight_to_fp16 = const()[name = tensor<string, []>("model_pretrained_blocks_2_mlp_fc2_weight_to_fp16"), val = tensor<fp16, [384, 1536]>(BLOBFILE(path = tensor<string, []>("@model_path/weights/weight.bin"), offset = tensor<uint64, []>(10978304)))];
            tensor<fp16, [384]> model_pretrained_blocks_2_mlp_fc2_bias_to_fp16 = const()[name = tensor<string, []>("model_pretrained_blocks_2_mlp_fc2_bias_to_fp16"), val = tensor<fp16, [384]>(BLOBFILE(path = tensor<string, []>("@model_path/weights/weight.bin"), offset = tensor<uint64, []>(12158016)))];
            tensor<fp16, [1, 1370, 384]> linear_11_cast_fp16 = linear(bias = model_pretrained_blocks_2_mlp_fc2_bias_to_fp16, weight = model_pretrained_blocks_2_mlp_fc2_weight_to_fp16, x = input_55_cast_fp16)[name = tensor<string, []>("linear_11_cast_fp16")];
            tensor<fp16, [384]> model_pretrained_blocks_2_ls2_gamma_to_fp16 = const()[name = tensor<string, []>("model_pretrained_blocks_2_ls2_gamma_to_fp16"), val = tensor<fp16, [384]>(BLOBFILE(path = tensor<string, []>("@model_path/weights/weight.bin"), offset = tensor<uint64, []>(12158848)))];
            tensor<fp16, [1, 1370, 384]> var_291_cast_fp16 = mul(x = linear_11_cast_fp16, y = model_pretrained_blocks_2_ls2_gamma_to_fp16)[name = tensor<string, []>("op_291_cast_fp16")];
            tensor<fp16, [1, 1370, 384]> input_61_cast_fp16 = add(x = input_49_cast_fp16, y = var_291_cast_fp16)[name = tensor<string, []>("input_61_cast_fp16")];
            tensor<int32, [1]> x_29_axes_0 = const()[name = tensor<string, []>("x_29_axes_0"), val = tensor<int32, [1]>([-1])];
            tensor<fp16, [384]> model_pretrained_blocks_3_norm1_weight_to_fp16 = const()[name = tensor<string, []>("model_pretrained_blocks_3_norm1_weight_to_fp16"), val = tensor<fp16, [384]>(BLOBFILE(path = tensor<string, []>("@model_path/weights/weight.bin"), offset = tensor<uint64, []>(12159680)))];
            tensor<fp16, [384]> model_pretrained_blocks_3_norm1_bias_to_fp16 = const()[name = tensor<string, []>("model_pretrained_blocks_3_norm1_bias_to_fp16"), val = tensor<fp16, [384]>(BLOBFILE(path = tensor<string, []>("@model_path/weights/weight.bin"), offset = tensor<uint64, []>(12160512)))];
            tensor<fp16, [1, 1370, 384]> x_29_cast_fp16 = layer_norm(axes = x_29_axes_0, beta = model_pretrained_blocks_3_norm1_bias_to_fp16, epsilon = var_11_to_fp16, gamma = model_pretrained_blocks_3_norm1_weight_to_fp16, x = input_61_cast_fp16)[name = tensor<string, []>("x_29_cast_fp16")];
            tensor<fp16, [1152, 384]> model_pretrained_blocks_3_attn_qkv_weight_to_fp16 = const()[name = tensor<string, []>("model_pretrained_blocks_3_attn_qkv_weight_to_fp16"), val = tensor<fp16, [1152, 384]>(BLOBFILE(path = tensor<string, []>("@model_path/weights/weight.bin"), offset = tensor<uint64, []>(12161344)))];
            tensor<fp16, [1152]> model_pretrained_blocks_3_attn_qkv_bias_to_fp16 = const()[name = tensor<string, []>("model_pretrained_blocks_3_attn_qkv_bias_to_fp16"), val = tensor<fp16, [1152]>(BLOBFILE(path = tensor<string, []>("@model_path/weights/weight.bin"), offset = tensor<uint64, []>(13046144)))];
            tensor<fp16, [1, 1370, 1152]> linear_12_cast_fp16 = linear(bias = model_pretrained_blocks_3_attn_qkv_bias_to_fp16, weight = model_pretrained_blocks_3_attn_qkv_weight_to_fp16, x = x_29_cast_fp16)[name = tensor<string, []>("linear_12_cast_fp16")];
            tensor<int32, [5]> var_314 = const()[name = tensor<string, []>("op_314"), val = tensor<int32, [5]>([1, 1370, 3, 6, 64])];
            tensor<fp16, [1, 1370, 3, 6, 64]> var_315_cast_fp16 = reshape(shape = var_314, x = linear_12_cast_fp16)[name = tensor<string, []>("op_315_cast_fp16")];
            tensor<int32, [5]> var_316 = const()[name = tensor<string, []>("op_316"), val = tensor<int32, [5]>([2, 0, 3, 1, 4])];
            tensor<int32, [5]> var_318_begin_0 = const()[name = tensor<string, []>("op_318_begin_0"), val = tensor<int32, [5]>([0, 0, 0, 0, 0])];
            tensor<int32, [5]> var_318_end_0 = const()[name = tensor<string, []>("op_318_end_0"), val = tensor<int32, [5]>([1, 1, 6, 1370, 64])];
            tensor<bool, [5]> var_318_end_mask_0 = const()[name = tensor<string, []>("op_318_end_mask_0"), val = tensor<bool, [5]>([false, true, true, true, true])];
            tensor<bool, [5]> var_318_squeeze_mask_0 = const()[name = tensor<string, []>("op_318_squeeze_mask_0"), val = tensor<bool, [5]>([true, false, false, false, false])];
            tensor<fp16, [3, 1, 6, 1370, 64]> qkv_7_cast_fp16 = transpose(perm = var_316, x = var_315_cast_fp16)[name = tensor<string, []>("transpose_21")];
            tensor<fp16, [1, 6, 1370, 64]> var_318_cast_fp16 = slice_by_index(begin = var_318_begin_0, end = var_318_end_0, end_mask = var_318_end_mask_0, squeeze_mask = var_318_squeeze_mask_0, x = qkv_7_cast_fp16)[name = tensor<string, []>("op_318_cast_fp16")];
            tensor<fp16, []> var_319_to_fp16 = const()[name = tensor<string, []>("op_319_to_fp16"), val = tensor<fp16, []>(0x1p-3)];
            tensor<fp16, [1, 6, 1370, 64]> q_7_cast_fp16 = mul(x = var_318_cast_fp16, y = var_319_to_fp16)[name = tensor<string, []>("q_7_cast_fp16")];
            tensor<int32, [5]> k_7_begin_0 = const()[name = tensor<string, []>("k_7_begin_0"), val = tensor<int32, [5]>([1, 0, 0, 0, 0])];
            tensor<int32, [5]> k_7_end_0 = const()[name = tensor<string, []>("k_7_end_0"), val = tensor<int32, [5]>([2, 1, 6, 1370, 64])];
            tensor<bool, [5]> k_7_end_mask_0 = const()[name = tensor<string, []>("k_7_end_mask_0"), val = tensor<bool, [5]>([false, true, true, true, true])];
            tensor<bool, [5]> k_7_squeeze_mask_0 = const()[name = tensor<string, []>("k_7_squeeze_mask_0"), val = tensor<bool, [5]>([true, false, false, false, false])];
            tensor<fp16, [1, 6, 1370, 64]> k_7_cast_fp16 = slice_by_index(begin = k_7_begin_0, end = k_7_end_0, end_mask = k_7_end_mask_0, squeeze_mask = k_7_squeeze_mask_0, x = qkv_7_cast_fp16)[name = tensor<string, []>("k_7_cast_fp16")];
            tensor<int32, [5]> v_7_begin_0 = const()[name = tensor<string, []>("v_7_begin_0"), val = tensor<int32, [5]>([2, 0, 0, 0, 0])];
            tensor<int32, [5]> v_7_end_0 = const()[name = tensor<string, []>("v_7_end_0"), val = tensor<int32, [5]>([3, 1, 6, 1370, 64])];
            tensor<bool, [5]> v_7_end_mask_0 = const()[name = tensor<string, []>("v_7_end_mask_0"), val = tensor<bool, [5]>([false, true, true, true, true])];
            tensor<bool, [5]> v_7_squeeze_mask_0 = const()[name = tensor<string, []>("v_7_squeeze_mask_0"), val = tensor<bool, [5]>([true, false, false, false, false])];
            tensor<fp16, [1, 6, 1370, 64]> v_7_cast_fp16 = slice_by_index(begin = v_7_begin_0, end = v_7_end_0, end_mask = v_7_end_mask_0, squeeze_mask = v_7_squeeze_mask_0, x = qkv_7_cast_fp16)[name = tensor<string, []>("v_7_cast_fp16")];
            tensor<bool, []> attn_13_transpose_x_1 = const()[name = tensor<string, []>("attn_13_transpose_x_1"), val = tensor<bool, []>(false)];
            tensor<bool, []> attn_13_transpose_y_1 = const()[name = tensor<string, []>("attn_13_transpose_y_1"), val = tensor<bool, []>(true)];
            tensor<fp16, [1, 6, 1370, 1370]> attn_13_cast_fp16 = matmul(transpose_x = attn_13_transpose_x_1, transpose_y = attn_13_transpose_y_1, x = q_7_cast_fp16, y = k_7_cast_fp16)[name = tensor<string, []>("attn_13_cast_fp16")];
            tensor<fp16, [1, 6, 1370, 1370]> input_63_cast_fp16 = softmax(axis = var_25, x = attn_13_cast_fp16)[name = tensor<string, []>("input_63_cast_fp16")];
            tensor<bool, []> var_327_transpose_x_0 = const()[name = tensor<string, []>("op_327_transpose_x_0"), val = tensor<bool, []>(false)];
            tensor<bool, []> var_327_transpose_y_0 = const()[name = tensor<string, []>("op_327_transpose_y_0"), val = tensor<bool, []>(false)];
            tensor<fp16, [1, 6, 1370, 64]> var_327_cast_fp16 = matmul(transpose_x = var_327_transpose_x_0, transpose_y = var_327_transpose_y_0, x = input_63_cast_fp16, y = v_7_cast_fp16)[name = tensor<string, []>("op_327_cast_fp16")];
            tensor<int32, [4]> var_328_perm_0 = const()[name = tensor<string, []>("op_328_perm_0"), val = tensor<int32, [4]>([0, 2, 1, 3])];
            tensor<int32, [3]> var_329 = const()[name = tensor<string, []>("op_329"), val = tensor<int32, [3]>([1, 1370, 384])];
            tensor<fp16, [1, 1370, 6, 64]> var_328_cast_fp16 = transpose(perm = var_328_perm_0, x = var_327_cast_fp16)[name = tensor<string, []>("transpose_20")];
            tensor<fp16, [1, 1370, 384]> input_65_cast_fp16 = reshape(shape = var_329, x = var_328_cast_fp16)[name = tensor<string, []>("input_65_cast_fp16")];
            tensor<fp16, [384, 384]> model_pretrained_blocks_3_attn_proj_weight_to_fp16 = const()[name = tensor<string, []>("model_pretrained_blocks_3_attn_proj_weight_to_fp16"), val = tensor<fp16, [384, 384]>(BLOBFILE(path = tensor<string, []>("@model_path/weights/weight.bin"), offset = tensor<uint64, []>(13048512)))];
            tensor<fp16, [384]> model_pretrained_blocks_3_attn_proj_bias_to_fp16 = const()[name = tensor<string, []>("model_pretrained_blocks_3_attn_proj_bias_to_fp16"), val = tensor<fp16, [384]>(BLOBFILE(path = tensor<string, []>("@model_path/weights/weight.bin"), offset = tensor<uint64, []>(13343488)))];
            tensor<fp16, [1, 1370, 384]> linear_13_cast_fp16 = linear(bias = model_pretrained_blocks_3_attn_proj_bias_to_fp16, weight = model_pretrained_blocks_3_attn_proj_weight_to_fp16, x = input_65_cast_fp16)[name = tensor<string, []>("linear_13_cast_fp16")];
            tensor<fp16, [384]> model_pretrained_blocks_3_ls1_gamma_to_fp16 = const()[name = tensor<string, []>("model_pretrained_blocks_3_ls1_gamma_to_fp16"), val = tensor<fp16, [384]>(BLOBFILE(path = tensor<string, []>("@model_path/weights/weight.bin"), offset = tensor<uint64, []>(13344320)))];
            tensor<fp16, [1, 1370, 384]> var_336_cast_fp16 = mul(x = linear_13_cast_fp16, y = model_pretrained_blocks_3_ls1_gamma_to_fp16)[name = tensor<string, []>("op_336_cast_fp16")];
            tensor<fp16, [1, 1370, 384]> input_69_cast_fp16 = add(x = input_61_cast_fp16, y = var_336_cast_fp16)[name = tensor<string, []>("input_69_cast_fp16")];
            tensor<int32, [1]> input_71_axes_0 = const()[name = tensor<string, []>("input_71_axes_0"), val = tensor<int32, [1]>([-1])];
            tensor<fp16, [384]> model_pretrained_blocks_3_norm2_weight_to_fp16 = const()[name = tensor<string, []>("model_pretrained_blocks_3_norm2_weight_to_fp16"), val = tensor<fp16, [384]>(BLOBFILE(path = tensor<string, []>("@model_path/weights/weight.bin"), offset = tensor<uint64, []>(13345152)))];
            tensor<fp16, [384]> model_pretrained_blocks_3_norm2_bias_to_fp16 = const()[name = tensor<string, []>("model_pretrained_blocks_3_norm2_bias_to_fp16"), val = tensor<fp16, [384]>(BLOBFILE(path = tensor<string, []>("@model_path/weights/weight.bin"), offset = tensor<uint64, []>(13345984)))];
            tensor<fp16, [1, 1370, 384]> input_71_cast_fp16 = layer_norm(axes = input_71_axes_0, beta = model_pretrained_blocks_3_norm2_bias_to_fp16, epsilon = var_11_to_fp16, gamma = model_pretrained_blocks_3_norm2_weight_to_fp16, x = input_69_cast_fp16)[name = tensor<string, []>("input_71_cast_fp16")];
            tensor<fp16, [1536, 384]> model_pretrained_blocks_3_mlp_fc1_weight_to_fp16 = const()[name = tensor<string, []>("model_pretrained_blocks_3_mlp_fc1_weight_to_fp16"), val = tensor<fp16, [1536, 384]>(BLOBFILE(path = tensor<string, []>("@model_path/weights/weight.bin"), offset = tensor<uint64, []>(13346816)))];
            tensor<fp16, [1536]> model_pretrained_blocks_3_mlp_fc1_bias_to_fp16 = const()[name = tensor<string, []>("model_pretrained_blocks_3_mlp_fc1_bias_to_fp16"), val = tensor<fp16, [1536]>(BLOBFILE(path = tensor<string, []>("@model_path/weights/weight.bin"), offset = tensor<uint64, []>(14526528)))];
            tensor<fp16, [1, 1370, 1536]> linear_14_cast_fp16 = linear(bias = model_pretrained_blocks_3_mlp_fc1_bias_to_fp16, weight = model_pretrained_blocks_3_mlp_fc1_weight_to_fp16, x = input_71_cast_fp16)[name = tensor<string, []>("linear_14_cast_fp16")];
            tensor<string, []> input_75_mode_0 = const()[name = tensor<string, []>("input_75_mode_0"), val = tensor<string, []>("EXACT")];
            tensor<fp16, [1, 1370, 1536]> input_75_cast_fp16 = gelu(mode = input_75_mode_0, x = linear_14_cast_fp16)[name = tensor<string, []>("input_75_cast_fp16")];
            tensor<fp16, [384, 1536]> model_pretrained_blocks_3_mlp_fc2_weight_to_fp16 = const()[name = tensor<string, []>("model_pretrained_blocks_3_mlp_fc2_weight_to_fp16"), val = tensor<fp16, [384, 1536]>(BLOBFILE(path = tensor<string, []>("@model_path/weights/weight.bin"), offset = tensor<uint64, []>(14529664)))];
            tensor<fp16, [384]> model_pretrained_blocks_3_mlp_fc2_bias_to_fp16 = const()[name = tensor<string, []>("model_pretrained_blocks_3_mlp_fc2_bias_to_fp16"), val = tensor<fp16, [384]>(BLOBFILE(path = tensor<string, []>("@model_path/weights/weight.bin"), offset = tensor<uint64, []>(15709376)))];
            tensor<fp16, [1, 1370, 384]> linear_15_cast_fp16 = linear(bias = model_pretrained_blocks_3_mlp_fc2_bias_to_fp16, weight = model_pretrained_blocks_3_mlp_fc2_weight_to_fp16, x = input_75_cast_fp16)[name = tensor<string, []>("linear_15_cast_fp16")];
            tensor<fp16, [384]> model_pretrained_blocks_3_ls2_gamma_to_fp16 = const()[name = tensor<string, []>("model_pretrained_blocks_3_ls2_gamma_to_fp16"), val = tensor<fp16, [384]>(BLOBFILE(path = tensor<string, []>("@model_path/weights/weight.bin"), offset = tensor<uint64, []>(15710208)))];
            tensor<fp16, [1, 1370, 384]> var_354_cast_fp16 = mul(x = linear_15_cast_fp16, y = model_pretrained_blocks_3_ls2_gamma_to_fp16)[name = tensor<string, []>("op_354_cast_fp16")];
            tensor<fp16, [1, 1370, 384]> input_81_cast_fp16 = add(x = input_69_cast_fp16, y = var_354_cast_fp16)[name = tensor<string, []>("input_81_cast_fp16")];
            tensor<int32, [1]> x_35_axes_0 = const()[name = tensor<string, []>("x_35_axes_0"), val = tensor<int32, [1]>([-1])];
            tensor<fp16, [384]> model_pretrained_blocks_4_norm1_weight_to_fp16 = const()[name = tensor<string, []>("model_pretrained_blocks_4_norm1_weight_to_fp16"), val = tensor<fp16, [384]>(BLOBFILE(path = tensor<string, []>("@model_path/weights/weight.bin"), offset = tensor<uint64, []>(15711040)))];
            tensor<fp16, [384]> model_pretrained_blocks_4_norm1_bias_to_fp16 = const()[name = tensor<string, []>("model_pretrained_blocks_4_norm1_bias_to_fp16"), val = tensor<fp16, [384]>(BLOBFILE(path = tensor<string, []>("@model_path/weights/weight.bin"), offset = tensor<uint64, []>(15711872)))];
            tensor<fp16, [1, 1370, 384]> x_35_cast_fp16 = layer_norm(axes = x_35_axes_0, beta = model_pretrained_blocks_4_norm1_bias_to_fp16, epsilon = var_11_to_fp16, gamma = model_pretrained_blocks_4_norm1_weight_to_fp16, x = input_81_cast_fp16)[name = tensor<string, []>("x_35_cast_fp16")];
            tensor<fp16, [1152, 384]> model_pretrained_blocks_4_attn_qkv_weight_to_fp16 = const()[name = tensor<string, []>("model_pretrained_blocks_4_attn_qkv_weight_to_fp16"), val = tensor<fp16, [1152, 384]>(BLOBFILE(path = tensor<string, []>("@model_path/weights/weight.bin"), offset = tensor<uint64, []>(15712704)))];
            tensor<fp16, [1152]> model_pretrained_blocks_4_attn_qkv_bias_to_fp16 = const()[name = tensor<string, []>("model_pretrained_blocks_4_attn_qkv_bias_to_fp16"), val = tensor<fp16, [1152]>(BLOBFILE(path = tensor<string, []>("@model_path/weights/weight.bin"), offset = tensor<uint64, []>(16597504)))];
            tensor<fp16, [1, 1370, 1152]> linear_16_cast_fp16 = linear(bias = model_pretrained_blocks_4_attn_qkv_bias_to_fp16, weight = model_pretrained_blocks_4_attn_qkv_weight_to_fp16, x = x_35_cast_fp16)[name = tensor<string, []>("linear_16_cast_fp16")];
            tensor<int32, [5]> var_377 = const()[name = tensor<string, []>("op_377"), val = tensor<int32, [5]>([1, 1370, 3, 6, 64])];
            tensor<fp16, [1, 1370, 3, 6, 64]> var_378_cast_fp16 = reshape(shape = var_377, x = linear_16_cast_fp16)[name = tensor<string, []>("op_378_cast_fp16")];
            tensor<int32, [5]> var_379 = const()[name = tensor<string, []>("op_379"), val = tensor<int32, [5]>([2, 0, 3, 1, 4])];
            tensor<int32, [5]> var_381_begin_0 = const()[name = tensor<string, []>("op_381_begin_0"), val = tensor<int32, [5]>([0, 0, 0, 0, 0])];
            tensor<int32, [5]> var_381_end_0 = const()[name = tensor<string, []>("op_381_end_0"), val = tensor<int32, [5]>([1, 1, 6, 1370, 64])];
            tensor<bool, [5]> var_381_end_mask_0 = const()[name = tensor<string, []>("op_381_end_mask_0"), val = tensor<bool, [5]>([false, true, true, true, true])];
            tensor<bool, [5]> var_381_squeeze_mask_0 = const()[name = tensor<string, []>("op_381_squeeze_mask_0"), val = tensor<bool, [5]>([true, false, false, false, false])];
            tensor<fp16, [3, 1, 6, 1370, 64]> qkv_9_cast_fp16 = transpose(perm = var_379, x = var_378_cast_fp16)[name = tensor<string, []>("transpose_19")];
            tensor<fp16, [1, 6, 1370, 64]> var_381_cast_fp16 = slice_by_index(begin = var_381_begin_0, end = var_381_end_0, end_mask = var_381_end_mask_0, squeeze_mask = var_381_squeeze_mask_0, x = qkv_9_cast_fp16)[name = tensor<string, []>("op_381_cast_fp16")];
            tensor<fp16, []> var_382_to_fp16 = const()[name = tensor<string, []>("op_382_to_fp16"), val = tensor<fp16, []>(0x1p-3)];
            tensor<fp16, [1, 6, 1370, 64]> q_9_cast_fp16 = mul(x = var_381_cast_fp16, y = var_382_to_fp16)[name = tensor<string, []>("q_9_cast_fp16")];
            tensor<int32, [5]> k_9_begin_0 = const()[name = tensor<string, []>("k_9_begin_0"), val = tensor<int32, [5]>([1, 0, 0, 0, 0])];
            tensor<int32, [5]> k_9_end_0 = const()[name = tensor<string, []>("k_9_end_0"), val = tensor<int32, [5]>([2, 1, 6, 1370, 64])];
            tensor<bool, [5]> k_9_end_mask_0 = const()[name = tensor<string, []>("k_9_end_mask_0"), val = tensor<bool, [5]>([false, true, true, true, true])];
            tensor<bool, [5]> k_9_squeeze_mask_0 = const()[name = tensor<string, []>("k_9_squeeze_mask_0"), val = tensor<bool, [5]>([true, false, false, false, false])];
            tensor<fp16, [1, 6, 1370, 64]> k_9_cast_fp16 = slice_by_index(begin = k_9_begin_0, end = k_9_end_0, end_mask = k_9_end_mask_0, squeeze_mask = k_9_squeeze_mask_0, x = qkv_9_cast_fp16)[name = tensor<string, []>("k_9_cast_fp16")];
            tensor<int32, [5]> v_9_begin_0 = const()[name = tensor<string, []>("v_9_begin_0"), val = tensor<int32, [5]>([2, 0, 0, 0, 0])];
            tensor<int32, [5]> v_9_end_0 = const()[name = tensor<string, []>("v_9_end_0"), val = tensor<int32, [5]>([3, 1, 6, 1370, 64])];
            tensor<bool, [5]> v_9_end_mask_0 = const()[name = tensor<string, []>("v_9_end_mask_0"), val = tensor<bool, [5]>([false, true, true, true, true])];
            tensor<bool, [5]> v_9_squeeze_mask_0 = const()[name = tensor<string, []>("v_9_squeeze_mask_0"), val = tensor<bool, [5]>([true, false, false, false, false])];
            tensor<fp16, [1, 6, 1370, 64]> v_9_cast_fp16 = slice_by_index(begin = v_9_begin_0, end = v_9_end_0, end_mask = v_9_end_mask_0, squeeze_mask = v_9_squeeze_mask_0, x = qkv_9_cast_fp16)[name = tensor<string, []>("v_9_cast_fp16")];
            tensor<bool, []> attn_17_transpose_x_1 = const()[name = tensor<string, []>("attn_17_transpose_x_1"), val = tensor<bool, []>(false)];
            tensor<bool, []> attn_17_transpose_y_1 = const()[name = tensor<string, []>("attn_17_transpose_y_1"), val = tensor<bool, []>(true)];
            tensor<fp16, [1, 6, 1370, 1370]> attn_17_cast_fp16 = matmul(transpose_x = attn_17_transpose_x_1, transpose_y = attn_17_transpose_y_1, x = q_9_cast_fp16, y = k_9_cast_fp16)[name = tensor<string, []>("attn_17_cast_fp16")];
            tensor<fp16, [1, 6, 1370, 1370]> input_83_cast_fp16 = softmax(axis = var_25, x = attn_17_cast_fp16)[name = tensor<string, []>("input_83_cast_fp16")];
            tensor<bool, []> var_390_transpose_x_0 = const()[name = tensor<string, []>("op_390_transpose_x_0"), val = tensor<bool, []>(false)];
            tensor<bool, []> var_390_transpose_y_0 = const()[name = tensor<string, []>("op_390_transpose_y_0"), val = tensor<bool, []>(false)];
            tensor<fp16, [1, 6, 1370, 64]> var_390_cast_fp16 = matmul(transpose_x = var_390_transpose_x_0, transpose_y = var_390_transpose_y_0, x = input_83_cast_fp16, y = v_9_cast_fp16)[name = tensor<string, []>("op_390_cast_fp16")];
            tensor<int32, [4]> var_391_perm_0 = const()[name = tensor<string, []>("op_391_perm_0"), val = tensor<int32, [4]>([0, 2, 1, 3])];
            tensor<int32, [3]> var_392 = const()[name = tensor<string, []>("op_392"), val = tensor<int32, [3]>([1, 1370, 384])];
            tensor<fp16, [1, 1370, 6, 64]> var_391_cast_fp16 = transpose(perm = var_391_perm_0, x = var_390_cast_fp16)[name = tensor<string, []>("transpose_18")];
            tensor<fp16, [1, 1370, 384]> input_85_cast_fp16 = reshape(shape = var_392, x = var_391_cast_fp16)[name = tensor<string, []>("input_85_cast_fp16")];
            tensor<fp16, [384, 384]> model_pretrained_blocks_4_attn_proj_weight_to_fp16 = const()[name = tensor<string, []>("model_pretrained_blocks_4_attn_proj_weight_to_fp16"), val = tensor<fp16, [384, 384]>(BLOBFILE(path = tensor<string, []>("@model_path/weights/weight.bin"), offset = tensor<uint64, []>(16599872)))];
            tensor<fp16, [384]> model_pretrained_blocks_4_attn_proj_bias_to_fp16 = const()[name = tensor<string, []>("model_pretrained_blocks_4_attn_proj_bias_to_fp16"), val = tensor<fp16, [384]>(BLOBFILE(path = tensor<string, []>("@model_path/weights/weight.bin"), offset = tensor<uint64, []>(16894848)))];
            tensor<fp16, [1, 1370, 384]> linear_17_cast_fp16 = linear(bias = model_pretrained_blocks_4_attn_proj_bias_to_fp16, weight = model_pretrained_blocks_4_attn_proj_weight_to_fp16, x = input_85_cast_fp16)[name = tensor<string, []>("linear_17_cast_fp16")];
            tensor<fp16, [384]> model_pretrained_blocks_4_ls1_gamma_to_fp16 = const()[name = tensor<string, []>("model_pretrained_blocks_4_ls1_gamma_to_fp16"), val = tensor<fp16, [384]>(BLOBFILE(path = tensor<string, []>("@model_path/weights/weight.bin"), offset = tensor<uint64, []>(16895680)))];
            tensor<fp16, [1, 1370, 384]> var_399_cast_fp16 = mul(x = linear_17_cast_fp16, y = model_pretrained_blocks_4_ls1_gamma_to_fp16)[name = tensor<string, []>("op_399_cast_fp16")];
            tensor<fp16, [1, 1370, 384]> input_89_cast_fp16 = add(x = input_81_cast_fp16, y = var_399_cast_fp16)[name = tensor<string, []>("input_89_cast_fp16")];
            tensor<int32, [1]> input_91_axes_0 = const()[name = tensor<string, []>("input_91_axes_0"), val = tensor<int32, [1]>([-1])];
            tensor<fp16, [384]> model_pretrained_blocks_4_norm2_weight_to_fp16 = const()[name = tensor<string, []>("model_pretrained_blocks_4_norm2_weight_to_fp16"), val = tensor<fp16, [384]>(BLOBFILE(path = tensor<string, []>("@model_path/weights/weight.bin"), offset = tensor<uint64, []>(16896512)))];
            tensor<fp16, [384]> model_pretrained_blocks_4_norm2_bias_to_fp16 = const()[name = tensor<string, []>("model_pretrained_blocks_4_norm2_bias_to_fp16"), val = tensor<fp16, [384]>(BLOBFILE(path = tensor<string, []>("@model_path/weights/weight.bin"), offset = tensor<uint64, []>(16897344)))];
            tensor<fp16, [1, 1370, 384]> input_91_cast_fp16 = layer_norm(axes = input_91_axes_0, beta = model_pretrained_blocks_4_norm2_bias_to_fp16, epsilon = var_11_to_fp16, gamma = model_pretrained_blocks_4_norm2_weight_to_fp16, x = input_89_cast_fp16)[name = tensor<string, []>("input_91_cast_fp16")];
            tensor<fp16, [1536, 384]> model_pretrained_blocks_4_mlp_fc1_weight_to_fp16 = const()[name = tensor<string, []>("model_pretrained_blocks_4_mlp_fc1_weight_to_fp16"), val = tensor<fp16, [1536, 384]>(BLOBFILE(path = tensor<string, []>("@model_path/weights/weight.bin"), offset = tensor<uint64, []>(16898176)))];
            tensor<fp16, [1536]> model_pretrained_blocks_4_mlp_fc1_bias_to_fp16 = const()[name = tensor<string, []>("model_pretrained_blocks_4_mlp_fc1_bias_to_fp16"), val = tensor<fp16, [1536]>(BLOBFILE(path = tensor<string, []>("@model_path/weights/weight.bin"), offset = tensor<uint64, []>(18077888)))];
            tensor<fp16, [1, 1370, 1536]> linear_18_cast_fp16 = linear(bias = model_pretrained_blocks_4_mlp_fc1_bias_to_fp16, weight = model_pretrained_blocks_4_mlp_fc1_weight_to_fp16, x = input_91_cast_fp16)[name = tensor<string, []>("linear_18_cast_fp16")];
            tensor<string, []> input_95_mode_0 = const()[name = tensor<string, []>("input_95_mode_0"), val = tensor<string, []>("EXACT")];
            tensor<fp16, [1, 1370, 1536]> input_95_cast_fp16 = gelu(mode = input_95_mode_0, x = linear_18_cast_fp16)[name = tensor<string, []>("input_95_cast_fp16")];
            tensor<fp16, [384, 1536]> model_pretrained_blocks_4_mlp_fc2_weight_to_fp16 = const()[name = tensor<string, []>("model_pretrained_blocks_4_mlp_fc2_weight_to_fp16"), val = tensor<fp16, [384, 1536]>(BLOBFILE(path = tensor<string, []>("@model_path/weights/weight.bin"), offset = tensor<uint64, []>(18081024)))];
            tensor<fp16, [384]> model_pretrained_blocks_4_mlp_fc2_bias_to_fp16 = const()[name = tensor<string, []>("model_pretrained_blocks_4_mlp_fc2_bias_to_fp16"), val = tensor<fp16, [384]>(BLOBFILE(path = tensor<string, []>("@model_path/weights/weight.bin"), offset = tensor<uint64, []>(19260736)))];
            tensor<fp16, [1, 1370, 384]> linear_19_cast_fp16 = linear(bias = model_pretrained_blocks_4_mlp_fc2_bias_to_fp16, weight = model_pretrained_blocks_4_mlp_fc2_weight_to_fp16, x = input_95_cast_fp16)[name = tensor<string, []>("linear_19_cast_fp16")];
            tensor<fp16, [384]> model_pretrained_blocks_4_ls2_gamma_to_fp16 = const()[name = tensor<string, []>("model_pretrained_blocks_4_ls2_gamma_to_fp16"), val = tensor<fp16, [384]>(BLOBFILE(path = tensor<string, []>("@model_path/weights/weight.bin"), offset = tensor<uint64, []>(19261568)))];
            tensor<fp16, [1, 1370, 384]> var_417_cast_fp16 = mul(x = linear_19_cast_fp16, y = model_pretrained_blocks_4_ls2_gamma_to_fp16)[name = tensor<string, []>("op_417_cast_fp16")];
            tensor<fp16, [1, 1370, 384]> input_101_cast_fp16 = add(x = input_89_cast_fp16, y = var_417_cast_fp16)[name = tensor<string, []>("input_101_cast_fp16")];
            tensor<int32, [1]> x_41_axes_0 = const()[name = tensor<string, []>("x_41_axes_0"), val = tensor<int32, [1]>([-1])];
            tensor<fp16, [384]> model_pretrained_blocks_5_norm1_weight_to_fp16 = const()[name = tensor<string, []>("model_pretrained_blocks_5_norm1_weight_to_fp16"), val = tensor<fp16, [384]>(BLOBFILE(path = tensor<string, []>("@model_path/weights/weight.bin"), offset = tensor<uint64, []>(19262400)))];
            tensor<fp16, [384]> model_pretrained_blocks_5_norm1_bias_to_fp16 = const()[name = tensor<string, []>("model_pretrained_blocks_5_norm1_bias_to_fp16"), val = tensor<fp16, [384]>(BLOBFILE(path = tensor<string, []>("@model_path/weights/weight.bin"), offset = tensor<uint64, []>(19263232)))];
            tensor<fp16, [1, 1370, 384]> x_41_cast_fp16 = layer_norm(axes = x_41_axes_0, beta = model_pretrained_blocks_5_norm1_bias_to_fp16, epsilon = var_11_to_fp16, gamma = model_pretrained_blocks_5_norm1_weight_to_fp16, x = input_101_cast_fp16)[name = tensor<string, []>("x_41_cast_fp16")];
            tensor<fp16, [1152, 384]> model_pretrained_blocks_5_attn_qkv_weight_to_fp16 = const()[name = tensor<string, []>("model_pretrained_blocks_5_attn_qkv_weight_to_fp16"), val = tensor<fp16, [1152, 384]>(BLOBFILE(path = tensor<string, []>("@model_path/weights/weight.bin"), offset = tensor<uint64, []>(19264064)))];
            tensor<fp16, [1152]> model_pretrained_blocks_5_attn_qkv_bias_to_fp16 = const()[name = tensor<string, []>("model_pretrained_blocks_5_attn_qkv_bias_to_fp16"), val = tensor<fp16, [1152]>(BLOBFILE(path = tensor<string, []>("@model_path/weights/weight.bin"), offset = tensor<uint64, []>(20148864)))];
            tensor<fp16, [1, 1370, 1152]> linear_20_cast_fp16 = linear(bias = model_pretrained_blocks_5_attn_qkv_bias_to_fp16, weight = model_pretrained_blocks_5_attn_qkv_weight_to_fp16, x = x_41_cast_fp16)[name = tensor<string, []>("linear_20_cast_fp16")];
            tensor<int32, [5]> var_440 = const()[name = tensor<string, []>("op_440"), val = tensor<int32, [5]>([1, 1370, 3, 6, 64])];
            tensor<fp16, [1, 1370, 3, 6, 64]> var_441_cast_fp16 = reshape(shape = var_440, x = linear_20_cast_fp16)[name = tensor<string, []>("op_441_cast_fp16")];
            tensor<int32, [5]> var_442 = const()[name = tensor<string, []>("op_442"), val = tensor<int32, [5]>([2, 0, 3, 1, 4])];
            tensor<int32, [5]> var_444_begin_0 = const()[name = tensor<string, []>("op_444_begin_0"), val = tensor<int32, [5]>([0, 0, 0, 0, 0])];
            tensor<int32, [5]> var_444_end_0 = const()[name = tensor<string, []>("op_444_end_0"), val = tensor<int32, [5]>([1, 1, 6, 1370, 64])];
            tensor<bool, [5]> var_444_end_mask_0 = const()[name = tensor<string, []>("op_444_end_mask_0"), val = tensor<bool, [5]>([false, true, true, true, true])];
            tensor<bool, [5]> var_444_squeeze_mask_0 = const()[name = tensor<string, []>("op_444_squeeze_mask_0"), val = tensor<bool, [5]>([true, false, false, false, false])];
            tensor<fp16, [3, 1, 6, 1370, 64]> qkv_11_cast_fp16 = transpose(perm = var_442, x = var_441_cast_fp16)[name = tensor<string, []>("transpose_17")];
            tensor<fp16, [1, 6, 1370, 64]> var_444_cast_fp16 = slice_by_index(begin = var_444_begin_0, end = var_444_end_0, end_mask = var_444_end_mask_0, squeeze_mask = var_444_squeeze_mask_0, x = qkv_11_cast_fp16)[name = tensor<string, []>("op_444_cast_fp16")];
            tensor<fp16, []> var_445_to_fp16 = const()[name = tensor<string, []>("op_445_to_fp16"), val = tensor<fp16, []>(0x1p-3)];
            tensor<fp16, [1, 6, 1370, 64]> q_11_cast_fp16 = mul(x = var_444_cast_fp16, y = var_445_to_fp16)[name = tensor<string, []>("q_11_cast_fp16")];
            tensor<int32, [5]> k_11_begin_0 = const()[name = tensor<string, []>("k_11_begin_0"), val = tensor<int32, [5]>([1, 0, 0, 0, 0])];
            tensor<int32, [5]> k_11_end_0 = const()[name = tensor<string, []>("k_11_end_0"), val = tensor<int32, [5]>([2, 1, 6, 1370, 64])];
            tensor<bool, [5]> k_11_end_mask_0 = const()[name = tensor<string, []>("k_11_end_mask_0"), val = tensor<bool, [5]>([false, true, true, true, true])];
            tensor<bool, [5]> k_11_squeeze_mask_0 = const()[name = tensor<string, []>("k_11_squeeze_mask_0"), val = tensor<bool, [5]>([true, false, false, false, false])];
            tensor<fp16, [1, 6, 1370, 64]> k_11_cast_fp16 = slice_by_index(begin = k_11_begin_0, end = k_11_end_0, end_mask = k_11_end_mask_0, squeeze_mask = k_11_squeeze_mask_0, x = qkv_11_cast_fp16)[name = tensor<string, []>("k_11_cast_fp16")];
            tensor<int32, [5]> v_11_begin_0 = const()[name = tensor<string, []>("v_11_begin_0"), val = tensor<int32, [5]>([2, 0, 0, 0, 0])];
            tensor<int32, [5]> v_11_end_0 = const()[name = tensor<string, []>("v_11_end_0"), val = tensor<int32, [5]>([3, 1, 6, 1370, 64])];
            tensor<bool, [5]> v_11_end_mask_0 = const()[name = tensor<string, []>("v_11_end_mask_0"), val = tensor<bool, [5]>([false, true, true, true, true])];
            tensor<bool, [5]> v_11_squeeze_mask_0 = const()[name = tensor<string, []>("v_11_squeeze_mask_0"), val = tensor<bool, [5]>([true, false, false, false, false])];
            tensor<fp16, [1, 6, 1370, 64]> v_11_cast_fp16 = slice_by_index(begin = v_11_begin_0, end = v_11_end_0, end_mask = v_11_end_mask_0, squeeze_mask = v_11_squeeze_mask_0, x = qkv_11_cast_fp16)[name = tensor<string, []>("v_11_cast_fp16")];
            tensor<bool, []> attn_21_transpose_x_1 = const()[name = tensor<string, []>("attn_21_transpose_x_1"), val = tensor<bool, []>(false)];
            tensor<bool, []> attn_21_transpose_y_1 = const()[name = tensor<string, []>("attn_21_transpose_y_1"), val = tensor<bool, []>(true)];
            tensor<fp16, [1, 6, 1370, 1370]> attn_21_cast_fp16 = matmul(transpose_x = attn_21_transpose_x_1, transpose_y = attn_21_transpose_y_1, x = q_11_cast_fp16, y = k_11_cast_fp16)[name = tensor<string, []>("attn_21_cast_fp16")];
            tensor<fp16, [1, 6, 1370, 1370]> input_103_cast_fp16 = softmax(axis = var_25, x = attn_21_cast_fp16)[name = tensor<string, []>("input_103_cast_fp16")];
            tensor<bool, []> var_453_transpose_x_0 = const()[name = tensor<string, []>("op_453_transpose_x_0"), val = tensor<bool, []>(false)];
            tensor<bool, []> var_453_transpose_y_0 = const()[name = tensor<string, []>("op_453_transpose_y_0"), val = tensor<bool, []>(false)];
            tensor<fp16, [1, 6, 1370, 64]> var_453_cast_fp16 = matmul(transpose_x = var_453_transpose_x_0, transpose_y = var_453_transpose_y_0, x = input_103_cast_fp16, y = v_11_cast_fp16)[name = tensor<string, []>("op_453_cast_fp16")];
            tensor<int32, [4]> var_454_perm_0 = const()[name = tensor<string, []>("op_454_perm_0"), val = tensor<int32, [4]>([0, 2, 1, 3])];
            tensor<int32, [3]> var_455 = const()[name = tensor<string, []>("op_455"), val = tensor<int32, [3]>([1, 1370, 384])];
            tensor<fp16, [1, 1370, 6, 64]> var_454_cast_fp16 = transpose(perm = var_454_perm_0, x = var_453_cast_fp16)[name = tensor<string, []>("transpose_16")];
            tensor<fp16, [1, 1370, 384]> input_105_cast_fp16 = reshape(shape = var_455, x = var_454_cast_fp16)[name = tensor<string, []>("input_105_cast_fp16")];
            tensor<fp16, [384, 384]> model_pretrained_blocks_5_attn_proj_weight_to_fp16 = const()[name = tensor<string, []>("model_pretrained_blocks_5_attn_proj_weight_to_fp16"), val = tensor<fp16, [384, 384]>(BLOBFILE(path = tensor<string, []>("@model_path/weights/weight.bin"), offset = tensor<uint64, []>(20151232)))];
            tensor<fp16, [384]> model_pretrained_blocks_5_attn_proj_bias_to_fp16 = const()[name = tensor<string, []>("model_pretrained_blocks_5_attn_proj_bias_to_fp16"), val = tensor<fp16, [384]>(BLOBFILE(path = tensor<string, []>("@model_path/weights/weight.bin"), offset = tensor<uint64, []>(20446208)))];
            tensor<fp16, [1, 1370, 384]> linear_21_cast_fp16 = linear(bias = model_pretrained_blocks_5_attn_proj_bias_to_fp16, weight = model_pretrained_blocks_5_attn_proj_weight_to_fp16, x = input_105_cast_fp16)[name = tensor<string, []>("linear_21_cast_fp16")];
            tensor<fp16, [384]> model_pretrained_blocks_5_ls1_gamma_to_fp16 = const()[name = tensor<string, []>("model_pretrained_blocks_5_ls1_gamma_to_fp16"), val = tensor<fp16, [384]>(BLOBFILE(path = tensor<string, []>("@model_path/weights/weight.bin"), offset = tensor<uint64, []>(20447040)))];
            tensor<fp16, [1, 1370, 384]> var_462_cast_fp16 = mul(x = linear_21_cast_fp16, y = model_pretrained_blocks_5_ls1_gamma_to_fp16)[name = tensor<string, []>("op_462_cast_fp16")];
            tensor<fp16, [1, 1370, 384]> input_109_cast_fp16 = add(x = input_101_cast_fp16, y = var_462_cast_fp16)[name = tensor<string, []>("input_109_cast_fp16")];
            tensor<int32, [1]> input_111_axes_0 = const()[name = tensor<string, []>("input_111_axes_0"), val = tensor<int32, [1]>([-1])];
            tensor<fp16, [384]> model_pretrained_blocks_5_norm2_weight_to_fp16 = const()[name = tensor<string, []>("model_pretrained_blocks_5_norm2_weight_to_fp16"), val = tensor<fp16, [384]>(BLOBFILE(path = tensor<string, []>("@model_path/weights/weight.bin"), offset = tensor<uint64, []>(20447872)))];
            tensor<fp16, [384]> model_pretrained_blocks_5_norm2_bias_to_fp16 = const()[name = tensor<string, []>("model_pretrained_blocks_5_norm2_bias_to_fp16"), val = tensor<fp16, [384]>(BLOBFILE(path = tensor<string, []>("@model_path/weights/weight.bin"), offset = tensor<uint64, []>(20448704)))];
            tensor<fp16, [1, 1370, 384]> input_111_cast_fp16 = layer_norm(axes = input_111_axes_0, beta = model_pretrained_blocks_5_norm2_bias_to_fp16, epsilon = var_11_to_fp16, gamma = model_pretrained_blocks_5_norm2_weight_to_fp16, x = input_109_cast_fp16)[name = tensor<string, []>("input_111_cast_fp16")];
            tensor<fp16, [1536, 384]> model_pretrained_blocks_5_mlp_fc1_weight_to_fp16 = const()[name = tensor<string, []>("model_pretrained_blocks_5_mlp_fc1_weight_to_fp16"), val = tensor<fp16, [1536, 384]>(BLOBFILE(path = tensor<string, []>("@model_path/weights/weight.bin"), offset = tensor<uint64, []>(20449536)))];
            tensor<fp16, [1536]> model_pretrained_blocks_5_mlp_fc1_bias_to_fp16 = const()[name = tensor<string, []>("model_pretrained_blocks_5_mlp_fc1_bias_to_fp16"), val = tensor<fp16, [1536]>(BLOBFILE(path = tensor<string, []>("@model_path/weights/weight.bin"), offset = tensor<uint64, []>(21629248)))];
            tensor<fp16, [1, 1370, 1536]> linear_22_cast_fp16 = linear(bias = model_pretrained_blocks_5_mlp_fc1_bias_to_fp16, weight = model_pretrained_blocks_5_mlp_fc1_weight_to_fp16, x = input_111_cast_fp16)[name = tensor<string, []>("linear_22_cast_fp16")];
            tensor<string, []> input_115_mode_0 = const()[name = tensor<string, []>("input_115_mode_0"), val = tensor<string, []>("EXACT")];
            tensor<fp16, [1, 1370, 1536]> input_115_cast_fp16 = gelu(mode = input_115_mode_0, x = linear_22_cast_fp16)[name = tensor<string, []>("input_115_cast_fp16")];
            tensor<fp16, [384, 1536]> model_pretrained_blocks_5_mlp_fc2_weight_to_fp16 = const()[name = tensor<string, []>("model_pretrained_blocks_5_mlp_fc2_weight_to_fp16"), val = tensor<fp16, [384, 1536]>(BLOBFILE(path = tensor<string, []>("@model_path/weights/weight.bin"), offset = tensor<uint64, []>(21632384)))];
            tensor<fp16, [384]> model_pretrained_blocks_5_mlp_fc2_bias_to_fp16 = const()[name = tensor<string, []>("model_pretrained_blocks_5_mlp_fc2_bias_to_fp16"), val = tensor<fp16, [384]>(BLOBFILE(path = tensor<string, []>("@model_path/weights/weight.bin"), offset = tensor<uint64, []>(22812096)))];
            tensor<fp16, [1, 1370, 384]> linear_23_cast_fp16 = linear(bias = model_pretrained_blocks_5_mlp_fc2_bias_to_fp16, weight = model_pretrained_blocks_5_mlp_fc2_weight_to_fp16, x = input_115_cast_fp16)[name = tensor<string, []>("linear_23_cast_fp16")];
            tensor<fp16, [384]> model_pretrained_blocks_5_ls2_gamma_to_fp16 = const()[name = tensor<string, []>("model_pretrained_blocks_5_ls2_gamma_to_fp16"), val = tensor<fp16, [384]>(BLOBFILE(path = tensor<string, []>("@model_path/weights/weight.bin"), offset = tensor<uint64, []>(22812928)))];
            tensor<fp16, [1, 1370, 384]> var_480_cast_fp16 = mul(x = linear_23_cast_fp16, y = model_pretrained_blocks_5_ls2_gamma_to_fp16)[name = tensor<string, []>("op_480_cast_fp16")];
            tensor<fp16, [1, 1370, 384]> input_121_cast_fp16 = add(x = input_109_cast_fp16, y = var_480_cast_fp16)[name = tensor<string, []>("input_121_cast_fp16")];
            tensor<int32, [1]> x_47_axes_0 = const()[name = tensor<string, []>("x_47_axes_0"), val = tensor<int32, [1]>([-1])];
            tensor<fp16, [384]> model_pretrained_blocks_6_norm1_weight_to_fp16 = const()[name = tensor<string, []>("model_pretrained_blocks_6_norm1_weight_to_fp16"), val = tensor<fp16, [384]>(BLOBFILE(path = tensor<string, []>("@model_path/weights/weight.bin"), offset = tensor<uint64, []>(22813760)))];
            tensor<fp16, [384]> model_pretrained_blocks_6_norm1_bias_to_fp16 = const()[name = tensor<string, []>("model_pretrained_blocks_6_norm1_bias_to_fp16"), val = tensor<fp16, [384]>(BLOBFILE(path = tensor<string, []>("@model_path/weights/weight.bin"), offset = tensor<uint64, []>(22814592)))];
            tensor<fp16, [1, 1370, 384]> x_47_cast_fp16 = layer_norm(axes = x_47_axes_0, beta = model_pretrained_blocks_6_norm1_bias_to_fp16, epsilon = var_11_to_fp16, gamma = model_pretrained_blocks_6_norm1_weight_to_fp16, x = input_121_cast_fp16)[name = tensor<string, []>("x_47_cast_fp16")];
            tensor<fp16, [1152, 384]> model_pretrained_blocks_6_attn_qkv_weight_to_fp16 = const()[name = tensor<string, []>("model_pretrained_blocks_6_attn_qkv_weight_to_fp16"), val = tensor<fp16, [1152, 384]>(BLOBFILE(path = tensor<string, []>("@model_path/weights/weight.bin"), offset = tensor<uint64, []>(22815424)))];
            tensor<fp16, [1152]> model_pretrained_blocks_6_attn_qkv_bias_to_fp16 = const()[name = tensor<string, []>("model_pretrained_blocks_6_attn_qkv_bias_to_fp16"), val = tensor<fp16, [1152]>(BLOBFILE(path = tensor<string, []>("@model_path/weights/weight.bin"), offset = tensor<uint64, []>(23700224)))];
            tensor<fp16, [1, 1370, 1152]> linear_24_cast_fp16 = linear(bias = model_pretrained_blocks_6_attn_qkv_bias_to_fp16, weight = model_pretrained_blocks_6_attn_qkv_weight_to_fp16, x = x_47_cast_fp16)[name = tensor<string, []>("linear_24_cast_fp16")];
            tensor<int32, [5]> var_503 = const()[name = tensor<string, []>("op_503"), val = tensor<int32, [5]>([1, 1370, 3, 6, 64])];
            tensor<fp16, [1, 1370, 3, 6, 64]> var_504_cast_fp16 = reshape(shape = var_503, x = linear_24_cast_fp16)[name = tensor<string, []>("op_504_cast_fp16")];
            tensor<int32, [5]> var_505 = const()[name = tensor<string, []>("op_505"), val = tensor<int32, [5]>([2, 0, 3, 1, 4])];
            tensor<int32, [5]> var_507_begin_0 = const()[name = tensor<string, []>("op_507_begin_0"), val = tensor<int32, [5]>([0, 0, 0, 0, 0])];
            tensor<int32, [5]> var_507_end_0 = const()[name = tensor<string, []>("op_507_end_0"), val = tensor<int32, [5]>([1, 1, 6, 1370, 64])];
            tensor<bool, [5]> var_507_end_mask_0 = const()[name = tensor<string, []>("op_507_end_mask_0"), val = tensor<bool, [5]>([false, true, true, true, true])];
            tensor<bool, [5]> var_507_squeeze_mask_0 = const()[name = tensor<string, []>("op_507_squeeze_mask_0"), val = tensor<bool, [5]>([true, false, false, false, false])];
            tensor<fp16, [3, 1, 6, 1370, 64]> qkv_13_cast_fp16 = transpose(perm = var_505, x = var_504_cast_fp16)[name = tensor<string, []>("transpose_15")];
            tensor<fp16, [1, 6, 1370, 64]> var_507_cast_fp16 = slice_by_index(begin = var_507_begin_0, end = var_507_end_0, end_mask = var_507_end_mask_0, squeeze_mask = var_507_squeeze_mask_0, x = qkv_13_cast_fp16)[name = tensor<string, []>("op_507_cast_fp16")];
            tensor<fp16, []> var_508_to_fp16 = const()[name = tensor<string, []>("op_508_to_fp16"), val = tensor<fp16, []>(0x1p-3)];
            tensor<fp16, [1, 6, 1370, 64]> q_13_cast_fp16 = mul(x = var_507_cast_fp16, y = var_508_to_fp16)[name = tensor<string, []>("q_13_cast_fp16")];
            tensor<int32, [5]> k_13_begin_0 = const()[name = tensor<string, []>("k_13_begin_0"), val = tensor<int32, [5]>([1, 0, 0, 0, 0])];
            tensor<int32, [5]> k_13_end_0 = const()[name = tensor<string, []>("k_13_end_0"), val = tensor<int32, [5]>([2, 1, 6, 1370, 64])];
            tensor<bool, [5]> k_13_end_mask_0 = const()[name = tensor<string, []>("k_13_end_mask_0"), val = tensor<bool, [5]>([false, true, true, true, true])];
            tensor<bool, [5]> k_13_squeeze_mask_0 = const()[name = tensor<string, []>("k_13_squeeze_mask_0"), val = tensor<bool, [5]>([true, false, false, false, false])];
            tensor<fp16, [1, 6, 1370, 64]> k_13_cast_fp16 = slice_by_index(begin = k_13_begin_0, end = k_13_end_0, end_mask = k_13_end_mask_0, squeeze_mask = k_13_squeeze_mask_0, x = qkv_13_cast_fp16)[name = tensor<string, []>("k_13_cast_fp16")];
            tensor<int32, [5]> v_13_begin_0 = const()[name = tensor<string, []>("v_13_begin_0"), val = tensor<int32, [5]>([2, 0, 0, 0, 0])];
            tensor<int32, [5]> v_13_end_0 = const()[name = tensor<string, []>("v_13_end_0"), val = tensor<int32, [5]>([3, 1, 6, 1370, 64])];
            tensor<bool, [5]> v_13_end_mask_0 = const()[name = tensor<string, []>("v_13_end_mask_0"), val = tensor<bool, [5]>([false, true, true, true, true])];
            tensor<bool, [5]> v_13_squeeze_mask_0 = const()[name = tensor<string, []>("v_13_squeeze_mask_0"), val = tensor<bool, [5]>([true, false, false, false, false])];
            tensor<fp16, [1, 6, 1370, 64]> v_13_cast_fp16 = slice_by_index(begin = v_13_begin_0, end = v_13_end_0, end_mask = v_13_end_mask_0, squeeze_mask = v_13_squeeze_mask_0, x = qkv_13_cast_fp16)[name = tensor<string, []>("v_13_cast_fp16")];
            tensor<bool, []> attn_25_transpose_x_1 = const()[name = tensor<string, []>("attn_25_transpose_x_1"), val = tensor<bool, []>(false)];
            tensor<bool, []> attn_25_transpose_y_1 = const()[name = tensor<string, []>("attn_25_transpose_y_1"), val = tensor<bool, []>(true)];
            tensor<fp16, [1, 6, 1370, 1370]> attn_25_cast_fp16 = matmul(transpose_x = attn_25_transpose_x_1, transpose_y = attn_25_transpose_y_1, x = q_13_cast_fp16, y = k_13_cast_fp16)[name = tensor<string, []>("attn_25_cast_fp16")];
            tensor<fp16, [1, 6, 1370, 1370]> input_123_cast_fp16 = softmax(axis = var_25, x = attn_25_cast_fp16)[name = tensor<string, []>("input_123_cast_fp16")];
            tensor<bool, []> var_516_transpose_x_0 = const()[name = tensor<string, []>("op_516_transpose_x_0"), val = tensor<bool, []>(false)];
            tensor<bool, []> var_516_transpose_y_0 = const()[name = tensor<string, []>("op_516_transpose_y_0"), val = tensor<bool, []>(false)];
            tensor<fp16, [1, 6, 1370, 64]> var_516_cast_fp16 = matmul(transpose_x = var_516_transpose_x_0, transpose_y = var_516_transpose_y_0, x = input_123_cast_fp16, y = v_13_cast_fp16)[name = tensor<string, []>("op_516_cast_fp16")];
            tensor<int32, [4]> var_517_perm_0 = const()[name = tensor<string, []>("op_517_perm_0"), val = tensor<int32, [4]>([0, 2, 1, 3])];
            tensor<int32, [3]> var_518 = const()[name = tensor<string, []>("op_518"), val = tensor<int32, [3]>([1, 1370, 384])];
            tensor<fp16, [1, 1370, 6, 64]> var_517_cast_fp16 = transpose(perm = var_517_perm_0, x = var_516_cast_fp16)[name = tensor<string, []>("transpose_14")];
            tensor<fp16, [1, 1370, 384]> input_125_cast_fp16 = reshape(shape = var_518, x = var_517_cast_fp16)[name = tensor<string, []>("input_125_cast_fp16")];
            tensor<fp16, [384, 384]> model_pretrained_blocks_6_attn_proj_weight_to_fp16 = const()[name = tensor<string, []>("model_pretrained_blocks_6_attn_proj_weight_to_fp16"), val = tensor<fp16, [384, 384]>(BLOBFILE(path = tensor<string, []>("@model_path/weights/weight.bin"), offset = tensor<uint64, []>(23702592)))];
            tensor<fp16, [384]> model_pretrained_blocks_6_attn_proj_bias_to_fp16 = const()[name = tensor<string, []>("model_pretrained_blocks_6_attn_proj_bias_to_fp16"), val = tensor<fp16, [384]>(BLOBFILE(path = tensor<string, []>("@model_path/weights/weight.bin"), offset = tensor<uint64, []>(23997568)))];
            tensor<fp16, [1, 1370, 384]> linear_25_cast_fp16 = linear(bias = model_pretrained_blocks_6_attn_proj_bias_to_fp16, weight = model_pretrained_blocks_6_attn_proj_weight_to_fp16, x = input_125_cast_fp16)[name = tensor<string, []>("linear_25_cast_fp16")];
            tensor<fp16, [384]> model_pretrained_blocks_6_ls1_gamma_to_fp16 = const()[name = tensor<string, []>("model_pretrained_blocks_6_ls1_gamma_to_fp16"), val = tensor<fp16, [384]>(BLOBFILE(path = tensor<string, []>("@model_path/weights/weight.bin"), offset = tensor<uint64, []>(23998400)))];
            tensor<fp16, [1, 1370, 384]> var_525_cast_fp16 = mul(x = linear_25_cast_fp16, y = model_pretrained_blocks_6_ls1_gamma_to_fp16)[name = tensor<string, []>("op_525_cast_fp16")];
            tensor<fp16, [1, 1370, 384]> input_129_cast_fp16 = add(x = input_121_cast_fp16, y = var_525_cast_fp16)[name = tensor<string, []>("input_129_cast_fp16")];
            tensor<int32, [1]> input_131_axes_0 = const()[name = tensor<string, []>("input_131_axes_0"), val = tensor<int32, [1]>([-1])];
            tensor<fp16, [384]> model_pretrained_blocks_6_norm2_weight_to_fp16 = const()[name = tensor<string, []>("model_pretrained_blocks_6_norm2_weight_to_fp16"), val = tensor<fp16, [384]>(BLOBFILE(path = tensor<string, []>("@model_path/weights/weight.bin"), offset = tensor<uint64, []>(23999232)))];
            tensor<fp16, [384]> model_pretrained_blocks_6_norm2_bias_to_fp16 = const()[name = tensor<string, []>("model_pretrained_blocks_6_norm2_bias_to_fp16"), val = tensor<fp16, [384]>(BLOBFILE(path = tensor<string, []>("@model_path/weights/weight.bin"), offset = tensor<uint64, []>(24000064)))];
            tensor<fp16, [1, 1370, 384]> input_131_cast_fp16 = layer_norm(axes = input_131_axes_0, beta = model_pretrained_blocks_6_norm2_bias_to_fp16, epsilon = var_11_to_fp16, gamma = model_pretrained_blocks_6_norm2_weight_to_fp16, x = input_129_cast_fp16)[name = tensor<string, []>("input_131_cast_fp16")];
            tensor<fp16, [1536, 384]> model_pretrained_blocks_6_mlp_fc1_weight_to_fp16 = const()[name = tensor<string, []>("model_pretrained_blocks_6_mlp_fc1_weight_to_fp16"), val = tensor<fp16, [1536, 384]>(BLOBFILE(path = tensor<string, []>("@model_path/weights/weight.bin"), offset = tensor<uint64, []>(24000896)))];
            tensor<fp16, [1536]> model_pretrained_blocks_6_mlp_fc1_bias_to_fp16 = const()[name = tensor<string, []>("model_pretrained_blocks_6_mlp_fc1_bias_to_fp16"), val = tensor<fp16, [1536]>(BLOBFILE(path = tensor<string, []>("@model_path/weights/weight.bin"), offset = tensor<uint64, []>(25180608)))];
            tensor<fp16, [1, 1370, 1536]> linear_26_cast_fp16 = linear(bias = model_pretrained_blocks_6_mlp_fc1_bias_to_fp16, weight = model_pretrained_blocks_6_mlp_fc1_weight_to_fp16, x = input_131_cast_fp16)[name = tensor<string, []>("linear_26_cast_fp16")];
            tensor<string, []> input_135_mode_0 = const()[name = tensor<string, []>("input_135_mode_0"), val = tensor<string, []>("EXACT")];
            tensor<fp16, [1, 1370, 1536]> input_135_cast_fp16 = gelu(mode = input_135_mode_0, x = linear_26_cast_fp16)[name = tensor<string, []>("input_135_cast_fp16")];
            tensor<fp16, [384, 1536]> model_pretrained_blocks_6_mlp_fc2_weight_to_fp16 = const()[name = tensor<string, []>("model_pretrained_blocks_6_mlp_fc2_weight_to_fp16"), val = tensor<fp16, [384, 1536]>(BLOBFILE(path = tensor<string, []>("@model_path/weights/weight.bin"), offset = tensor<uint64, []>(25183744)))];
            tensor<fp16, [384]> model_pretrained_blocks_6_mlp_fc2_bias_to_fp16 = const()[name = tensor<string, []>("model_pretrained_blocks_6_mlp_fc2_bias_to_fp16"), val = tensor<fp16, [384]>(BLOBFILE(path = tensor<string, []>("@model_path/weights/weight.bin"), offset = tensor<uint64, []>(26363456)))];
            tensor<fp16, [1, 1370, 384]> linear_27_cast_fp16 = linear(bias = model_pretrained_blocks_6_mlp_fc2_bias_to_fp16, weight = model_pretrained_blocks_6_mlp_fc2_weight_to_fp16, x = input_135_cast_fp16)[name = tensor<string, []>("linear_27_cast_fp16")];
            tensor<fp16, [384]> model_pretrained_blocks_6_ls2_gamma_to_fp16 = const()[name = tensor<string, []>("model_pretrained_blocks_6_ls2_gamma_to_fp16"), val = tensor<fp16, [384]>(BLOBFILE(path = tensor<string, []>("@model_path/weights/weight.bin"), offset = tensor<uint64, []>(26364288)))];
            tensor<fp16, [1, 1370, 384]> var_543_cast_fp16 = mul(x = linear_27_cast_fp16, y = model_pretrained_blocks_6_ls2_gamma_to_fp16)[name = tensor<string, []>("op_543_cast_fp16")];
            tensor<fp16, [1, 1370, 384]> input_141_cast_fp16 = add(x = input_129_cast_fp16, y = var_543_cast_fp16)[name = tensor<string, []>("input_141_cast_fp16")];
            tensor<int32, [1]> x_53_axes_0 = const()[name = tensor<string, []>("x_53_axes_0"), val = tensor<int32, [1]>([-1])];
            tensor<fp16, [384]> model_pretrained_blocks_7_norm1_weight_to_fp16 = const()[name = tensor<string, []>("model_pretrained_blocks_7_norm1_weight_to_fp16"), val = tensor<fp16, [384]>(BLOBFILE(path = tensor<string, []>("@model_path/weights/weight.bin"), offset = tensor<uint64, []>(26365120)))];
            tensor<fp16, [384]> model_pretrained_blocks_7_norm1_bias_to_fp16 = const()[name = tensor<string, []>("model_pretrained_blocks_7_norm1_bias_to_fp16"), val = tensor<fp16, [384]>(BLOBFILE(path = tensor<string, []>("@model_path/weights/weight.bin"), offset = tensor<uint64, []>(26365952)))];
            tensor<fp16, [1, 1370, 384]> x_53_cast_fp16 = layer_norm(axes = x_53_axes_0, beta = model_pretrained_blocks_7_norm1_bias_to_fp16, epsilon = var_11_to_fp16, gamma = model_pretrained_blocks_7_norm1_weight_to_fp16, x = input_141_cast_fp16)[name = tensor<string, []>("x_53_cast_fp16")];
            tensor<fp16, [1152, 384]> model_pretrained_blocks_7_attn_qkv_weight_to_fp16 = const()[name = tensor<string, []>("model_pretrained_blocks_7_attn_qkv_weight_to_fp16"), val = tensor<fp16, [1152, 384]>(BLOBFILE(path = tensor<string, []>("@model_path/weights/weight.bin"), offset = tensor<uint64, []>(26366784)))];
            tensor<fp16, [1152]> model_pretrained_blocks_7_attn_qkv_bias_to_fp16 = const()[name = tensor<string, []>("model_pretrained_blocks_7_attn_qkv_bias_to_fp16"), val = tensor<fp16, [1152]>(BLOBFILE(path = tensor<string, []>("@model_path/weights/weight.bin"), offset = tensor<uint64, []>(27251584)))];
            tensor<fp16, [1, 1370, 1152]> linear_28_cast_fp16 = linear(bias = model_pretrained_blocks_7_attn_qkv_bias_to_fp16, weight = model_pretrained_blocks_7_attn_qkv_weight_to_fp16, x = x_53_cast_fp16)[name = tensor<string, []>("linear_28_cast_fp16")];
            tensor<int32, [5]> var_566 = const()[name = tensor<string, []>("op_566"), val = tensor<int32, [5]>([1, 1370, 3, 6, 64])];
            tensor<fp16, [1, 1370, 3, 6, 64]> var_567_cast_fp16 = reshape(shape = var_566, x = linear_28_cast_fp16)[name = tensor<string, []>("op_567_cast_fp16")];
            tensor<int32, [5]> var_568 = const()[name = tensor<string, []>("op_568"), val = tensor<int32, [5]>([2, 0, 3, 1, 4])];
            tensor<int32, [5]> var_570_begin_0 = const()[name = tensor<string, []>("op_570_begin_0"), val = tensor<int32, [5]>([0, 0, 0, 0, 0])];
            tensor<int32, [5]> var_570_end_0 = const()[name = tensor<string, []>("op_570_end_0"), val = tensor<int32, [5]>([1, 1, 6, 1370, 64])];
            tensor<bool, [5]> var_570_end_mask_0 = const()[name = tensor<string, []>("op_570_end_mask_0"), val = tensor<bool, [5]>([false, true, true, true, true])];
            tensor<bool, [5]> var_570_squeeze_mask_0 = const()[name = tensor<string, []>("op_570_squeeze_mask_0"), val = tensor<bool, [5]>([true, false, false, false, false])];
            tensor<fp16, [3, 1, 6, 1370, 64]> qkv_15_cast_fp16 = transpose(perm = var_568, x = var_567_cast_fp16)[name = tensor<string, []>("transpose_13")];
            tensor<fp16, [1, 6, 1370, 64]> var_570_cast_fp16 = slice_by_index(begin = var_570_begin_0, end = var_570_end_0, end_mask = var_570_end_mask_0, squeeze_mask = var_570_squeeze_mask_0, x = qkv_15_cast_fp16)[name = tensor<string, []>("op_570_cast_fp16")];
            tensor<fp16, []> var_571_to_fp16 = const()[name = tensor<string, []>("op_571_to_fp16"), val = tensor<fp16, []>(0x1p-3)];
            tensor<fp16, [1, 6, 1370, 64]> q_15_cast_fp16 = mul(x = var_570_cast_fp16, y = var_571_to_fp16)[name = tensor<string, []>("q_15_cast_fp16")];
            tensor<int32, [5]> k_15_begin_0 = const()[name = tensor<string, []>("k_15_begin_0"), val = tensor<int32, [5]>([1, 0, 0, 0, 0])];
            tensor<int32, [5]> k_15_end_0 = const()[name = tensor<string, []>("k_15_end_0"), val = tensor<int32, [5]>([2, 1, 6, 1370, 64])];
            tensor<bool, [5]> k_15_end_mask_0 = const()[name = tensor<string, []>("k_15_end_mask_0"), val = tensor<bool, [5]>([false, true, true, true, true])];
            tensor<bool, [5]> k_15_squeeze_mask_0 = const()[name = tensor<string, []>("k_15_squeeze_mask_0"), val = tensor<bool, [5]>([true, false, false, false, false])];
            tensor<fp16, [1, 6, 1370, 64]> k_15_cast_fp16 = slice_by_index(begin = k_15_begin_0, end = k_15_end_0, end_mask = k_15_end_mask_0, squeeze_mask = k_15_squeeze_mask_0, x = qkv_15_cast_fp16)[name = tensor<string, []>("k_15_cast_fp16")];
            tensor<int32, [5]> v_15_begin_0 = const()[name = tensor<string, []>("v_15_begin_0"), val = tensor<int32, [5]>([2, 0, 0, 0, 0])];
            tensor<int32, [5]> v_15_end_0 = const()[name = tensor<string, []>("v_15_end_0"), val = tensor<int32, [5]>([3, 1, 6, 1370, 64])];
            tensor<bool, [5]> v_15_end_mask_0 = const()[name = tensor<string, []>("v_15_end_mask_0"), val = tensor<bool, [5]>([false, true, true, true, true])];
            tensor<bool, [5]> v_15_squeeze_mask_0 = const()[name = tensor<string, []>("v_15_squeeze_mask_0"), val = tensor<bool, [5]>([true, false, false, false, false])];
            tensor<fp16, [1, 6, 1370, 64]> v_15_cast_fp16 = slice_by_index(begin = v_15_begin_0, end = v_15_end_0, end_mask = v_15_end_mask_0, squeeze_mask = v_15_squeeze_mask_0, x = qkv_15_cast_fp16)[name = tensor<string, []>("v_15_cast_fp16")];
            tensor<bool, []> attn_29_transpose_x_1 = const()[name = tensor<string, []>("attn_29_transpose_x_1"), val = tensor<bool, []>(false)];
            tensor<bool, []> attn_29_transpose_y_1 = const()[name = tensor<string, []>("attn_29_transpose_y_1"), val = tensor<bool, []>(true)];
            tensor<fp16, [1, 6, 1370, 1370]> attn_29_cast_fp16 = matmul(transpose_x = attn_29_transpose_x_1, transpose_y = attn_29_transpose_y_1, x = q_15_cast_fp16, y = k_15_cast_fp16)[name = tensor<string, []>("attn_29_cast_fp16")];
            tensor<fp16, [1, 6, 1370, 1370]> input_143_cast_fp16 = softmax(axis = var_25, x = attn_29_cast_fp16)[name = tensor<string, []>("input_143_cast_fp16")];
            tensor<bool, []> var_579_transpose_x_0 = const()[name = tensor<string, []>("op_579_transpose_x_0"), val = tensor<bool, []>(false)];
            tensor<bool, []> var_579_transpose_y_0 = const()[name = tensor<string, []>("op_579_transpose_y_0"), val = tensor<bool, []>(false)];
            tensor<fp16, [1, 6, 1370, 64]> var_579_cast_fp16 = matmul(transpose_x = var_579_transpose_x_0, transpose_y = var_579_transpose_y_0, x = input_143_cast_fp16, y = v_15_cast_fp16)[name = tensor<string, []>("op_579_cast_fp16")];
            tensor<int32, [4]> var_580_perm_0 = const()[name = tensor<string, []>("op_580_perm_0"), val = tensor<int32, [4]>([0, 2, 1, 3])];
            tensor<int32, [3]> var_581 = const()[name = tensor<string, []>("op_581"), val = tensor<int32, [3]>([1, 1370, 384])];
            tensor<fp16, [1, 1370, 6, 64]> var_580_cast_fp16 = transpose(perm = var_580_perm_0, x = var_579_cast_fp16)[name = tensor<string, []>("transpose_12")];
            tensor<fp16, [1, 1370, 384]> input_145_cast_fp16 = reshape(shape = var_581, x = var_580_cast_fp16)[name = tensor<string, []>("input_145_cast_fp16")];
            tensor<fp16, [384, 384]> model_pretrained_blocks_7_attn_proj_weight_to_fp16 = const()[name = tensor<string, []>("model_pretrained_blocks_7_attn_proj_weight_to_fp16"), val = tensor<fp16, [384, 384]>(BLOBFILE(path = tensor<string, []>("@model_path/weights/weight.bin"), offset = tensor<uint64, []>(27253952)))];
            tensor<fp16, [384]> model_pretrained_blocks_7_attn_proj_bias_to_fp16 = const()[name = tensor<string, []>("model_pretrained_blocks_7_attn_proj_bias_to_fp16"), val = tensor<fp16, [384]>(BLOBFILE(path = tensor<string, []>("@model_path/weights/weight.bin"), offset = tensor<uint64, []>(27548928)))];
            tensor<fp16, [1, 1370, 384]> linear_29_cast_fp16 = linear(bias = model_pretrained_blocks_7_attn_proj_bias_to_fp16, weight = model_pretrained_blocks_7_attn_proj_weight_to_fp16, x = input_145_cast_fp16)[name = tensor<string, []>("linear_29_cast_fp16")];
            tensor<fp16, [384]> model_pretrained_blocks_7_ls1_gamma_to_fp16 = const()[name = tensor<string, []>("model_pretrained_blocks_7_ls1_gamma_to_fp16"), val = tensor<fp16, [384]>(BLOBFILE(path = tensor<string, []>("@model_path/weights/weight.bin"), offset = tensor<uint64, []>(27549760)))];
            tensor<fp16, [1, 1370, 384]> var_588_cast_fp16 = mul(x = linear_29_cast_fp16, y = model_pretrained_blocks_7_ls1_gamma_to_fp16)[name = tensor<string, []>("op_588_cast_fp16")];
            tensor<fp16, [1, 1370, 384]> input_149_cast_fp16 = add(x = input_141_cast_fp16, y = var_588_cast_fp16)[name = tensor<string, []>("input_149_cast_fp16")];
            tensor<int32, [1]> input_151_axes_0 = const()[name = tensor<string, []>("input_151_axes_0"), val = tensor<int32, [1]>([-1])];
            tensor<fp16, [384]> model_pretrained_blocks_7_norm2_weight_to_fp16 = const()[name = tensor<string, []>("model_pretrained_blocks_7_norm2_weight_to_fp16"), val = tensor<fp16, [384]>(BLOBFILE(path = tensor<string, []>("@model_path/weights/weight.bin"), offset = tensor<uint64, []>(27550592)))];
            tensor<fp16, [384]> model_pretrained_blocks_7_norm2_bias_to_fp16 = const()[name = tensor<string, []>("model_pretrained_blocks_7_norm2_bias_to_fp16"), val = tensor<fp16, [384]>(BLOBFILE(path = tensor<string, []>("@model_path/weights/weight.bin"), offset = tensor<uint64, []>(27551424)))];
            tensor<fp16, [1, 1370, 384]> input_151_cast_fp16 = layer_norm(axes = input_151_axes_0, beta = model_pretrained_blocks_7_norm2_bias_to_fp16, epsilon = var_11_to_fp16, gamma = model_pretrained_blocks_7_norm2_weight_to_fp16, x = input_149_cast_fp16)[name = tensor<string, []>("input_151_cast_fp16")];
            tensor<fp16, [1536, 384]> model_pretrained_blocks_7_mlp_fc1_weight_to_fp16 = const()[name = tensor<string, []>("model_pretrained_blocks_7_mlp_fc1_weight_to_fp16"), val = tensor<fp16, [1536, 384]>(BLOBFILE(path = tensor<string, []>("@model_path/weights/weight.bin"), offset = tensor<uint64, []>(27552256)))];
            tensor<fp16, [1536]> model_pretrained_blocks_7_mlp_fc1_bias_to_fp16 = const()[name = tensor<string, []>("model_pretrained_blocks_7_mlp_fc1_bias_to_fp16"), val = tensor<fp16, [1536]>(BLOBFILE(path = tensor<string, []>("@model_path/weights/weight.bin"), offset = tensor<uint64, []>(28731968)))];
            tensor<fp16, [1, 1370, 1536]> linear_30_cast_fp16 = linear(bias = model_pretrained_blocks_7_mlp_fc1_bias_to_fp16, weight = model_pretrained_blocks_7_mlp_fc1_weight_to_fp16, x = input_151_cast_fp16)[name = tensor<string, []>("linear_30_cast_fp16")];
            tensor<string, []> input_155_mode_0 = const()[name = tensor<string, []>("input_155_mode_0"), val = tensor<string, []>("EXACT")];
            tensor<fp16, [1, 1370, 1536]> input_155_cast_fp16 = gelu(mode = input_155_mode_0, x = linear_30_cast_fp16)[name = tensor<string, []>("input_155_cast_fp16")];
            tensor<fp16, [384, 1536]> model_pretrained_blocks_7_mlp_fc2_weight_to_fp16 = const()[name = tensor<string, []>("model_pretrained_blocks_7_mlp_fc2_weight_to_fp16"), val = tensor<fp16, [384, 1536]>(BLOBFILE(path = tensor<string, []>("@model_path/weights/weight.bin"), offset = tensor<uint64, []>(28735104)))];
            tensor<fp16, [384]> model_pretrained_blocks_7_mlp_fc2_bias_to_fp16 = const()[name = tensor<string, []>("model_pretrained_blocks_7_mlp_fc2_bias_to_fp16"), val = tensor<fp16, [384]>(BLOBFILE(path = tensor<string, []>("@model_path/weights/weight.bin"), offset = tensor<uint64, []>(29914816)))];
            tensor<fp16, [1, 1370, 384]> linear_31_cast_fp16 = linear(bias = model_pretrained_blocks_7_mlp_fc2_bias_to_fp16, weight = model_pretrained_blocks_7_mlp_fc2_weight_to_fp16, x = input_155_cast_fp16)[name = tensor<string, []>("linear_31_cast_fp16")];
            tensor<fp16, [384]> model_pretrained_blocks_7_ls2_gamma_to_fp16 = const()[name = tensor<string, []>("model_pretrained_blocks_7_ls2_gamma_to_fp16"), val = tensor<fp16, [384]>(BLOBFILE(path = tensor<string, []>("@model_path/weights/weight.bin"), offset = tensor<uint64, []>(29915648)))];
            tensor<fp16, [1, 1370, 384]> var_606_cast_fp16 = mul(x = linear_31_cast_fp16, y = model_pretrained_blocks_7_ls2_gamma_to_fp16)[name = tensor<string, []>("op_606_cast_fp16")];
            tensor<fp16, [1, 1370, 384]> input_161_cast_fp16 = add(x = input_149_cast_fp16, y = var_606_cast_fp16)[name = tensor<string, []>("input_161_cast_fp16")];
            tensor<int32, [1]> x_59_axes_0 = const()[name = tensor<string, []>("x_59_axes_0"), val = tensor<int32, [1]>([-1])];
            tensor<fp16, [384]> model_pretrained_blocks_8_norm1_weight_to_fp16 = const()[name = tensor<string, []>("model_pretrained_blocks_8_norm1_weight_to_fp16"), val = tensor<fp16, [384]>(BLOBFILE(path = tensor<string, []>("@model_path/weights/weight.bin"), offset = tensor<uint64, []>(29916480)))];
            tensor<fp16, [384]> model_pretrained_blocks_8_norm1_bias_to_fp16 = const()[name = tensor<string, []>("model_pretrained_blocks_8_norm1_bias_to_fp16"), val = tensor<fp16, [384]>(BLOBFILE(path = tensor<string, []>("@model_path/weights/weight.bin"), offset = tensor<uint64, []>(29917312)))];
            tensor<fp16, [1, 1370, 384]> x_59_cast_fp16 = layer_norm(axes = x_59_axes_0, beta = model_pretrained_blocks_8_norm1_bias_to_fp16, epsilon = var_11_to_fp16, gamma = model_pretrained_blocks_8_norm1_weight_to_fp16, x = input_161_cast_fp16)[name = tensor<string, []>("x_59_cast_fp16")];
            tensor<fp16, [1152, 384]> model_pretrained_blocks_8_attn_qkv_weight_to_fp16 = const()[name = tensor<string, []>("model_pretrained_blocks_8_attn_qkv_weight_to_fp16"), val = tensor<fp16, [1152, 384]>(BLOBFILE(path = tensor<string, []>("@model_path/weights/weight.bin"), offset = tensor<uint64, []>(29918144)))];
            tensor<fp16, [1152]> model_pretrained_blocks_8_attn_qkv_bias_to_fp16 = const()[name = tensor<string, []>("model_pretrained_blocks_8_attn_qkv_bias_to_fp16"), val = tensor<fp16, [1152]>(BLOBFILE(path = tensor<string, []>("@model_path/weights/weight.bin"), offset = tensor<uint64, []>(30802944)))];
            tensor<fp16, [1, 1370, 1152]> linear_32_cast_fp16 = linear(bias = model_pretrained_blocks_8_attn_qkv_bias_to_fp16, weight = model_pretrained_blocks_8_attn_qkv_weight_to_fp16, x = x_59_cast_fp16)[name = tensor<string, []>("linear_32_cast_fp16")];
            tensor<int32, [5]> var_629 = const()[name = tensor<string, []>("op_629"), val = tensor<int32, [5]>([1, 1370, 3, 6, 64])];
            tensor<fp16, [1, 1370, 3, 6, 64]> var_630_cast_fp16 = reshape(shape = var_629, x = linear_32_cast_fp16)[name = tensor<string, []>("op_630_cast_fp16")];
            tensor<int32, [5]> var_631 = const()[name = tensor<string, []>("op_631"), val = tensor<int32, [5]>([2, 0, 3, 1, 4])];
            tensor<int32, [5]> var_633_begin_0 = const()[name = tensor<string, []>("op_633_begin_0"), val = tensor<int32, [5]>([0, 0, 0, 0, 0])];
            tensor<int32, [5]> var_633_end_0 = const()[name = tensor<string, []>("op_633_end_0"), val = tensor<int32, [5]>([1, 1, 6, 1370, 64])];
            tensor<bool, [5]> var_633_end_mask_0 = const()[name = tensor<string, []>("op_633_end_mask_0"), val = tensor<bool, [5]>([false, true, true, true, true])];
            tensor<bool, [5]> var_633_squeeze_mask_0 = const()[name = tensor<string, []>("op_633_squeeze_mask_0"), val = tensor<bool, [5]>([true, false, false, false, false])];
            tensor<fp16, [3, 1, 6, 1370, 64]> qkv_17_cast_fp16 = transpose(perm = var_631, x = var_630_cast_fp16)[name = tensor<string, []>("transpose_11")];
            tensor<fp16, [1, 6, 1370, 64]> var_633_cast_fp16 = slice_by_index(begin = var_633_begin_0, end = var_633_end_0, end_mask = var_633_end_mask_0, squeeze_mask = var_633_squeeze_mask_0, x = qkv_17_cast_fp16)[name = tensor<string, []>("op_633_cast_fp16")];
            tensor<fp16, []> var_634_to_fp16 = const()[name = tensor<string, []>("op_634_to_fp16"), val = tensor<fp16, []>(0x1p-3)];
            tensor<fp16, [1, 6, 1370, 64]> q_17_cast_fp16 = mul(x = var_633_cast_fp16, y = var_634_to_fp16)[name = tensor<string, []>("q_17_cast_fp16")];
            tensor<int32, [5]> k_17_begin_0 = const()[name = tensor<string, []>("k_17_begin_0"), val = tensor<int32, [5]>([1, 0, 0, 0, 0])];
            tensor<int32, [5]> k_17_end_0 = const()[name = tensor<string, []>("k_17_end_0"), val = tensor<int32, [5]>([2, 1, 6, 1370, 64])];
            tensor<bool, [5]> k_17_end_mask_0 = const()[name = tensor<string, []>("k_17_end_mask_0"), val = tensor<bool, [5]>([false, true, true, true, true])];
            tensor<bool, [5]> k_17_squeeze_mask_0 = const()[name = tensor<string, []>("k_17_squeeze_mask_0"), val = tensor<bool, [5]>([true, false, false, false, false])];
            tensor<fp16, [1, 6, 1370, 64]> k_17_cast_fp16 = slice_by_index(begin = k_17_begin_0, end = k_17_end_0, end_mask = k_17_end_mask_0, squeeze_mask = k_17_squeeze_mask_0, x = qkv_17_cast_fp16)[name = tensor<string, []>("k_17_cast_fp16")];
            tensor<int32, [5]> v_17_begin_0 = const()[name = tensor<string, []>("v_17_begin_0"), val = tensor<int32, [5]>([2, 0, 0, 0, 0])];
            tensor<int32, [5]> v_17_end_0 = const()[name = tensor<string, []>("v_17_end_0"), val = tensor<int32, [5]>([3, 1, 6, 1370, 64])];
            tensor<bool, [5]> v_17_end_mask_0 = const()[name = tensor<string, []>("v_17_end_mask_0"), val = tensor<bool, [5]>([false, true, true, true, true])];
            tensor<bool, [5]> v_17_squeeze_mask_0 = const()[name = tensor<string, []>("v_17_squeeze_mask_0"), val = tensor<bool, [5]>([true, false, false, false, false])];
            tensor<fp16, [1, 6, 1370, 64]> v_17_cast_fp16 = slice_by_index(begin = v_17_begin_0, end = v_17_end_0, end_mask = v_17_end_mask_0, squeeze_mask = v_17_squeeze_mask_0, x = qkv_17_cast_fp16)[name = tensor<string, []>("v_17_cast_fp16")];
            tensor<bool, []> attn_33_transpose_x_1 = const()[name = tensor<string, []>("attn_33_transpose_x_1"), val = tensor<bool, []>(false)];
            tensor<bool, []> attn_33_transpose_y_1 = const()[name = tensor<string, []>("attn_33_transpose_y_1"), val = tensor<bool, []>(true)];
            tensor<fp16, [1, 6, 1370, 1370]> attn_33_cast_fp16 = matmul(transpose_x = attn_33_transpose_x_1, transpose_y = attn_33_transpose_y_1, x = q_17_cast_fp16, y = k_17_cast_fp16)[name = tensor<string, []>("attn_33_cast_fp16")];
            tensor<fp16, [1, 6, 1370, 1370]> input_163_cast_fp16 = softmax(axis = var_25, x = attn_33_cast_fp16)[name = tensor<string, []>("input_163_cast_fp16")];
            tensor<bool, []> var_642_transpose_x_0 = const()[name = tensor<string, []>("op_642_transpose_x_0"), val = tensor<bool, []>(false)];
            tensor<bool, []> var_642_transpose_y_0 = const()[name = tensor<string, []>("op_642_transpose_y_0"), val = tensor<bool, []>(false)];
            tensor<fp16, [1, 6, 1370, 64]> var_642_cast_fp16 = matmul(transpose_x = var_642_transpose_x_0, transpose_y = var_642_transpose_y_0, x = input_163_cast_fp16, y = v_17_cast_fp16)[name = tensor<string, []>("op_642_cast_fp16")];
            tensor<int32, [4]> var_643_perm_0 = const()[name = tensor<string, []>("op_643_perm_0"), val = tensor<int32, [4]>([0, 2, 1, 3])];
            tensor<int32, [3]> var_644 = const()[name = tensor<string, []>("op_644"), val = tensor<int32, [3]>([1, 1370, 384])];
            tensor<fp16, [1, 1370, 6, 64]> var_643_cast_fp16 = transpose(perm = var_643_perm_0, x = var_642_cast_fp16)[name = tensor<string, []>("transpose_10")];
            tensor<fp16, [1, 1370, 384]> input_165_cast_fp16 = reshape(shape = var_644, x = var_643_cast_fp16)[name = tensor<string, []>("input_165_cast_fp16")];
            tensor<fp16, [384, 384]> model_pretrained_blocks_8_attn_proj_weight_to_fp16 = const()[name = tensor<string, []>("model_pretrained_blocks_8_attn_proj_weight_to_fp16"), val = tensor<fp16, [384, 384]>(BLOBFILE(path = tensor<string, []>("@model_path/weights/weight.bin"), offset = tensor<uint64, []>(30805312)))];
            tensor<fp16, [384]> model_pretrained_blocks_8_attn_proj_bias_to_fp16 = const()[name = tensor<string, []>("model_pretrained_blocks_8_attn_proj_bias_to_fp16"), val = tensor<fp16, [384]>(BLOBFILE(path = tensor<string, []>("@model_path/weights/weight.bin"), offset = tensor<uint64, []>(31100288)))];
            tensor<fp16, [1, 1370, 384]> linear_33_cast_fp16 = linear(bias = model_pretrained_blocks_8_attn_proj_bias_to_fp16, weight = model_pretrained_blocks_8_attn_proj_weight_to_fp16, x = input_165_cast_fp16)[name = tensor<string, []>("linear_33_cast_fp16")];
            tensor<fp16, [384]> model_pretrained_blocks_8_ls1_gamma_to_fp16 = const()[name = tensor<string, []>("model_pretrained_blocks_8_ls1_gamma_to_fp16"), val = tensor<fp16, [384]>(BLOBFILE(path = tensor<string, []>("@model_path/weights/weight.bin"), offset = tensor<uint64, []>(31101120)))];
            tensor<fp16, [1, 1370, 384]> var_651_cast_fp16 = mul(x = linear_33_cast_fp16, y = model_pretrained_blocks_8_ls1_gamma_to_fp16)[name = tensor<string, []>("op_651_cast_fp16")];
            tensor<fp16, [1, 1370, 384]> input_169_cast_fp16 = add(x = input_161_cast_fp16, y = var_651_cast_fp16)[name = tensor<string, []>("input_169_cast_fp16")];
            tensor<int32, [1]> input_171_axes_0 = const()[name = tensor<string, []>("input_171_axes_0"), val = tensor<int32, [1]>([-1])];
            tensor<fp16, [384]> model_pretrained_blocks_8_norm2_weight_to_fp16 = const()[name = tensor<string, []>("model_pretrained_blocks_8_norm2_weight_to_fp16"), val = tensor<fp16, [384]>(BLOBFILE(path = tensor<string, []>("@model_path/weights/weight.bin"), offset = tensor<uint64, []>(31101952)))];
            tensor<fp16, [384]> model_pretrained_blocks_8_norm2_bias_to_fp16 = const()[name = tensor<string, []>("model_pretrained_blocks_8_norm2_bias_to_fp16"), val = tensor<fp16, [384]>(BLOBFILE(path = tensor<string, []>("@model_path/weights/weight.bin"), offset = tensor<uint64, []>(31102784)))];
            tensor<fp16, [1, 1370, 384]> input_171_cast_fp16 = layer_norm(axes = input_171_axes_0, beta = model_pretrained_blocks_8_norm2_bias_to_fp16, epsilon = var_11_to_fp16, gamma = model_pretrained_blocks_8_norm2_weight_to_fp16, x = input_169_cast_fp16)[name = tensor<string, []>("input_171_cast_fp16")];
            tensor<fp16, [1536, 384]> model_pretrained_blocks_8_mlp_fc1_weight_to_fp16 = const()[name = tensor<string, []>("model_pretrained_blocks_8_mlp_fc1_weight_to_fp16"), val = tensor<fp16, [1536, 384]>(BLOBFILE(path = tensor<string, []>("@model_path/weights/weight.bin"), offset = tensor<uint64, []>(31103616)))];
            tensor<fp16, [1536]> model_pretrained_blocks_8_mlp_fc1_bias_to_fp16 = const()[name = tensor<string, []>("model_pretrained_blocks_8_mlp_fc1_bias_to_fp16"), val = tensor<fp16, [1536]>(BLOBFILE(path = tensor<string, []>("@model_path/weights/weight.bin"), offset = tensor<uint64, []>(32283328)))];
            tensor<fp16, [1, 1370, 1536]> linear_34_cast_fp16 = linear(bias = model_pretrained_blocks_8_mlp_fc1_bias_to_fp16, weight = model_pretrained_blocks_8_mlp_fc1_weight_to_fp16, x = input_171_cast_fp16)[name = tensor<string, []>("linear_34_cast_fp16")];
            tensor<string, []> input_175_mode_0 = const()[name = tensor<string, []>("input_175_mode_0"), val = tensor<string, []>("EXACT")];
            tensor<fp16, [1, 1370, 1536]> input_175_cast_fp16 = gelu(mode = input_175_mode_0, x = linear_34_cast_fp16)[name = tensor<string, []>("input_175_cast_fp16")];
            tensor<fp16, [384, 1536]> model_pretrained_blocks_8_mlp_fc2_weight_to_fp16 = const()[name = tensor<string, []>("model_pretrained_blocks_8_mlp_fc2_weight_to_fp16"), val = tensor<fp16, [384, 1536]>(BLOBFILE(path = tensor<string, []>("@model_path/weights/weight.bin"), offset = tensor<uint64, []>(32286464)))];
            tensor<fp16, [384]> model_pretrained_blocks_8_mlp_fc2_bias_to_fp16 = const()[name = tensor<string, []>("model_pretrained_blocks_8_mlp_fc2_bias_to_fp16"), val = tensor<fp16, [384]>(BLOBFILE(path = tensor<string, []>("@model_path/weights/weight.bin"), offset = tensor<uint64, []>(33466176)))];
            tensor<fp16, [1, 1370, 384]> linear_35_cast_fp16 = linear(bias = model_pretrained_blocks_8_mlp_fc2_bias_to_fp16, weight = model_pretrained_blocks_8_mlp_fc2_weight_to_fp16, x = input_175_cast_fp16)[name = tensor<string, []>("linear_35_cast_fp16")];
            tensor<fp16, [384]> model_pretrained_blocks_8_ls2_gamma_to_fp16 = const()[name = tensor<string, []>("model_pretrained_blocks_8_ls2_gamma_to_fp16"), val = tensor<fp16, [384]>(BLOBFILE(path = tensor<string, []>("@model_path/weights/weight.bin"), offset = tensor<uint64, []>(33467008)))];
            tensor<fp16, [1, 1370, 384]> var_669_cast_fp16 = mul(x = linear_35_cast_fp16, y = model_pretrained_blocks_8_ls2_gamma_to_fp16)[name = tensor<string, []>("op_669_cast_fp16")];
            tensor<fp16, [1, 1370, 384]> input_181_cast_fp16 = add(x = input_169_cast_fp16, y = var_669_cast_fp16)[name = tensor<string, []>("input_181_cast_fp16")];
            tensor<int32, [1]> x_65_axes_0 = const()[name = tensor<string, []>("x_65_axes_0"), val = tensor<int32, [1]>([-1])];
            tensor<fp16, [384]> model_pretrained_blocks_9_norm1_weight_to_fp16 = const()[name = tensor<string, []>("model_pretrained_blocks_9_norm1_weight_to_fp16"), val = tensor<fp16, [384]>(BLOBFILE(path = tensor<string, []>("@model_path/weights/weight.bin"), offset = tensor<uint64, []>(33467840)))];
            tensor<fp16, [384]> model_pretrained_blocks_9_norm1_bias_to_fp16 = const()[name = tensor<string, []>("model_pretrained_blocks_9_norm1_bias_to_fp16"), val = tensor<fp16, [384]>(BLOBFILE(path = tensor<string, []>("@model_path/weights/weight.bin"), offset = tensor<uint64, []>(33468672)))];
            tensor<fp16, [1, 1370, 384]> x_65_cast_fp16 = layer_norm(axes = x_65_axes_0, beta = model_pretrained_blocks_9_norm1_bias_to_fp16, epsilon = var_11_to_fp16, gamma = model_pretrained_blocks_9_norm1_weight_to_fp16, x = input_181_cast_fp16)[name = tensor<string, []>("x_65_cast_fp16")];
            tensor<fp16, [1152, 384]> model_pretrained_blocks_9_attn_qkv_weight_to_fp16 = const()[name = tensor<string, []>("model_pretrained_blocks_9_attn_qkv_weight_to_fp16"), val = tensor<fp16, [1152, 384]>(BLOBFILE(path = tensor<string, []>("@model_path/weights/weight.bin"), offset = tensor<uint64, []>(33469504)))];
            tensor<fp16, [1152]> model_pretrained_blocks_9_attn_qkv_bias_to_fp16 = const()[name = tensor<string, []>("model_pretrained_blocks_9_attn_qkv_bias_to_fp16"), val = tensor<fp16, [1152]>(BLOBFILE(path = tensor<string, []>("@model_path/weights/weight.bin"), offset = tensor<uint64, []>(34354304)))];
            tensor<fp16, [1, 1370, 1152]> linear_36_cast_fp16 = linear(bias = model_pretrained_blocks_9_attn_qkv_bias_to_fp16, weight = model_pretrained_blocks_9_attn_qkv_weight_to_fp16, x = x_65_cast_fp16)[name = tensor<string, []>("linear_36_cast_fp16")];
            tensor<int32, [5]> var_692 = const()[name = tensor<string, []>("op_692"), val = tensor<int32, [5]>([1, 1370, 3, 6, 64])];
            tensor<fp16, [1, 1370, 3, 6, 64]> var_693_cast_fp16 = reshape(shape = var_692, x = linear_36_cast_fp16)[name = tensor<string, []>("op_693_cast_fp16")];
            tensor<int32, [5]> var_694 = const()[name = tensor<string, []>("op_694"), val = tensor<int32, [5]>([2, 0, 3, 1, 4])];
            tensor<int32, [5]> var_696_begin_0 = const()[name = tensor<string, []>("op_696_begin_0"), val = tensor<int32, [5]>([0, 0, 0, 0, 0])];
            tensor<int32, [5]> var_696_end_0 = const()[name = tensor<string, []>("op_696_end_0"), val = tensor<int32, [5]>([1, 1, 6, 1370, 64])];
            tensor<bool, [5]> var_696_end_mask_0 = const()[name = tensor<string, []>("op_696_end_mask_0"), val = tensor<bool, [5]>([false, true, true, true, true])];
            tensor<bool, [5]> var_696_squeeze_mask_0 = const()[name = tensor<string, []>("op_696_squeeze_mask_0"), val = tensor<bool, [5]>([true, false, false, false, false])];
            tensor<fp16, [3, 1, 6, 1370, 64]> qkv_19_cast_fp16 = transpose(perm = var_694, x = var_693_cast_fp16)[name = tensor<string, []>("transpose_9")];
            tensor<fp16, [1, 6, 1370, 64]> var_696_cast_fp16 = slice_by_index(begin = var_696_begin_0, end = var_696_end_0, end_mask = var_696_end_mask_0, squeeze_mask = var_696_squeeze_mask_0, x = qkv_19_cast_fp16)[name = tensor<string, []>("op_696_cast_fp16")];
            tensor<fp16, []> var_697_to_fp16 = const()[name = tensor<string, []>("op_697_to_fp16"), val = tensor<fp16, []>(0x1p-3)];
            tensor<fp16, [1, 6, 1370, 64]> q_19_cast_fp16 = mul(x = var_696_cast_fp16, y = var_697_to_fp16)[name = tensor<string, []>("q_19_cast_fp16")];
            tensor<int32, [5]> k_19_begin_0 = const()[name = tensor<string, []>("k_19_begin_0"), val = tensor<int32, [5]>([1, 0, 0, 0, 0])];
            tensor<int32, [5]> k_19_end_0 = const()[name = tensor<string, []>("k_19_end_0"), val = tensor<int32, [5]>([2, 1, 6, 1370, 64])];
            tensor<bool, [5]> k_19_end_mask_0 = const()[name = tensor<string, []>("k_19_end_mask_0"), val = tensor<bool, [5]>([false, true, true, true, true])];
            tensor<bool, [5]> k_19_squeeze_mask_0 = const()[name = tensor<string, []>("k_19_squeeze_mask_0"), val = tensor<bool, [5]>([true, false, false, false, false])];
            tensor<fp16, [1, 6, 1370, 64]> k_19_cast_fp16 = slice_by_index(begin = k_19_begin_0, end = k_19_end_0, end_mask = k_19_end_mask_0, squeeze_mask = k_19_squeeze_mask_0, x = qkv_19_cast_fp16)[name = tensor<string, []>("k_19_cast_fp16")];
            tensor<int32, [5]> v_19_begin_0 = const()[name = tensor<string, []>("v_19_begin_0"), val = tensor<int32, [5]>([2, 0, 0, 0, 0])];
            tensor<int32, [5]> v_19_end_0 = const()[name = tensor<string, []>("v_19_end_0"), val = tensor<int32, [5]>([3, 1, 6, 1370, 64])];
            tensor<bool, [5]> v_19_end_mask_0 = const()[name = tensor<string, []>("v_19_end_mask_0"), val = tensor<bool, [5]>([false, true, true, true, true])];
            tensor<bool, [5]> v_19_squeeze_mask_0 = const()[name = tensor<string, []>("v_19_squeeze_mask_0"), val = tensor<bool, [5]>([true, false, false, false, false])];
            tensor<fp16, [1, 6, 1370, 64]> v_19_cast_fp16 = slice_by_index(begin = v_19_begin_0, end = v_19_end_0, end_mask = v_19_end_mask_0, squeeze_mask = v_19_squeeze_mask_0, x = qkv_19_cast_fp16)[name = tensor<string, []>("v_19_cast_fp16")];
            tensor<bool, []> attn_37_transpose_x_1 = const()[name = tensor<string, []>("attn_37_transpose_x_1"), val = tensor<bool, []>(false)];
            tensor<bool, []> attn_37_transpose_y_1 = const()[name = tensor<string, []>("attn_37_transpose_y_1"), val = tensor<bool, []>(true)];
            tensor<fp16, [1, 6, 1370, 1370]> attn_37_cast_fp16 = matmul(transpose_x = attn_37_transpose_x_1, transpose_y = attn_37_transpose_y_1, x = q_19_cast_fp16, y = k_19_cast_fp16)[name = tensor<string, []>("attn_37_cast_fp16")];
            tensor<fp16, [1, 6, 1370, 1370]> input_183_cast_fp16 = softmax(axis = var_25, x = attn_37_cast_fp16)[name = tensor<string, []>("input_183_cast_fp16")];
            tensor<bool, []> var_705_transpose_x_0 = const()[name = tensor<string, []>("op_705_transpose_x_0"), val = tensor<bool, []>(false)];
            tensor<bool, []> var_705_transpose_y_0 = const()[name = tensor<string, []>("op_705_transpose_y_0"), val = tensor<bool, []>(false)];
            tensor<fp16, [1, 6, 1370, 64]> var_705_cast_fp16 = matmul(transpose_x = var_705_transpose_x_0, transpose_y = var_705_transpose_y_0, x = input_183_cast_fp16, y = v_19_cast_fp16)[name = tensor<string, []>("op_705_cast_fp16")];
            tensor<int32, [4]> var_706_perm_0 = const()[name = tensor<string, []>("op_706_perm_0"), val = tensor<int32, [4]>([0, 2, 1, 3])];
            tensor<int32, [3]> var_707 = const()[name = tensor<string, []>("op_707"), val = tensor<int32, [3]>([1, 1370, 384])];
            tensor<fp16, [1, 1370, 6, 64]> var_706_cast_fp16 = transpose(perm = var_706_perm_0, x = var_705_cast_fp16)[name = tensor<string, []>("transpose_8")];
            tensor<fp16, [1, 1370, 384]> input_185_cast_fp16 = reshape(shape = var_707, x = var_706_cast_fp16)[name = tensor<string, []>("input_185_cast_fp16")];
            tensor<fp16, [384, 384]> model_pretrained_blocks_9_attn_proj_weight_to_fp16 = const()[name = tensor<string, []>("model_pretrained_blocks_9_attn_proj_weight_to_fp16"), val = tensor<fp16, [384, 384]>(BLOBFILE(path = tensor<string, []>("@model_path/weights/weight.bin"), offset = tensor<uint64, []>(34356672)))];
            tensor<fp16, [384]> model_pretrained_blocks_9_attn_proj_bias_to_fp16 = const()[name = tensor<string, []>("model_pretrained_blocks_9_attn_proj_bias_to_fp16"), val = tensor<fp16, [384]>(BLOBFILE(path = tensor<string, []>("@model_path/weights/weight.bin"), offset = tensor<uint64, []>(34651648)))];
            tensor<fp16, [1, 1370, 384]> linear_37_cast_fp16 = linear(bias = model_pretrained_blocks_9_attn_proj_bias_to_fp16, weight = model_pretrained_blocks_9_attn_proj_weight_to_fp16, x = input_185_cast_fp16)[name = tensor<string, []>("linear_37_cast_fp16")];
            tensor<fp16, [384]> model_pretrained_blocks_9_ls1_gamma_to_fp16 = const()[name = tensor<string, []>("model_pretrained_blocks_9_ls1_gamma_to_fp16"), val = tensor<fp16, [384]>(BLOBFILE(path = tensor<string, []>("@model_path/weights/weight.bin"), offset = tensor<uint64, []>(34652480)))];
            tensor<fp16, [1, 1370, 384]> var_714_cast_fp16 = mul(x = linear_37_cast_fp16, y = model_pretrained_blocks_9_ls1_gamma_to_fp16)[name = tensor<string, []>("op_714_cast_fp16")];
            tensor<fp16, [1, 1370, 384]> input_189_cast_fp16 = add(x = input_181_cast_fp16, y = var_714_cast_fp16)[name = tensor<string, []>("input_189_cast_fp16")];
            tensor<int32, [1]> input_191_axes_0 = const()[name = tensor<string, []>("input_191_axes_0"), val = tensor<int32, [1]>([-1])];
            tensor<fp16, [384]> model_pretrained_blocks_9_norm2_weight_to_fp16 = const()[name = tensor<string, []>("model_pretrained_blocks_9_norm2_weight_to_fp16"), val = tensor<fp16, [384]>(BLOBFILE(path = tensor<string, []>("@model_path/weights/weight.bin"), offset = tensor<uint64, []>(34653312)))];
            tensor<fp16, [384]> model_pretrained_blocks_9_norm2_bias_to_fp16 = const()[name = tensor<string, []>("model_pretrained_blocks_9_norm2_bias_to_fp16"), val = tensor<fp16, [384]>(BLOBFILE(path = tensor<string, []>("@model_path/weights/weight.bin"), offset = tensor<uint64, []>(34654144)))];
            tensor<fp16, [1, 1370, 384]> input_191_cast_fp16 = layer_norm(axes = input_191_axes_0, beta = model_pretrained_blocks_9_norm2_bias_to_fp16, epsilon = var_11_to_fp16, gamma = model_pretrained_blocks_9_norm2_weight_to_fp16, x = input_189_cast_fp16)[name = tensor<string, []>("input_191_cast_fp16")];
            tensor<fp16, [1536, 384]> model_pretrained_blocks_9_mlp_fc1_weight_to_fp16 = const()[name = tensor<string, []>("model_pretrained_blocks_9_mlp_fc1_weight_to_fp16"), val = tensor<fp16, [1536, 384]>(BLOBFILE(path = tensor<string, []>("@model_path/weights/weight.bin"), offset = tensor<uint64, []>(34654976)))];
            tensor<fp16, [1536]> model_pretrained_blocks_9_mlp_fc1_bias_to_fp16 = const()[name = tensor<string, []>("model_pretrained_blocks_9_mlp_fc1_bias_to_fp16"), val = tensor<fp16, [1536]>(BLOBFILE(path = tensor<string, []>("@model_path/weights/weight.bin"), offset = tensor<uint64, []>(35834688)))];
            tensor<fp16, [1, 1370, 1536]> linear_38_cast_fp16 = linear(bias = model_pretrained_blocks_9_mlp_fc1_bias_to_fp16, weight = model_pretrained_blocks_9_mlp_fc1_weight_to_fp16, x = input_191_cast_fp16)[name = tensor<string, []>("linear_38_cast_fp16")];
            tensor<string, []> input_195_mode_0 = const()[name = tensor<string, []>("input_195_mode_0"), val = tensor<string, []>("EXACT")];
            tensor<fp16, [1, 1370, 1536]> input_195_cast_fp16 = gelu(mode = input_195_mode_0, x = linear_38_cast_fp16)[name = tensor<string, []>("input_195_cast_fp16")];
            tensor<fp16, [384, 1536]> model_pretrained_blocks_9_mlp_fc2_weight_to_fp16 = const()[name = tensor<string, []>("model_pretrained_blocks_9_mlp_fc2_weight_to_fp16"), val = tensor<fp16, [384, 1536]>(BLOBFILE(path = tensor<string, []>("@model_path/weights/weight.bin"), offset = tensor<uint64, []>(35837824)))];
            tensor<fp16, [384]> model_pretrained_blocks_9_mlp_fc2_bias_to_fp16 = const()[name = tensor<string, []>("model_pretrained_blocks_9_mlp_fc2_bias_to_fp16"), val = tensor<fp16, [384]>(BLOBFILE(path = tensor<string, []>("@model_path/weights/weight.bin"), offset = tensor<uint64, []>(37017536)))];
            tensor<fp16, [1, 1370, 384]> linear_39_cast_fp16 = linear(bias = model_pretrained_blocks_9_mlp_fc2_bias_to_fp16, weight = model_pretrained_blocks_9_mlp_fc2_weight_to_fp16, x = input_195_cast_fp16)[name = tensor<string, []>("linear_39_cast_fp16")];
            tensor<fp16, [384]> model_pretrained_blocks_9_ls2_gamma_to_fp16 = const()[name = tensor<string, []>("model_pretrained_blocks_9_ls2_gamma_to_fp16"), val = tensor<fp16, [384]>(BLOBFILE(path = tensor<string, []>("@model_path/weights/weight.bin"), offset = tensor<uint64, []>(37018368)))];
            tensor<fp16, [1, 1370, 384]> var_732_cast_fp16 = mul(x = linear_39_cast_fp16, y = model_pretrained_blocks_9_ls2_gamma_to_fp16)[name = tensor<string, []>("op_732_cast_fp16")];
            tensor<fp16, [1, 1370, 384]> input_201_cast_fp16 = add(x = input_189_cast_fp16, y = var_732_cast_fp16)[name = tensor<string, []>("input_201_cast_fp16")];
            tensor<int32, [1]> x_71_axes_0 = const()[name = tensor<string, []>("x_71_axes_0"), val = tensor<int32, [1]>([-1])];
            tensor<fp16, [384]> model_pretrained_blocks_10_norm1_weight_to_fp16 = const()[name = tensor<string, []>("model_pretrained_blocks_10_norm1_weight_to_fp16"), val = tensor<fp16, [384]>(BLOBFILE(path = tensor<string, []>("@model_path/weights/weight.bin"), offset = tensor<uint64, []>(37019200)))];
            tensor<fp16, [384]> model_pretrained_blocks_10_norm1_bias_to_fp16 = const()[name = tensor<string, []>("model_pretrained_blocks_10_norm1_bias_to_fp16"), val = tensor<fp16, [384]>(BLOBFILE(path = tensor<string, []>("@model_path/weights/weight.bin"), offset = tensor<uint64, []>(37020032)))];
            tensor<fp16, [1, 1370, 384]> x_71_cast_fp16 = layer_norm(axes = x_71_axes_0, beta = model_pretrained_blocks_10_norm1_bias_to_fp16, epsilon = var_11_to_fp16, gamma = model_pretrained_blocks_10_norm1_weight_to_fp16, x = input_201_cast_fp16)[name = tensor<string, []>("x_71_cast_fp16")];
            tensor<fp16, [1152, 384]> model_pretrained_blocks_10_attn_qkv_weight_to_fp16 = const()[name = tensor<string, []>("model_pretrained_blocks_10_attn_qkv_weight_to_fp16"), val = tensor<fp16, [1152, 384]>(BLOBFILE(path = tensor<string, []>("@model_path/weights/weight.bin"), offset = tensor<uint64, []>(37020864)))];
            tensor<fp16, [1152]> model_pretrained_blocks_10_attn_qkv_bias_to_fp16 = const()[name = tensor<string, []>("model_pretrained_blocks_10_attn_qkv_bias_to_fp16"), val = tensor<fp16, [1152]>(BLOBFILE(path = tensor<string, []>("@model_path/weights/weight.bin"), offset = tensor<uint64, []>(37905664)))];
            tensor<fp16, [1, 1370, 1152]> linear_40_cast_fp16 = linear(bias = model_pretrained_blocks_10_attn_qkv_bias_to_fp16, weight = model_pretrained_blocks_10_attn_qkv_weight_to_fp16, x = x_71_cast_fp16)[name = tensor<string, []>("linear_40_cast_fp16")];
            tensor<int32, [5]> var_755 = const()[name = tensor<string, []>("op_755"), val = tensor<int32, [5]>([1, 1370, 3, 6, 64])];
            tensor<fp16, [1, 1370, 3, 6, 64]> var_756_cast_fp16 = reshape(shape = var_755, x = linear_40_cast_fp16)[name = tensor<string, []>("op_756_cast_fp16")];
            tensor<int32, [5]> var_757 = const()[name = tensor<string, []>("op_757"), val = tensor<int32, [5]>([2, 0, 3, 1, 4])];
            tensor<int32, [5]> var_759_begin_0 = const()[name = tensor<string, []>("op_759_begin_0"), val = tensor<int32, [5]>([0, 0, 0, 0, 0])];
            tensor<int32, [5]> var_759_end_0 = const()[name = tensor<string, []>("op_759_end_0"), val = tensor<int32, [5]>([1, 1, 6, 1370, 64])];
            tensor<bool, [5]> var_759_end_mask_0 = const()[name = tensor<string, []>("op_759_end_mask_0"), val = tensor<bool, [5]>([false, true, true, true, true])];
            tensor<bool, [5]> var_759_squeeze_mask_0 = const()[name = tensor<string, []>("op_759_squeeze_mask_0"), val = tensor<bool, [5]>([true, false, false, false, false])];
            tensor<fp16, [3, 1, 6, 1370, 64]> qkv_21_cast_fp16 = transpose(perm = var_757, x = var_756_cast_fp16)[name = tensor<string, []>("transpose_7")];
            tensor<fp16, [1, 6, 1370, 64]> var_759_cast_fp16 = slice_by_index(begin = var_759_begin_0, end = var_759_end_0, end_mask = var_759_end_mask_0, squeeze_mask = var_759_squeeze_mask_0, x = qkv_21_cast_fp16)[name = tensor<string, []>("op_759_cast_fp16")];
            tensor<fp16, []> var_760_to_fp16 = const()[name = tensor<string, []>("op_760_to_fp16"), val = tensor<fp16, []>(0x1p-3)];
            tensor<fp16, [1, 6, 1370, 64]> q_21_cast_fp16 = mul(x = var_759_cast_fp16, y = var_760_to_fp16)[name = tensor<string, []>("q_21_cast_fp16")];
            tensor<int32, [5]> k_21_begin_0 = const()[name = tensor<string, []>("k_21_begin_0"), val = tensor<int32, [5]>([1, 0, 0, 0, 0])];
            tensor<int32, [5]> k_21_end_0 = const()[name = tensor<string, []>("k_21_end_0"), val = tensor<int32, [5]>([2, 1, 6, 1370, 64])];
            tensor<bool, [5]> k_21_end_mask_0 = const()[name = tensor<string, []>("k_21_end_mask_0"), val = tensor<bool, [5]>([false, true, true, true, true])];
            tensor<bool, [5]> k_21_squeeze_mask_0 = const()[name = tensor<string, []>("k_21_squeeze_mask_0"), val = tensor<bool, [5]>([true, false, false, false, false])];
            tensor<fp16, [1, 6, 1370, 64]> k_21_cast_fp16 = slice_by_index(begin = k_21_begin_0, end = k_21_end_0, end_mask = k_21_end_mask_0, squeeze_mask = k_21_squeeze_mask_0, x = qkv_21_cast_fp16)[name = tensor<string, []>("k_21_cast_fp16")];
            tensor<int32, [5]> v_21_begin_0 = const()[name = tensor<string, []>("v_21_begin_0"), val = tensor<int32, [5]>([2, 0, 0, 0, 0])];
            tensor<int32, [5]> v_21_end_0 = const()[name = tensor<string, []>("v_21_end_0"), val = tensor<int32, [5]>([3, 1, 6, 1370, 64])];
            tensor<bool, [5]> v_21_end_mask_0 = const()[name = tensor<string, []>("v_21_end_mask_0"), val = tensor<bool, [5]>([false, true, true, true, true])];
            tensor<bool, [5]> v_21_squeeze_mask_0 = const()[name = tensor<string, []>("v_21_squeeze_mask_0"), val = tensor<bool, [5]>([true, false, false, false, false])];
            tensor<fp16, [1, 6, 1370, 64]> v_21_cast_fp16 = slice_by_index(begin = v_21_begin_0, end = v_21_end_0, end_mask = v_21_end_mask_0, squeeze_mask = v_21_squeeze_mask_0, x = qkv_21_cast_fp16)[name = tensor<string, []>("v_21_cast_fp16")];
            tensor<bool, []> attn_41_transpose_x_1 = const()[name = tensor<string, []>("attn_41_transpose_x_1"), val = tensor<bool, []>(false)];
            tensor<bool, []> attn_41_transpose_y_1 = const()[name = tensor<string, []>("attn_41_transpose_y_1"), val = tensor<bool, []>(true)];
            tensor<fp16, [1, 6, 1370, 1370]> attn_41_cast_fp16 = matmul(transpose_x = attn_41_transpose_x_1, transpose_y = attn_41_transpose_y_1, x = q_21_cast_fp16, y = k_21_cast_fp16)[name = tensor<string, []>("attn_41_cast_fp16")];
            tensor<fp16, [1, 6, 1370, 1370]> input_203_cast_fp16 = softmax(axis = var_25, x = attn_41_cast_fp16)[name = tensor<string, []>("input_203_cast_fp16")];
            tensor<bool, []> var_768_transpose_x_0 = const()[name = tensor<string, []>("op_768_transpose_x_0"), val = tensor<bool, []>(false)];
            tensor<bool, []> var_768_transpose_y_0 = const()[name = tensor<string, []>("op_768_transpose_y_0"), val = tensor<bool, []>(false)];
            tensor<fp16, [1, 6, 1370, 64]> var_768_cast_fp16 = matmul(transpose_x = var_768_transpose_x_0, transpose_y = var_768_transpose_y_0, x = input_203_cast_fp16, y = v_21_cast_fp16)[name = tensor<string, []>("op_768_cast_fp16")];
            tensor<int32, [4]> var_769_perm_0 = const()[name = tensor<string, []>("op_769_perm_0"), val = tensor<int32, [4]>([0, 2, 1, 3])];
            tensor<int32, [3]> var_770 = const()[name = tensor<string, []>("op_770"), val = tensor<int32, [3]>([1, 1370, 384])];
            tensor<fp16, [1, 1370, 6, 64]> var_769_cast_fp16 = transpose(perm = var_769_perm_0, x = var_768_cast_fp16)[name = tensor<string, []>("transpose_6")];
            tensor<fp16, [1, 1370, 384]> input_205_cast_fp16 = reshape(shape = var_770, x = var_769_cast_fp16)[name = tensor<string, []>("input_205_cast_fp16")];
            tensor<fp16, [384, 384]> model_pretrained_blocks_10_attn_proj_weight_to_fp16 = const()[name = tensor<string, []>("model_pretrained_blocks_10_attn_proj_weight_to_fp16"), val = tensor<fp16, [384, 384]>(BLOBFILE(path = tensor<string, []>("@model_path/weights/weight.bin"), offset = tensor<uint64, []>(37908032)))];
            tensor<fp16, [384]> model_pretrained_blocks_10_attn_proj_bias_to_fp16 = const()[name = tensor<string, []>("model_pretrained_blocks_10_attn_proj_bias_to_fp16"), val = tensor<fp16, [384]>(BLOBFILE(path = tensor<string, []>("@model_path/weights/weight.bin"), offset = tensor<uint64, []>(38203008)))];
            tensor<fp16, [1, 1370, 384]> linear_41_cast_fp16 = linear(bias = model_pretrained_blocks_10_attn_proj_bias_to_fp16, weight = model_pretrained_blocks_10_attn_proj_weight_to_fp16, x = input_205_cast_fp16)[name = tensor<string, []>("linear_41_cast_fp16")];
            tensor<fp16, [384]> model_pretrained_blocks_10_ls1_gamma_to_fp16 = const()[name = tensor<string, []>("model_pretrained_blocks_10_ls1_gamma_to_fp16"), val = tensor<fp16, [384]>(BLOBFILE(path = tensor<string, []>("@model_path/weights/weight.bin"), offset = tensor<uint64, []>(38203840)))];
            tensor<fp16, [1, 1370, 384]> var_777_cast_fp16 = mul(x = linear_41_cast_fp16, y = model_pretrained_blocks_10_ls1_gamma_to_fp16)[name = tensor<string, []>("op_777_cast_fp16")];
            tensor<fp16, [1, 1370, 384]> input_209_cast_fp16 = add(x = input_201_cast_fp16, y = var_777_cast_fp16)[name = tensor<string, []>("input_209_cast_fp16")];
            tensor<int32, [1]> input_211_axes_0 = const()[name = tensor<string, []>("input_211_axes_0"), val = tensor<int32, [1]>([-1])];
            tensor<fp16, [384]> model_pretrained_blocks_10_norm2_weight_to_fp16 = const()[name = tensor<string, []>("model_pretrained_blocks_10_norm2_weight_to_fp16"), val = tensor<fp16, [384]>(BLOBFILE(path = tensor<string, []>("@model_path/weights/weight.bin"), offset = tensor<uint64, []>(38204672)))];
            tensor<fp16, [384]> model_pretrained_blocks_10_norm2_bias_to_fp16 = const()[name = tensor<string, []>("model_pretrained_blocks_10_norm2_bias_to_fp16"), val = tensor<fp16, [384]>(BLOBFILE(path = tensor<string, []>("@model_path/weights/weight.bin"), offset = tensor<uint64, []>(38205504)))];
            tensor<fp16, [1, 1370, 384]> input_211_cast_fp16 = layer_norm(axes = input_211_axes_0, beta = model_pretrained_blocks_10_norm2_bias_to_fp16, epsilon = var_11_to_fp16, gamma = model_pretrained_blocks_10_norm2_weight_to_fp16, x = input_209_cast_fp16)[name = tensor<string, []>("input_211_cast_fp16")];
            tensor<fp16, [1536, 384]> model_pretrained_blocks_10_mlp_fc1_weight_to_fp16 = const()[name = tensor<string, []>("model_pretrained_blocks_10_mlp_fc1_weight_to_fp16"), val = tensor<fp16, [1536, 384]>(BLOBFILE(path = tensor<string, []>("@model_path/weights/weight.bin"), offset = tensor<uint64, []>(38206336)))];
            tensor<fp16, [1536]> model_pretrained_blocks_10_mlp_fc1_bias_to_fp16 = const()[name = tensor<string, []>("model_pretrained_blocks_10_mlp_fc1_bias_to_fp16"), val = tensor<fp16, [1536]>(BLOBFILE(path = tensor<string, []>("@model_path/weights/weight.bin"), offset = tensor<uint64, []>(39386048)))];
            tensor<fp16, [1, 1370, 1536]> linear_42_cast_fp16 = linear(bias = model_pretrained_blocks_10_mlp_fc1_bias_to_fp16, weight = model_pretrained_blocks_10_mlp_fc1_weight_to_fp16, x = input_211_cast_fp16)[name = tensor<string, []>("linear_42_cast_fp16")];
            tensor<string, []> input_215_mode_0 = const()[name = tensor<string, []>("input_215_mode_0"), val = tensor<string, []>("EXACT")];
            tensor<fp16, [1, 1370, 1536]> input_215_cast_fp16 = gelu(mode = input_215_mode_0, x = linear_42_cast_fp16)[name = tensor<string, []>("input_215_cast_fp16")];
            tensor<fp16, [384, 1536]> model_pretrained_blocks_10_mlp_fc2_weight_to_fp16 = const()[name = tensor<string, []>("model_pretrained_blocks_10_mlp_fc2_weight_to_fp16"), val = tensor<fp16, [384, 1536]>(BLOBFILE(path = tensor<string, []>("@model_path/weights/weight.bin"), offset = tensor<uint64, []>(39389184)))];
            tensor<fp16, [384]> model_pretrained_blocks_10_mlp_fc2_bias_to_fp16 = const()[name = tensor<string, []>("model_pretrained_blocks_10_mlp_fc2_bias_to_fp16"), val = tensor<fp16, [384]>(BLOBFILE(path = tensor<string, []>("@model_path/weights/weight.bin"), offset = tensor<uint64, []>(40568896)))];
            tensor<fp16, [1, 1370, 384]> linear_43_cast_fp16 = linear(bias = model_pretrained_blocks_10_mlp_fc2_bias_to_fp16, weight = model_pretrained_blocks_10_mlp_fc2_weight_to_fp16, x = input_215_cast_fp16)[name = tensor<string, []>("linear_43_cast_fp16")];
            tensor<fp16, [384]> model_pretrained_blocks_10_ls2_gamma_to_fp16 = const()[name = tensor<string, []>("model_pretrained_blocks_10_ls2_gamma_to_fp16"), val = tensor<fp16, [384]>(BLOBFILE(path = tensor<string, []>("@model_path/weights/weight.bin"), offset = tensor<uint64, []>(40569728)))];
            tensor<fp16, [1, 1370, 384]> var_795_cast_fp16 = mul(x = linear_43_cast_fp16, y = model_pretrained_blocks_10_ls2_gamma_to_fp16)[name = tensor<string, []>("op_795_cast_fp16")];
            tensor<fp16, [1, 1370, 384]> input_221_cast_fp16 = add(x = input_209_cast_fp16, y = var_795_cast_fp16)[name = tensor<string, []>("input_221_cast_fp16")];
            tensor<int32, [1]> x_77_axes_0 = const()[name = tensor<string, []>("x_77_axes_0"), val = tensor<int32, [1]>([-1])];
            tensor<fp16, [384]> model_pretrained_blocks_11_norm1_weight_to_fp16 = const()[name = tensor<string, []>("model_pretrained_blocks_11_norm1_weight_to_fp16"), val = tensor<fp16, [384]>(BLOBFILE(path = tensor<string, []>("@model_path/weights/weight.bin"), offset = tensor<uint64, []>(40570560)))];
            tensor<fp16, [384]> model_pretrained_blocks_11_norm1_bias_to_fp16 = const()[name = tensor<string, []>("model_pretrained_blocks_11_norm1_bias_to_fp16"), val = tensor<fp16, [384]>(BLOBFILE(path = tensor<string, []>("@model_path/weights/weight.bin"), offset = tensor<uint64, []>(40571392)))];
            tensor<fp16, [1, 1370, 384]> x_77_cast_fp16 = layer_norm(axes = x_77_axes_0, beta = model_pretrained_blocks_11_norm1_bias_to_fp16, epsilon = var_11_to_fp16, gamma = model_pretrained_blocks_11_norm1_weight_to_fp16, x = input_221_cast_fp16)[name = tensor<string, []>("x_77_cast_fp16")];
            tensor<fp16, [1152, 384]> model_pretrained_blocks_11_attn_qkv_weight_to_fp16 = const()[name = tensor<string, []>("model_pretrained_blocks_11_attn_qkv_weight_to_fp16"), val = tensor<fp16, [1152, 384]>(BLOBFILE(path = tensor<string, []>("@model_path/weights/weight.bin"), offset = tensor<uint64, []>(40572224)))];
            tensor<fp16, [1152]> model_pretrained_blocks_11_attn_qkv_bias_to_fp16 = const()[name = tensor<string, []>("model_pretrained_blocks_11_attn_qkv_bias_to_fp16"), val = tensor<fp16, [1152]>(BLOBFILE(path = tensor<string, []>("@model_path/weights/weight.bin"), offset = tensor<uint64, []>(41457024)))];
            tensor<fp16, [1, 1370, 1152]> linear_44_cast_fp16 = linear(bias = model_pretrained_blocks_11_attn_qkv_bias_to_fp16, weight = model_pretrained_blocks_11_attn_qkv_weight_to_fp16, x = x_77_cast_fp16)[name = tensor<string, []>("linear_44_cast_fp16")];
            tensor<int32, [5]> var_818 = const()[name = tensor<string, []>("op_818"), val = tensor<int32, [5]>([1, 1370, 3, 6, 64])];
            tensor<fp16, [1, 1370, 3, 6, 64]> var_819_cast_fp16 = reshape(shape = var_818, x = linear_44_cast_fp16)[name = tensor<string, []>("op_819_cast_fp16")];
            tensor<int32, [5]> var_820 = const()[name = tensor<string, []>("op_820"), val = tensor<int32, [5]>([2, 0, 3, 1, 4])];
            tensor<int32, [5]> var_822_begin_0 = const()[name = tensor<string, []>("op_822_begin_0"), val = tensor<int32, [5]>([0, 0, 0, 0, 0])];
            tensor<int32, [5]> var_822_end_0 = const()[name = tensor<string, []>("op_822_end_0"), val = tensor<int32, [5]>([1, 1, 6, 1370, 64])];
            tensor<bool, [5]> var_822_end_mask_0 = const()[name = tensor<string, []>("op_822_end_mask_0"), val = tensor<bool, [5]>([false, true, true, true, true])];
            tensor<bool, [5]> var_822_squeeze_mask_0 = const()[name = tensor<string, []>("op_822_squeeze_mask_0"), val = tensor<bool, [5]>([true, false, false, false, false])];
            tensor<fp16, [3, 1, 6, 1370, 64]> qkv_23_cast_fp16 = transpose(perm = var_820, x = var_819_cast_fp16)[name = tensor<string, []>("transpose_5")];
            tensor<fp16, [1, 6, 1370, 64]> var_822_cast_fp16 = slice_by_index(begin = var_822_begin_0, end = var_822_end_0, end_mask = var_822_end_mask_0, squeeze_mask = var_822_squeeze_mask_0, x = qkv_23_cast_fp16)[name = tensor<string, []>("op_822_cast_fp16")];
            tensor<fp16, []> var_823_to_fp16 = const()[name = tensor<string, []>("op_823_to_fp16"), val = tensor<fp16, []>(0x1p-3)];
            tensor<fp16, [1, 6, 1370, 64]> q_cast_fp16 = mul(x = var_822_cast_fp16, y = var_823_to_fp16)[name = tensor<string, []>("q_cast_fp16")];
            tensor<int32, [5]> k_begin_0 = const()[name = tensor<string, []>("k_begin_0"), val = tensor<int32, [5]>([1, 0, 0, 0, 0])];
            tensor<int32, [5]> k_end_0 = const()[name = tensor<string, []>("k_end_0"), val = tensor<int32, [5]>([2, 1, 6, 1370, 64])];
            tensor<bool, [5]> k_end_mask_0 = const()[name = tensor<string, []>("k_end_mask_0"), val = tensor<bool, [5]>([false, true, true, true, true])];
            tensor<bool, [5]> k_squeeze_mask_0 = const()[name = tensor<string, []>("k_squeeze_mask_0"), val = tensor<bool, [5]>([true, false, false, false, false])];
            tensor<fp16, [1, 6, 1370, 64]> k_cast_fp16 = slice_by_index(begin = k_begin_0, end = k_end_0, end_mask = k_end_mask_0, squeeze_mask = k_squeeze_mask_0, x = qkv_23_cast_fp16)[name = tensor<string, []>("k_cast_fp16")];
            tensor<int32, [5]> v_begin_0 = const()[name = tensor<string, []>("v_begin_0"), val = tensor<int32, [5]>([2, 0, 0, 0, 0])];
            tensor<int32, [5]> v_end_0 = const()[name = tensor<string, []>("v_end_0"), val = tensor<int32, [5]>([3, 1, 6, 1370, 64])];
            tensor<bool, [5]> v_end_mask_0 = const()[name = tensor<string, []>("v_end_mask_0"), val = tensor<bool, [5]>([false, true, true, true, true])];
            tensor<bool, [5]> v_squeeze_mask_0 = const()[name = tensor<string, []>("v_squeeze_mask_0"), val = tensor<bool, [5]>([true, false, false, false, false])];
            tensor<fp16, [1, 6, 1370, 64]> v_cast_fp16 = slice_by_index(begin = v_begin_0, end = v_end_0, end_mask = v_end_mask_0, squeeze_mask = v_squeeze_mask_0, x = qkv_23_cast_fp16)[name = tensor<string, []>("v_cast_fp16")];
            tensor<bool, []> attn_45_transpose_x_1 = const()[name = tensor<string, []>("attn_45_transpose_x_1"), val = tensor<bool, []>(false)];
            tensor<bool, []> attn_45_transpose_y_1 = const()[name = tensor<string, []>("attn_45_transpose_y_1"), val = tensor<bool, []>(true)];
            tensor<fp16, [1, 6, 1370, 1370]> attn_45_cast_fp16 = matmul(transpose_x = attn_45_transpose_x_1, transpose_y = attn_45_transpose_y_1, x = q_cast_fp16, y = k_cast_fp16)[name = tensor<string, []>("attn_45_cast_fp16")];
            tensor<fp16, [1, 6, 1370, 1370]> input_223_cast_fp16 = softmax(axis = var_25, x = attn_45_cast_fp16)[name = tensor<string, []>("input_223_cast_fp16")];
            tensor<bool, []> var_831_transpose_x_0 = const()[name = tensor<string, []>("op_831_transpose_x_0"), val = tensor<bool, []>(false)];
            tensor<bool, []> var_831_transpose_y_0 = const()[name = tensor<string, []>("op_831_transpose_y_0"), val = tensor<bool, []>(false)];
            tensor<fp16, [1, 6, 1370, 64]> var_831_cast_fp16 = matmul(transpose_x = var_831_transpose_x_0, transpose_y = var_831_transpose_y_0, x = input_223_cast_fp16, y = v_cast_fp16)[name = tensor<string, []>("op_831_cast_fp16")];
            tensor<int32, [4]> var_832_perm_0 = const()[name = tensor<string, []>("op_832_perm_0"), val = tensor<int32, [4]>([0, 2, 1, 3])];
            tensor<int32, [3]> var_833 = const()[name = tensor<string, []>("op_833"), val = tensor<int32, [3]>([1, 1370, 384])];
            tensor<fp16, [1, 1370, 6, 64]> var_832_cast_fp16 = transpose(perm = var_832_perm_0, x = var_831_cast_fp16)[name = tensor<string, []>("transpose_4")];
…
            tensor<fp16, [1, 64, 74, 74]> layer_2_rn_cast_fp16 = conv(dilations = layer_2_rn_dilations_0, groups = layer_2_rn_groups_0, pad = layer_2_rn_pad_0, pad_type = layer_2_rn_pad_type_0, strides = layer_2_rn_strides_0, weight = model_depth_head_scratch_layer2_rn_weight_to_fp16, x = input_259_has_output_shape_cast_fp16)[name = tensor<string, []>("layer_2_rn_cast_fp16")];
            tensor<string, []> layer_3_rn_pad_type_0 = const()[name = tensor<string, []>("layer_3_rn_pad_type_0"), val = tensor<string, []>("custom")];
            tensor<int32, [4]> layer_3_rn_pad_0 = const()[name = tensor<string, []>("layer_3_rn_pad_0"), val = tensor<int32, [4]>([1, 1, 1, 1])];
            tensor<int32, [2]> layer_3_rn_strides_0 = const()[name = tensor<string, []>("layer_3_rn_strides_0"), val = tensor<int32, [2]>([1, 1])];
            tensor<int32, [2]> layer_3_rn_dilations_0 = const()[name = tensor<string, []>("layer_3_rn_dilations_0"), val = tensor<int32, [2]>([1, 1])];
            tensor<int32, []> layer_3_rn_groups_0 = const()[name = tensor<string, []>("layer_3_rn_groups_0"), val = tensor<int32, []>(1)];
            tensor<fp16, [64, 192, 3, 3]> model_depth_head_scratch_layer3_rn_weight_to_fp16 = const()[name = tensor<string, []>("model_depth_head_scratch_layer3_rn_weight_to_fp16"), val = tensor<fp16, [64, 192, 3, 3]>(BLOBFILE(path = tensor<string, []>("@model_path/weights/weight.bin"), offset = tensor<uint64, []>(47647680)))];
            tensor<fp16, [1, 64, 37, 37]> layer_3_rn_cast_fp16 = conv(dilations = layer_3_rn_dilations_0, groups = layer_3_rn_groups_0, pad = layer_3_rn_pad_0, pad_type = layer_3_rn_pad_type_0, strides = layer_3_rn_strides_0, weight = model_depth_head_scratch_layer3_rn_weight_to_fp16, x = input_261_cast_fp16)[name = tensor<string, []>("layer_3_rn_cast_fp16")];
            tensor<string, []> input_265_pad_type_0 = const()[name = tensor<string, []>("input_265_pad_type_0"), val = tensor<string, []>("custom")];
            tensor<int32, [4]> input_265_pad_0 = const()[name = tensor<string, []>("input_265_pad_0"), val = tensor<int32, [4]>([1, 1, 1, 1])];
            tensor<int32, [2]> input_265_strides_0 = const()[name = tensor<string, []>("input_265_strides_0"), val = tensor<int32, [2]>([1, 1])];
            tensor<int32, [2]> input_265_dilations_0 = const()[name = tensor<string, []>("input_265_dilations_0"), val = tensor<int32, [2]>([1, 1])];
            tensor<int32, []> input_265_groups_0 = const()[name = tensor<string, []>("input_265_groups_0"), val = tensor<int32, []>(1)];
            tensor<fp16, [64, 384, 3, 3]> model_depth_head_scratch_layer4_rn_weight_to_fp16 = const()[name = tensor<string, []>("model_depth_head_scratch_layer4_rn_weight_to_fp16"), val = tensor<fp16, [64, 384, 3, 3]>(BLOBFILE(path = tensor<string, []>("@model_path/weights/weight.bin"), offset = tensor<uint64, []>(47868928)))];
            tensor<fp16, [1, 64, 19, 19]> input_265_cast_fp16 = conv(dilations = input_265_dilations_0, groups = input_265_groups_0, pad = input_265_pad_0, pad_type = input_265_pad_type_0, strides = input_265_strides_0, weight = model_depth_head_scratch_layer4_rn_weight_to_fp16, x = input_263_cast_fp16)[name = tensor<string, []>("input_265_cast_fp16")];
            tensor<fp16, [1, 64, 19, 19]> input_267_cast_fp16 = relu(x = input_265_cast_fp16)[name = tensor<string, []>("input_267_cast_fp16")];
            tensor<string, []> input_269_pad_type_0 = const()[name = tensor<string, []>("input_269_pad_type_0"), val = tensor<string, []>("custom")];
            tensor<int32, [4]> input_269_pad_0 = const()[name = tensor<string, []>("input_269_pad_0"), val = tensor<int32, [4]>([1, 1, 1, 1])];
            tensor<int32, [2]> input_269_strides_0 = const()[name = tensor<string, []>("input_269_strides_0"), val = tensor<int32, [2]>([1, 1])];
            tensor<int32, [2]> input_269_dilations_0 = const()[name = tensor<string, []>("input_269_dilations_0"), val = tensor<int32, [2]>([1, 1])];
            tensor<int32, []> input_269_groups_0 = const()[name = tensor<string, []>("input_269_groups_0"), val = tensor<int32, []>(1)];
            tensor<fp16, [64, 64, 3, 3]> model_depth_head_scratch_refinenet4_resConfUnit2_conv1_weight_to_fp16 = const()[name = tensor<string, []>("model_depth_head_scratch_refinenet4_resConfUnit2_conv1_weight_to_fp16"), val = tensor<fp16, [64, 64, 3, 3]>(BLOBFILE(path = tensor<string, []>("@model_path/weights/weight.bin"), offset = tensor<uint64, []>(48311360)))];
            tensor<fp16, [64]> model_depth_head_scratch_refinenet4_resConfUnit2_conv1_bias_to_fp16 = const()[name = tensor<string, []>("model_depth_head_scratch_refinenet4_resConfUnit2_conv1_bias_to_fp16"), val = tensor<fp16, [64]>(BLOBFILE(path = tensor<string, []>("@model_path/weights/weight.bin"), offset = tensor<uint64, []>(48385152)))];
            tensor<fp16, [1, 64, 19, 19]> input_269_cast_fp16 = conv(bias = model_depth_head_scratch_refinenet4_resConfUnit2_conv1_bias_to_fp16, dilations = input_269_dilations_0, groups = input_269_groups_0, pad = input_269_pad_0, pad_type = input_269_pad_type_0, strides = input_269_strides_0, weight = model_depth_head_scratch_refinenet4_resConfUnit2_conv1_weight_to_fp16, x = input_267_cast_fp16)[name = tensor<string, []>("input_269_cast_fp16")];
            tensor<fp16, [1, 64, 19, 19]> input_271_cast_fp16 = relu(x = input_269_cast_fp16)[name = tensor<string, []>("input_271_cast_fp16")];
            tensor<string, []> x_91_pad_type_0 = const()[name = tensor<string, []>("x_91_pad_type_0"), val = tensor<string, []>("custom")];
            tensor<int32, [4]> x_91_pad_0 = const()[name = tensor<string, []>("x_91_pad_0"), val = tensor<int32, [4]>([1, 1, 1, 1])];
            tensor<int32, [2]> x_91_strides_0 = const()[name = tensor<string, []>("x_91_strides_0"), val = tensor<int32, [2]>([1, 1])];
            tensor<int32, [2]> x_91_dilations_0 = const()[name = tensor<string, []>("x_91_dilations_0"), val = tensor<int32, [2]>([1, 1])];
            tensor<int32, []> x_91_groups_0 = const()[name = tensor<string, []>("x_91_groups_0"), val = tensor<int32, []>(1)];
            tensor<fp16, [64, 64, 3, 3]> model_depth_head_scratch_refinenet4_resConfUnit2_conv2_weight_to_fp16 = const()[name = tensor<string, []>("model_depth_head_scratch_refinenet4_resConfUnit2_conv2_weight_to_fp16"), val = tensor<fp16, [64, 64, 3, 3]>(BLOBFILE(path = tensor<string, []>("@model_path/weights/weight.bin"), offset = tensor<uint64, []>(48385344)))];
            tensor<fp16, [64]> model_depth_head_scratch_refinenet4_resConfUnit2_conv2_bias_to_fp16 = const()[name = tensor<string, []>("model_depth_head_scratch_refinenet4_resConfUnit2_conv2_bias_to_fp16"), val = tensor<fp16, [64]>(BLOBFILE(path = tensor<string, []>("@model_path/weights/weight.bin"), offset = tensor<uint64, []>(48459136)))];
            tensor<fp16, [1, 64, 19, 19]> x_91_cast_fp16 = conv(bias = model_depth_head_scratch_refinenet4_resConfUnit2_conv2_bias_to_fp16, dilations = x_91_dilations_0, groups = x_91_groups_0, pad = x_91_pad_0, pad_type = x_91_pad_type_0, strides = x_91_strides_0, weight = model_depth_head_scratch_refinenet4_resConfUnit2_conv2_weight_to_fp16, x = input_271_cast_fp16)[name = tensor<string, []>("x_91_cast_fp16")];
            tensor<fp16, [1, 64, 19, 19]> input_273_cast_fp16 = add(x = x_91_cast_fp16, y = input_265_cast_fp16)[name = tensor<string, []>("input_273_cast_fp16")];
            tensor<fp32, []> input_275_scale_factor_height_0 = const()[name = tensor<string, []>("input_275_scale_factor_height_0"), val = tensor<fp32, []>(0x1.f28714p+0)];
            tensor<fp32, []> input_275_scale_factor_width_0 = const()[name = tensor<string, []>("input_275_scale_factor_width_0"), val = tensor<fp32, []>(0x1.f28714p+0)];
            tensor<bool, []> input_275_align_corners_0 = const()[name = tensor<string, []>("input_275_align_corners_0"), val = tensor<bool, []>(true)];
            tensor<fp16, [1, 64, 37, 37]> input_275_cast_fp16 = upsample_bilinear(align_corners = input_275_align_corners_0, scale_factor_height = input_275_scale_factor_height_0, scale_factor_width = input_275_scale_factor_width_0, x = input_273_cast_fp16)[name = tensor<string, []>("input_275_cast_fp16")];
            tensor<string, []> x_95_pad_type_0 = const()[name = tensor<string, []>("x_95_pad_type_0"), val = tensor<string, []>("valid")];
            tensor<int32, [2]> x_95_strides_0 = const()[name = tensor<string, []>("x_95_strides_0"), val = tensor<int32, [2]>([1, 1])];
            tensor<int32, [4]> x_95_pad_0 = const()[name = tensor<string, []>("x_95_pad_0"), val = tensor<int32, [4]>([0, 0, 0, 0])];
            tensor<int32, [2]> x_95_dilations_0 = const()[name = tensor<string, []>("x_95_dilations_0"), val = tensor<int32, [2]>([1, 1])];
            tensor<int32, []> x_95_groups_0 = const()[name = tensor<string, []>("x_95_groups_0"), val = tensor<int32, []>(1)];
            tensor<fp16, [64, 64, 1, 1]> model_depth_head_scratch_refinenet4_out_conv_weight_to_fp16 = const()[name = tensor<string, []>("model_depth_head_scratch_refinenet4_out_conv_weight_to_fp16"), val = tensor<fp16, [64, 64, 1, 1]>(BLOBFILE(path = tensor<string, []>("@model_path/weights/weight.bin"), offset = tensor<uint64, []>(48459328)))];
            tensor<fp16, [64]> model_depth_head_scratch_refinenet4_out_conv_bias_to_fp16 = const()[name = tensor<string, []>("model_depth_head_scratch_refinenet4_out_conv_bias_to_fp16"), val = tensor<fp16, [64]>(BLOBFILE(path = tensor<string, []>("@model_path/weights/weight.bin"), offset = tensor<uint64, []>(48467584)))];
            tensor<fp16, [1, 64, 37, 37]> x_95_cast_fp16 = conv(bias = model_depth_head_scratch_refinenet4_out_conv_bias_to_fp16, dilations = x_95_dilations_0, groups = x_95_groups_0, pad = x_95_pad_0, pad_type = x_95_pad_type_0, strides = x_95_strides_0, weight = model_depth_head_scratch_refinenet4_out_conv_weight_to_fp16, x = input_275_cast_fp16)[name = tensor<string, []>("x_95_cast_fp16")];
            tensor<fp16, [1, 64, 37, 37]> input_277_cast_fp16 = relu(x = layer_3_rn_cast_fp16)[name = tensor<string, []>("input_277_cast_fp16")];
            tensor<string, []> input_279_pad_type_0 = const()[name = tensor<string, []>("input_279_pad_type_0"), val = tensor<string, []>("custom")];
            tensor<int32, [4]> input_279_pad_0 = const()[name = tensor<string, []>("input_279_pad_0"), val = tensor<int32, [4]>([1, 1, 1, 1])];
            tensor<int32, [2]> input_279_strides_0 = const()[name = tensor<string, []>("input_279_strides_0"), val = tensor<int32, [2]>([1, 1])];
            tensor<int32, [2]> input_279_dilations_0 = const()[name = tensor<string, []>("input_279_dilations_0"), val = tensor<int32, [2]>([1, 1])];
            tensor<int32, []> input_279_groups_0 = const()[name = tensor<string, []>("input_279_groups_0"), val = tensor<int32, []>(1)];
            tensor<fp16, [64, 64, 3, 3]> model_depth_head_scratch_refinenet3_resConfUnit1_conv1_weight_to_fp16 = const()[name = tensor<string, []>("model_depth_head_scratch_refinenet3_resConfUnit1_conv1_weight_to_fp16"), val = tensor<fp16, [64, 64, 3, 3]>(BLOBFILE(path = tensor<string, []>("@model_path/weights/weight.bin"), offset = tensor<uint64, []>(48467776)))];
            tensor<fp16, [64]> model_depth_head_scratch_refinenet3_resConfUnit1_conv1_bias_to_fp16 = const()[name = tensor<string, []>("model_depth_head_scratch_refinenet3_resConfUnit1_conv1_bias_to_fp16"), val = tensor<fp16, [64]>(BLOBFILE(path = tensor<string, []>("@model_path/weights/weight.bin"), offset = tensor<uint64, []>(48541568)))];
            tensor<fp16, [1, 64, 37, 37]> input_279_cast_fp16 = conv(bias = model_depth_head_scratch_refinenet3_resConfUnit1_conv1_bias_to_fp16, dilations = input_279_dilations_0, groups = input_279_groups_0, pad = input_279_pad_0, pad_type = input_279_pad_type_0, strides = input_279_strides_0, weight = model_depth_head_scratch_refinenet3_resConfUnit1_conv1_weight_to_fp16, x = input_277_cast_fp16)[name = tensor<string, []>("input_279_cast_fp16")];
            tensor<fp16, [1, 64, 37, 37]> input_281_cast_fp16 = relu(x = input_279_cast_fp16)[name = tensor<string, []>("input_281_cast_fp16")];
            tensor<string, []> x_93_pad_type_0 = const()[name = tensor<string, []>("x_93_pad_type_0"), val = tensor<string, []>("custom")];
            tensor<int32, [4]> x_93_pad_0 = const()[name = tensor<string, []>("x_93_pad_0"), val = tensor<int32, [4]>([1, 1, 1, 1])];
            tensor<int32, [2]> x_93_strides_0 = const()[name = tensor<string, []>("x_93_strides_0"), val = tensor<int32, [2]>([1, 1])];
            tensor<int32, [2]> x_93_dilations_0 = const()[name = tensor<string, []>("x_93_dilations_0"), val = tensor<int32, [2]>([1, 1])];
            tensor<int32, []> x_93_groups_0 = const()[name = tensor<string, []>("x_93_groups_0"), val = tensor<int32, []>(1)];
            tensor<fp16, [64, 64, 3, 3]> model_depth_head_scratch_refinenet3_resConfUnit1_conv2_weight_to_fp16 = const()[name = tensor<string, []>("model_depth_head_scratch_refinenet3_resConfUnit1_conv2_weight_to_fp16"), val = tensor<fp16, [64, 64, 3, 3]>(BLOBFILE(path = tensor<string, []>("@model_path/weights/weight.bin"), offset = tensor<uint64, []>(48541760)))];
            tensor<fp16, [64]> model_depth_head_scratch_refinenet3_resConfUnit1_conv2_bias_to_fp16 = const()[name = tensor<string, []>("model_depth_head_scratch_refinenet3_resConfUnit1_conv2_bias_to_fp16"), val = tensor<fp16, [64]>(BLOBFILE(path = tensor<string, []>("@model_path/weights/weight.bin"), offset = tensor<uint64, []>(48615552)))];
            tensor<fp16, [1, 64, 37, 37]> x_93_cast_fp16 = conv(bias = model_depth_head_scratch_refinenet3_resConfUnit1_conv2_bias_to_fp16, dilations = x_93_dilations_0, groups = x_93_groups_0, pad = x_93_pad_0, pad_type = x_93_pad_type_0, strides = x_93_strides_0, weight = model_depth_head_scratch_refinenet3_resConfUnit1_conv2_weight_to_fp16, x = input_281_cast_fp16)[name = tensor<string, []>("x_93_cast_fp16")];
            tensor<fp16, [1, 64, 37, 37]> y_1_cast_fp16 = add(x = x_93_cast_fp16, y = layer_3_rn_cast_fp16)[name = tensor<string, []>("y_1_cast_fp16")];
            tensor<fp16, [1, 64, 37, 37]> input_283_cast_fp16 = add(x = x_95_cast_fp16, y = y_1_cast_fp16)[name = tensor<string, []>("input_283_cast_fp16")];
            tensor<fp16, [1, 64, 37, 37]> input_285_cast_fp16 = relu(x = input_283_cast_fp16)[name = tensor<string, []>("input_285_cast_fp16")];
            tensor<string, []> input_287_pad_type_0 = const()[name = tensor<string, []>("input_287_pad_type_0"), val = tensor<string, []>("custom")];
            tensor<int32, [4]> input_287_pad_0 = const()[name = tensor<string, []>("input_287_pad_0"), val = tensor<int32, [4]>([1, 1, 1, 1])];
            tensor<int32, [2]> input_287_strides_0 = const()[name = tensor<string, []>("input_287_strides_0"), val = tensor<int32, [2]>([1, 1])];
            tensor<int32, [2]> input_287_dilations_0 = const()[name = tensor<string, []>("input_287_dilations_0"), val = tensor<int32, [2]>([1, 1])];
            tensor<int32, []> input_287_groups_0 = const()[name = tensor<string, []>("input_287_groups_0"), val = tensor<int32, []>(1)];
            tensor<fp16, [64, 64, 3, 3]> model_depth_head_scratch_refinenet3_resConfUnit2_conv1_weight_to_fp16 = const()[name = tensor<string, []>("model_depth_head_scratch_refinenet3_resConfUnit2_conv1_weight_to_fp16"), val = tensor<fp16, [64, 64, 3, 3]>(BLOBFILE(path = tensor<string, []>("@model_path/weights/weight.bin"), offset = tensor<uint64, []>(48615744)))];
            tensor<fp16, [64]> model_depth_head_scratch_refinenet3_resConfUnit2_conv1_bias_to_fp16 = const()[name = tensor<string, []>("model_depth_head_scratch_refinenet3_resConfUnit2_conv1_bias_to_fp16"), val = tensor<fp16, [64]>(BLOBFILE(path = tensor<string, []>("@model_path/weights/weight.bin"), offset = tensor<uint64, []>(48689536)))];
            tensor<fp16, [1, 64, 37, 37]> input_287_cast_fp16 = conv(bias = model_depth_head_scratch_refinenet3_resConfUnit2_conv1_bias_to_fp16, dilations = input_287_dilations_0, groups = input_287_groups_0, pad = input_287_pad_0, pad_type = input_287_pad_type_0, strides = input_287_strides_0, weight = model_depth_head_scratch_refinenet3_resConfUnit2_conv1_weight_to_fp16, x = input_285_cast_fp16)[name = tensor<string, []>("input_287_cast_fp16")];
            tensor<fp16, [1, 64, 37, 37]> input_289_cast_fp16 = relu(x = input_287_cast_fp16)[name = tensor<string, []>("input_289_cast_fp16")];
            tensor<string, []> x_97_pad_type_0 = const()[name = tensor<string, []>("x_97_pad_type_0"), val = tensor<string, []>("custom")];
            tensor<int32, [4]> x_97_pad_0 = const()[name = tensor<string, []>("x_97_pad_0"), val = tensor<int32, [4]>([1, 1, 1, 1])];
            tensor<int32, [2]> x_97_strides_0 = const()[name = tensor<string, []>("x_97_strides_0"), val = tensor<int32, [2]>([1, 1])];
            tensor<int32, [2]> x_97_dilations_0 = const()[name = tensor<string, []>("x_97_dilations_0"), val = tensor<int32, [2]>([1, 1])];
            tensor<int32, []> x_97_groups_0 = const()[name = tensor<string, []>("x_97_groups_0"), val = tensor<int32, []>(1)];
            tensor<fp16, [64, 64, 3, 3]> model_depth_head_scratch_refinenet3_resConfUnit2_conv2_weight_to_fp16 = const()[name = tensor<string, []>("model_depth_head_scratch_refinenet3_resConfUnit2_conv2_weight_to_fp16"), val = tensor<fp16, [64, 64, 3, 3]>(BLOBFILE(path = tensor<string, []>("@model_path/weights/weight.bin"), offset = tensor<uint64, []>(48689728)))];
            tensor<fp16, [64]> model_depth_head_scratch_refinenet3_resConfUnit2_conv2_bias_to_fp16 = const()[name = tensor<string, []>("model_depth_head_scratch_refinenet3_resConfUnit2_conv2_bias_to_fp16"), val = tensor<fp16, [64]>(BLOBFILE(path = tensor<string, []>("@model_path/weights/weight.bin"), offset = tensor<uint64, []>(48763520)))];
            tensor<fp16, [1, 64, 37, 37]> x_97_cast_fp16 = conv(bias = model_depth_head_scratch_refinenet3_resConfUnit2_conv2_bias_to_fp16, dilations = x_97_dilations_0, groups = x_97_groups_0, pad = x_97_pad_0, pad_type = x_97_pad_type_0, strides = x_97_strides_0, weight = model_depth_head_scratch_refinenet3_resConfUnit2_conv2_weight_to_fp16, x = input_289_cast_fp16)[name = tensor<string, []>("x_97_cast_fp16")];
            tensor<fp16, [1, 64, 37, 37]> input_291_cast_fp16 = add(x = x_97_cast_fp16, y = input_283_cast_fp16)[name = tensor<string, []>("input_291_cast_fp16")];
            tensor<fp32, []> input_293_scale_factor_height_0 = const()[name = tensor<string, []>("input_293_scale_factor_height_0"), val = tensor<fp32, []>(0x1p+1)];
            tensor<fp32, []> input_293_scale_factor_width_0 = const()[name = tensor<string, []>("input_293_scale_factor_width_0"), val = tensor<fp32, []>(0x1p+1)];
            tensor<bool, []> input_293_align_corners_0 = const()[name = tensor<string, []>("input_293_align_corners_0"), val = tensor<bool, []>(true)];
            tensor<fp16, [1, 64, 74, 74]> input_293_cast_fp16 = upsample_bilinear(align_corners = input_293_align_corners_0, scale_factor_height = input_293_scale_factor_height_0, scale_factor_width = input_293_scale_factor_width_0, x = input_291_cast_fp16)[name = tensor<string, []>("input_293_cast_fp16")];
            tensor<string, []> x_101_pad_type_0 = const()[name = tensor<string, []>("x_101_pad_type_0"), val = tensor<string, []>("valid")];
            tensor<int32, [2]> x_101_strides_0 = const()[name = tensor<string, []>("x_101_strides_0"), val = tensor<int32, [2]>([1, 1])];
            tensor<int32, [4]> x_101_pad_0 = const()[name = tensor<string, []>("x_101_pad_0"), val = tensor<int32, [4]>([0, 0, 0, 0])];
            tensor<int32, [2]> x_101_dilations_0 = const()[name = tensor<string, []>("x_101_dilations_0"), val = tensor<int32, [2]>([1, 1])];
            tensor<int32, []> x_101_groups_0 = const()[name = tensor<string, []>("x_101_groups_0"), val = tensor<int32, []>(1)];
            tensor<fp16, [64, 64, 1, 1]> model_depth_head_scratch_refinenet3_out_conv_weight_to_fp16 = const()[name = tensor<string, []>("model_depth_head_scratch_refinenet3_out_conv_weight_to_fp16"), val = tensor<fp16, [64, 64, 1, 1]>(BLOBFILE(path = tensor<string, []>("@model_path/weights/weight.bin"), offset = tensor<uint64, []>(48763712)))];
            tensor<fp16, [64]> model_depth_head_scratch_refinenet3_out_conv_bias_to_fp16 = const()[name = tensor<string, []>("model_depth_head_scratch_refinenet3_out_conv_bias_to_fp16"), val = tensor<fp16, [64]>(BLOBFILE(path = tensor<string, []>("@model_path/weights/weight.bin"), offset = tensor<uint64, []>(48771968)))];
            tensor<fp16, [1, 64, 74, 74]> x_101_cast_fp16 = conv(bias = model_depth_head_scratch_refinenet3_out_conv_bias_to_fp16, dilations = x_101_dilations_0, groups = x_101_groups_0, pad = x_101_pad_0, pad_type = x_101_pad_type_0, strides = x_101_strides_0, weight = model_depth_head_scratch_refinenet3_out_conv_weight_to_fp16, x = input_293_cast_fp16)[name = tensor<string, []>("x_101_cast_fp16")];
            tensor<fp16, [1, 64, 74, 74]> input_295_cast_fp16 = relu(x = layer_2_rn_cast_fp16)[name = tensor<string, []>("input_295_cast_fp16")];
            tensor<string, []> input_297_pad_type_0 = const()[name = tensor<string, []>("input_297_pad_type_0"), val = tensor<string, []>("custom")];
            tensor<int32, [4]> input_297_pad_0 = const()[name = tensor<string, []>("input_297_pad_0"), val = tensor<int32, [4]>([1, 1, 1, 1])];
            tensor<int32, [2]> input_297_strides_0 = const()[name = tensor<string, []>("input_297_strides_0"), val = tensor<int32, [2]>([1, 1])];
            tensor<int32, [2]> input_297_dilations_0 = const()[name = tensor<string, []>("input_297_dilations_0"), val = tensor<int32, [2]>([1, 1])];
            tensor<int32, []> input_297_groups_0 = const()[name = tensor<string, []>("input_297_groups_0"), val = tensor<int32, []>(1)];
            tensor<fp16, [64, 64, 3, 3]> model_depth_head_scratch_refinenet2_resConfUnit1_conv1_weight_to_fp16 = const()[name = tensor<string, []>("model_depth_head_scratch_refinenet2_resConfUnit1_conv1_weight_to_fp16"), val = tensor<fp16, [64, 64, 3, 3]>(BLOBFILE(path = tensor<string, []>("@model_path/weights/weight.bin"), offset = tensor<uint64, []>(48772160)))];
            tensor<fp16, [64]> model_depth_head_scratch_refinenet2_resConfUnit1_conv1_bias_to_fp16 = const()[name = tensor<string, []>("model_depth_head_scratch_refinenet2_resConfUnit1_conv1_bias_to_fp16"), val = tensor<fp16, [64]>(BLOBFILE(path = tensor<string, []>("@model_path/weights/weight.bin"), offset = tensor<uint64, []>(48845952)))];
            tensor<fp16, [1, 64, 74, 74]> input_297_cast_fp16 = conv(bias = model_depth_head_scratch_refinenet2_resConfUnit1_conv1_bias_to_fp16, dilations = input_297_dilations_0, groups = input_297_groups_0, pad = input_297_pad_0, pad_type = input_297_pad_type_0, strides = input_297_strides_0, weight = model_depth_head_scratch_refinenet2_resConfUnit1_conv1_weight_to_fp16, x = input_295_cast_fp16)[name = tensor<string, []>("input_297_cast_fp16")];
            tensor<fp16, [1, 64, 74, 74]> input_299_cast_fp16 = relu(x = input_297_cast_fp16)[name = tensor<string, []>("input_299_cast_fp16")];
            tensor<string, []> x_99_pad_type_0 = const()[name = tensor<string, []>("x_99_pad_type_0"), val = tensor<string, []>("custom")];
            tensor<int32, [4]> x_99_pad_0 = const()[name = tensor<string, []>("x_99_pad_0"), val = tensor<int32, [4]>([1, 1, 1, 1])];
            tensor<int32, [2]> x_99_strides_0 = const()[name = tensor<string, []>("x_99_strides_0"), val = tensor<int32, [2]>([1, 1])];
            tensor<int32, [2]> x_99_dilations_0 = const()[name = tensor<string, []>("x_99_dilations_0"), val = tensor<int32, [2]>([1, 1])];
            tensor<int32, []> x_99_groups_0 = const()[name = tensor<string, []>("x_99_groups_0"), val = tensor<int32, []>(1)];
            tensor<fp16, [64, 64, 3, 3]> model_depth_head_scratch_refinenet2_resConfUnit1_conv2_weight_to_fp16 = const()[name = tensor<string, []>("model_depth_head_scratch_refinenet2_resConfUnit1_conv2_weight_to_fp16"), val = tensor<fp16, [64, 64, 3, 3]>(BLOBFILE(path = tensor<string, []>("@model_path/weights/weight.bin"), offset = tensor<uint64, []>(48846144)))];
            tensor<fp16, [64]> model_depth_head_scratch_refinenet2_resConfUnit1_conv2_bias_to_fp16 = const()[name = tensor<string, []>("model_depth_head_scratch_refinenet2_resConfUnit1_conv2_bias_to_fp16"), val = tensor<fp16, [64]>(BLOBFILE(path = tensor<string, []>("@model_path/weights/weight.bin"), offset = tensor<uint64, []>(48919936)))];
            tensor<fp16, [1, 64, 74, 74]> x_99_cast_fp16 = conv(bias = model_depth_head_scratch_refinenet2_resConfUnit1_conv2_bias_to_fp16, dilations = x_99_dilations_0, groups = x_99_groups_0, pad = x_99_pad_0, pad_type = x_99_pad_type_0, strides = x_99_strides_0, weight = model_depth_head_scratch_refinenet2_resConfUnit1_conv2_weight_to_fp16, x = input_299_cast_fp16)[name = tensor<string, []>("x_99_cast_fp16")];
            tensor<fp16, [1, 64, 74, 74]> y_3_cast_fp16 = add(x = x_99_cast_fp16, y = layer_2_rn_cast_fp16)[name = tensor<string, []>("y_3_cast_fp16")];
            tensor<fp16, [1, 64, 74, 74]> input_301_cast_fp16 = add(x = x_101_cast_fp16, y = y_3_cast_fp16)[name = tensor<string, []>("input_301_cast_fp16")];
            tensor<fp16, [1, 64, 74, 74]> input_303_cast_fp16 = relu(x = input_301_cast_fp16)[name = tensor<string, []>("input_303_cast_fp16")];
            tensor<string, []> input_305_pad_type_0 = const()[name = tensor<string, []>("input_305_pad_type_0"), val = tensor<string, []>("custom")];
            tensor<int32, [4]> input_305_pad_0 = const()[name = tensor<string, []>("input_305_pad_0"), val = tensor<int32, [4]>([1, 1, 1, 1])];
            tensor<int32, [2]> input_305_strides_0 = const()[name = tensor<string, []>("input_305_strides_0"), val = tensor<int32, [2]>([1, 1])];
            tensor<int32, [2]> input_305_dilations_0 = const()[name = tensor<string, []>("input_305_dilations_0"), val = tensor<int32, [2]>([1, 1])];
            tensor<int32, []> input_305_groups_0 = const()[name = tensor<string, []>("input_305_groups_0"), val = tensor<int32, []>(1)];
            tensor<fp16, [64, 64, 3, 3]> model_depth_head_scratch_refinenet2_resConfUnit2_conv1_weight_to_fp16 = const()[name = tensor<string, []>("model_depth_head_scratch_refinenet2_resConfUnit2_conv1_weight_to_fp16"), val = tensor<fp16, [64, 64, 3, 3]>(BLOBFILE(path = tensor<string, []>("@model_path/weights/weight.bin"), offset = tensor<uint64, []>(48920128)))];
            tensor<fp16, [64]> model_depth_head_scratch_refinenet2_resConfUnit2_conv1_bias_to_fp16 = const()[name = tensor<string, []>("model_depth_head_scratch_refinenet2_resConfUnit2_conv1_bias_to_fp16"), val = tensor<fp16, [64]>(BLOBFILE(path = tensor<string, []>("@model_path/weights/weight.bin"), offset = tensor<uint64, []>(48993920)))];
            tensor<fp16, [1, 64, 74, 74]> input_305_cast_fp16 = conv(bias = model_depth_head_scratch_refinenet2_resConfUnit2_conv1_bias_to_fp16, dilations = input_305_dilations_0, groups = input_305_groups_0, pad = input_305_pad_0, pad_type = input_305_pad_type_0, strides = input_305_strides_0, weight = model_depth_head_scratch_refinenet2_resConfUnit2_conv1_weight_to_fp16, x = input_303_cast_fp16)[name = tensor<string, []>("input_305_cast_fp16")];
            tensor<fp16, [1, 64, 74, 74]> input_307_cast_fp16 = relu(x = input_305_cast_fp16)[name = tensor<string, []>("input_307_cast_fp16")];
            tensor<string, []> x_103_pad_type_0 = const()[name = tensor<string, []>("x_103_pad_type_0"), val = tensor<string, []>("custom")];
            tensor<int32, [4]> x_103_pad_0 = const()[name = tensor<string, []>("x_103_pad_0"), val = tensor<int32, [4]>([1, 1, 1, 1])];
            tensor<int32, [2]> x_103_strides_0 = const()[name = tensor<string, []>("x_103_strides_0"), val = tensor<int32, [2]>([1, 1])];
            tensor<int32, [2]> x_103_dilations_0 = const()[name = tensor<string, []>("x_103_dilations_0"), val = tensor<int32, [2]>([1, 1])];
            tensor<int32, []> x_103_groups_0 = const()[name = tensor<string, []>("x_103_groups_0"), val = tensor<int32, []>(1)];
            tensor<fp16, [64, 64, 3, 3]> model_depth_head_scratch_refinenet2_resConfUnit2_conv2_weight_to_fp16 = const()[name = tensor<string, []>("model_depth_head_scratch_refinenet2_resConfUnit2_conv2_weight_to_fp16"), val = tensor<fp16, [64, 64, 3, 3]>(BLOBFILE(path = tensor<string, []>("@model_path/weights/weight.bin"), offset = tensor<uint64, []>(48994112)))];
            tensor<fp16, [64]> model_depth_head_scratch_refinenet2_resConfUnit2_conv2_bias_to_fp16 = const()[name = tensor<string, []>("model_depth_head_scratch_refinenet2_resConfUnit2_conv2_bias_to_fp16"), val = tensor<fp16, [64]>(BLOBFILE(path = tensor<string, []>("@model_path/weights/weight.bin"), offset = tensor<uint64, []>(49067904)))];
            tensor<fp16, [1, 64, 74, 74]> x_103_cast_fp16 = conv(bias = model_depth_head_scratch_refinenet2_resConfUnit2_conv2_bias_to_fp16, dilations = x_103_dilations_0, groups = x_103_groups_0, pad = x_103_pad_0, pad_type = x_103_pad_type_0, strides = x_103_strides_0, weight = model_depth_head_scratch_refinenet2_resConfUnit2_conv2_weight_to_fp16, x = input_307_cast_fp16)[name = tensor<string, []>("x_103_cast_fp16")];
            tensor<fp16, [1, 64, 74, 74]> input_309_cast_fp16 = add(x = x_103_cast_fp16, y = input_301_cast_fp16)[name = tensor<string, []>("input_309_cast_fp16")];
            tensor<fp32, []> input_311_scale_factor_height_0 = const()[name = tensor<string, []>("input_311_scale_factor_height_0"), val = tensor<fp32, []>(0x1p+1)];
            tensor<fp32, []> input_311_scale_factor_width_0 = const()[name = tensor<string, []>("input_311_scale_factor_width_0"), val = tensor<fp32, []>(0x1p+1)];
            tensor<bool, []> input_311_align_corners_0 = const()[name = tensor<string, []>("input_311_align_corners_0"), val = tensor<bool, []>(true)];
            tensor<fp16, [1, 64, 148, 148]> input_311_cast_fp16 = upsample_bilinear(align_corners = input_311_align_corners_0, scale_factor_height = input_311_scale_factor_height_0, scale_factor_width = input_311_scale_factor_width_0, x = input_309_cast_fp16)[name = tensor<string, []>("input_311_cast_fp16")];
            tensor<string, []> x_107_pad_type_0 = const()[name = tensor<string, []>("x_107_pad_type_0"), val = tensor<string, []>("valid")];
            tensor<int32, [2]> x_107_strides_0 = const()[name = tensor<string, []>("x_107_strides_0"), val = tensor<int32, [2]>([1, 1])];
            tensor<int32, [4]> x_107_pad_0 = const()[name = tensor<string, []>("x_107_pad_0"), val = tensor<int32, [4]>([0, 0, 0, 0])];
            tensor<int32, [2]> x_107_dilations_0 = const()[name = tensor<string, []>("x_107_dilations_0"), val = tensor<int32, [2]>([1, 1])];
            tensor<int32, []> x_107_groups_0 = const()[name = tensor<string, []>("x_107_groups_0"), val = tensor<int32, []>(1)];
            tensor<fp16, [64, 64, 1, 1]> model_depth_head_scratch_refinenet2_out_conv_weight_to_fp16 = const()[name = tensor<string, []>("model_depth_head_scratch_refinenet2_out_conv_weight_to_fp16"), val = tensor<fp16, [64, 64, 1, 1]>(BLOBFILE(path = tensor<string, []>("@model_path/weights/weight.bin"), offset = tensor<uint64, []>(49068096)))];
            tensor<fp16, [64]> model_depth_head_scratch_refinenet2_out_conv_bias_to_fp16 = const()[name = tensor<string, []>("model_depth_head_scratch_refinenet2_out_conv_bias_to_fp16"), val = tensor<fp16, [64]>(BLOBFILE(path = tensor<string, []>("@model_path/weights/weight.bin"), offset = tensor<uint64, []>(49076352)))];
            tensor<fp16, [1, 64, 148, 148]> x_107_cast_fp16 = conv(bias = model_depth_head_scratch_refinenet2_out_conv_bias_to_fp16, dilations = x_107_dilations_0, groups = x_107_groups_0, pad = x_107_pad_0, pad_type = x_107_pad_type_0, strides = x_107_strides_0, weight = model_depth_head_scratch_refinenet2_out_conv_weight_to_fp16, x = input_311_cast_fp16)[name = tensor<string, []>("x_107_cast_fp16")];
            tensor<fp16, [1, 64, 148, 148]> input_313_cast_fp16 = relu(x = layer_1_rn_cast_fp16)[name = tensor<string, []>("input_313_cast_fp16")];
            tensor<string, []> input_315_pad_type_0 = const()[name = tensor<string, []>("input_315_pad_type_0"), val = tensor<string, []>("custom")];
            tensor<int32, [4]> input_315_pad_0 = const()[name = tensor<string, []>("input_315_pad_0"), val = tensor<int32, [4]>([1, 1, 1, 1])];
            tensor<int32, [2]> input_315_strides_0 = const()[name = tensor<string, []>("input_315_strides_0"), val = tensor<int32, [2]>([1, 1])];
            tensor<int32, [2]> input_315_dilations_0 = const()[name = tensor<string, []>("input_315_dilations_0"), val = tensor<int32, [2]>([1, 1])];
            tensor<int32, []> input_315_groups_0 = const()[name = tensor<string, []>("input_315_groups_0"), val = tensor<int32, []>(1)];
            tensor<fp16, [64, 64, 3, 3]> model_depth_head_scratch_refinenet1_resConfUnit1_conv1_weight_to_fp16 = const()[name = tensor<string, []>("model_depth_head_scratch_refinenet1_resConfUnit1_conv1_weight_to_fp16"), val = tensor<fp16, [64, 64, 3, 3]>(BLOBFILE(path = tensor<string, []>("@model_path/weights/weight.bin"), offset = tensor<uint64, []>(49076544)))];
            tensor<fp16, [64]> model_depth_head_scratch_refinenet1_resConfUnit1_conv1_bias_to_fp16 = const()[name = tensor<string, []>("model_depth_head_scratch_refinenet1_resConfUnit1_conv1_bias_to_fp16"), val = tensor<fp16, [64]>(BLOBFILE(path = tensor<string, []>("@model_path/weights/weight.bin"), offset = tensor<uint64, []>(49150336)))];
            tensor<fp16, [1, 64, 148, 148]> input_315_cast_fp16 = conv(bias = model_depth_head_scratch_refinenet1_resConfUnit1_conv1_bias_to_fp16, dilations = input_315_dilations_0, groups = input_315_groups_0, pad = input_315_pad_0, pad_type = input_315_pad_type_0, strides = input_315_strides_0, weight = model_depth_head_scratch_refinenet1_resConfUnit1_conv1_weight_to_fp16, x = input_313_cast_fp16)[name = tensor<string, []>("input_315_cast_fp16")];
            tensor<fp16, [1, 64, 148, 148]> input_317_cast_fp16 = relu(x = input_315_cast_fp16)[name = tensor<string, []>("input_317_cast_fp16")];
            tensor<string, []> x_105_pad_type_0 = const()[name = tensor<string, []>("x_105_pad_type_0"), val = tensor<string, []>("custom")];
            tensor<int32, [4]> x_105_pad_0 = const()[name = tensor<string, []>("x_105_pad_0"), val = tensor<int32, [4]>([1, 1, 1, 1])];
            tensor<int32, [2]> x_105_strides_0 = const()[name = tensor<string, []>("x_105_strides_0"), val = tensor<int32, [2]>([1, 1])];
            tensor<int32, [2]> x_105_dilations_0 = const()[name = tensor<string, []>("x_105_dilations_0"), val = tensor<int32, [2]>([1, 1])];
            tensor<int32, []> x_105_groups_0 = const()[name = tensor<string, []>("x_105_groups_0"), val = tensor<int32, []>(1)];
            tensor<fp16, [64, 64, 3, 3]> model_depth_head_scratch_refinenet1_resConfUnit1_conv2_weight_to_fp16 = const()[name = tensor<string, []>("model_depth_head_scratch_refinenet1_resConfUnit1_conv2_weight_to_fp16"), val = tensor<fp16, [64, 64, 3, 3]>(BLOBFILE(path = tensor<string, []>("@model_path/weights/weight.bin"), offset = tensor<uint64, []>(49150528)))];
            tensor<fp16, [64]> model_depth_head_scratch_refinenet1_resConfUnit1_conv2_bias_to_fp16 = const()[name = tensor<string, []>("model_depth_head_scratch_refinenet1_resConfUnit1_conv2_bias_to_fp16"), val = tensor<fp16, [64]>(BLOBFILE(path = tensor<string, []>("@model_path/weights/weight.bin"), offset = tensor<uint64, []>(49224320)))];
            tensor<fp16, [1, 64, 148, 148]> x_105_cast_fp16 = conv(bias = model_depth_head_scratch_refinenet1_resConfUnit1_conv2_bias_to_fp16, dilations = x_105_dilations_0, groups = x_105_groups_0, pad = x_105_pad_0, pad_type = x_105_pad_type_0, strides = x_105_strides_0, weight = model_depth_head_scratch_refinenet1_resConfUnit1_conv2_weight_to_fp16, x = input_317_cast_fp16)[name = tensor<string, []>("x_105_cast_fp16")];
            tensor<fp16, [1, 64, 148, 148]> y_cast_fp16 = add(x = x_105_cast_fp16, y = layer_1_rn_cast_fp16)[name = tensor<string, []>("y_cast_fp16")];
            tensor<fp16, [1, 64, 148, 148]> input_319_cast_fp16 = add(x = x_107_cast_fp16, y = y_cast_fp16)[name = tensor<string, []>("input_319_cast_fp16")];
            tensor<fp16, [1, 64, 148, 148]> input_321_cast_fp16 = relu(x = input_319_cast_fp16)[name = tensor<string, []>("input_321_cast_fp16")];
            tensor<string, []> input_323_pad_type_0 = const()[name = tensor<string, []>("input_323_pad_type_0"), val = tensor<string, []>("custom")];
            tensor<int32, [4]> input_323_pad_0 = const()[name = tensor<string, []>("input_323_pad_0"), val = tensor<int32, [4]>([1, 1, 1, 1])];
            tensor<int32, [2]> input_323_strides_0 = const()[name = tensor<string, []>("input_323_strides_0"), val = tensor<int32, [2]>([1, 1])];
            tensor<int32, [2]> input_323_dilations_0 = const()[name = tensor<string, []>("input_323_dilations_0"), val = tensor<int32, [2]>([1, 1])];
            tensor<int32, []> input_323_groups_0 = const()[name = tensor<string, []>("input_323_groups_0"), val = tensor<int32, []>(1)];
            tensor<fp16, [64, 64, 3, 3]> model_depth_head_scratch_refinenet1_resConfUnit2_conv1_weight_to_fp16 = const()[name = tensor<string, []>("model_depth_head_scratch_refinenet1_resConfUnit2_conv1_weight_to_fp16"), val = tensor<fp16, [64, 64, 3, 3]>(BLOBFILE(path = tensor<string, []>("@model_path/weights/weight.bin"), offset = tensor<uint64, []>(49224512)))];
            tensor<fp16, [64]> model_depth_head_scratch_refinenet1_resConfUnit2_conv1_bias_to_fp16 = const()[name = tensor<string, []>("model_depth_head_scratch_refinenet1_resConfUnit2_conv1_bias_to_fp16"), val = tensor<fp16, [64]>(BLOBFILE(path = tensor<string, []>("@model_path/weights/weight.bin"), offset = tensor<uint64, []>(49298304)))];
            tensor<fp16, [1, 64, 148, 148]> input_323_cast_fp16 = conv(bias = model_depth_head_scratch_refinenet1_resConfUnit2_conv1_bias_to_fp16, dilations = input_323_dilations_0, groups = input_323_groups_0, pad = input_323_pad_0, pad_type = input_323_pad_type_0, strides = input_323_strides_0, weight = model_depth_head_scratch_refinenet1_resConfUnit2_conv1_weight_to_fp16, x = input_321_cast_fp16)[name = tensor<string, []>("input_323_cast_fp16")];
            tensor<fp16, [1, 64, 148, 148]> input_325_cast_fp16 = relu(x = input_323_cast_fp16)[name = tensor<string, []>("input_325_cast_fp16")];
            tensor<string, []> x_pad_type_0 = const()[name = tensor<string, []>("x_pad_type_0"), val = tensor<string, []>("custom")];
            tensor<int32, [4]> x_pad_0 = const()[name = tensor<string, []>("x_pad_0"), val = tensor<int32, [4]>([1, 1, 1, 1])];
            tensor<int32, [2]> x_strides_0 = const()[name = tensor<string, []>("x_strides_0"), val = tensor<int32, [2]>([1, 1])];
            tensor<int32, [2]> x_dilations_0 = const()[name = tensor<string, []>("x_dilations_0"), val = tensor<int32, [2]>([1, 1])];
            tensor<int32, []> x_groups_0 = const()[name = tensor<string, []>("x_groups_0"), val = tensor<int32, []>(1)];
            tensor<fp16, [64, 64, 3, 3]> model_depth_head_scratch_refinenet1_resConfUnit2_conv2_weight_to_fp16 = const()[name = tensor<string, []>("model_depth_head_scratch_refinenet1_resConfUnit2_conv2_weight_to_fp16"), val = tensor<fp16, [64, 64, 3, 3]>(BLOBFILE(path = tensor<string, []>("@model_path/weights/weight.bin"), offset = tensor<uint64, []>(49298496)))];
            tensor<fp16, [64]> model_depth_head_scratch_refinenet1_resConfUnit2_conv2_bias_to_fp16 = const()[name = tensor<string, []>("model_depth_head_scratch_refinenet1_resConfUnit2_conv2_bias_to_fp16"), val = tensor<fp16, [64]>(BLOBFILE(path = tensor<string, []>("@model_path/weights/weight.bin"), offset = tensor<uint64, []>(49372288)))];
            tensor<fp16, [1, 64, 148, 148]> x_cast_fp16 = conv(bias = model_depth_head_scratch_refinenet1_resConfUnit2_conv2_bias_to_fp16, dilations = x_dilations_0, groups = x_groups_0, pad = x_pad_0, pad_type = x_pad_type_0, strides = x_strides_0, weight = model_depth_head_scratch_refinenet1_resConfUnit2_conv2_weight_to_fp16, x = input_325_cast_fp16)[name = tensor<string, []>("x_cast_fp16")];
            tensor<fp16, [1, 64, 148, 148]> input_327_cast_fp16 = add(x = x_cast_fp16, y = input_319_cast_fp16)[name = tensor<string, []>("input_327_cast_fp16")];
            tensor<fp32, []> input_329_scale_factor_height_0 = const()[name = tensor<string, []>("input_329_scale_factor_height_0"), val = tensor<fp32, []>(0x1p+1)];
            tensor<fp32, []> input_329_scale_factor_width_0 = const()[name = tensor<string, []>("input_329_scale_factor_width_0"), val = tensor<fp32, []>(0x1p+1)];
            tensor<bool, []> input_329_align_corners_0 = const()[name = tensor<string, []>("input_329_align_corners_0"), val = tensor<bool, []>(true)];
            tensor<fp16, [1, 64, 296, 296]> input_329_cast_fp16 = upsample_bilinear(align_corners = input_329_align_corners_0, scale_factor_height = input_329_scale_factor_height_0, scale_factor_width = input_329_scale_factor_width_0, x = input_327_cast_fp16)[name = tensor<string, []>("input_329_cast_fp16")];
            tensor<string, []> input_331_pad_type_0 = const()[name = tensor<string, []>("input_331_pad_type_0"), val = tensor<string, []>("valid")];
            tensor<int32, [2]> input_331_strides_0 = const()[name = tensor<string, []>("input_331_strides_0"), val = tensor<int32, [2]>([1, 1])];
            tensor<int32, [4]> input_331_pad_0 = const()[name = tensor<string, []>("input_331_pad_0"), val = tensor<int32, [4]>([0, 0, 0, 0])];
            tensor<int32, [2]> input_331_dilations_0 = const()[name = tensor<string, []>("input_331_dilations_0"), val = tensor<int32, [2]>([1, 1])];
            tensor<int32, []> input_331_groups_0 = const()[name = tensor<string, []>("input_331_groups_0"), val = tensor<int32, []>(1)];
            tensor<fp16, [64, 64, 1, 1]> model_depth_head_scratch_refinenet1_out_conv_weight_to_fp16 = const()[name = tensor<string, []>("model_depth_head_scratch_refinenet1_out_conv_weight_to_fp16"), val = tensor<fp16, [64, 64, 1, 1]>(BLOBFILE(path = tensor<string, []>("@model_path/weights/weight.bin"), offset = tensor<uint64, []>(49372480)))];
            tensor<fp16, [64]> model_depth_head_scratch_refinenet1_out_conv_bias_to_fp16 = const()[name = tensor<string, []>("model_depth_head_scratch_refinenet1_out_conv_bias_to_fp16"), val = tensor<fp16, [64]>(BLOBFILE(path = tensor<string, []>("@model_path/weights/weight.bin"), offset = tensor<uint64, []>(49380736)))];
            tensor<fp16, [1, 64, 296, 296]> input_331_cast_fp16 = conv(bias = model_depth_head_scratch_refinenet1_out_conv_bias_to_fp16, dilations = input_331_dilations_0, groups = input_331_groups_0, pad = input_331_pad_0, pad_type = input_331_pad_type_0, strides = input_331_strides_0, weight = model_depth_head_scratch_refinenet1_out_conv_weight_to_fp16, x = input_329_cast_fp16)[name = tensor<string, []>("input_331_cast_fp16")];
            tensor<string, []> input_333_pad_type_0 = const()[name = tensor<string, []>("input_333_pad_type_0"), val = tensor<string, []>("custom")];
            tensor<int32, [4]> input_333_pad_0 = const()[name = tensor<string, []>("input_333_pad_0"), val = tensor<int32, [4]>([1, 1, 1, 1])];
            tensor<int32, [2]> input_333_strides_0 = const()[name = tensor<string, []>("input_333_strides_0"), val = tensor<int32, [2]>([1, 1])];
            tensor<int32, [2]> input_333_dilations_0 = const()[name = tensor<string, []>("input_333_dilations_0"), val = tensor<int32, [2]>([1, 1])];
            tensor<int32, []> input_333_groups_0 = const()[name = tensor<string, []>("input_333_groups_0"), val = tensor<int32, []>(1)];
            tensor<fp16, [32, 64, 3, 3]> model_depth_head_scratch_output_conv1_weight_to_fp16 = const()[name = tensor<string, []>("model_depth_head_scratch_output_conv1_weight_to_fp16"), val = tensor<fp16, [32, 64, 3, 3]>(BLOBFILE(path = tensor<string, []>("@model_path/weights/weight.bin"), offset = tensor<uint64, []>(49380928)))];
            tensor<fp16, [32]> model_depth_head_scratch_output_conv1_bias_to_fp16 = const()[name = tensor<string, []>("model_depth_head_scratch_output_conv1_bias_to_fp16"), val = tensor<fp16, [32]>(BLOBFILE(path = tensor<string, []>("@model_path/weights/weight.bin"), offset = tensor<uint64, []>(49417856)))];
            tensor<fp16, [1, 32, 296, 296]> input_333_cast_fp16 = conv(bias = model_depth_head_scratch_output_conv1_bias_to_fp16, dilations = input_333_dilations_0, groups = input_333_groups_0, pad = input_333_pad_0, pad_type = input_333_pad_type_0, strides = input_333_strides_0, weight = model_depth_head_scratch_output_conv1_weight_to_fp16, x = input_331_cast_fp16)[name = tensor<string, []>("input_333_cast_fp16")];
            tensor<fp32, []> input_335_scale_factor_height_0 = const()[name = tensor<string, []>("input_335_scale_factor_height_0"), val = tensor<fp32, []>(0x1.c00006p+0)];
            tensor<fp32, []> input_335_scale_factor_width_0 = const()[name = tensor<string, []>("input_335_scale_factor_width_0"), val = tensor<fp32, []>(0x1.c00006p+0)];
            tensor<bool, []> input_335_align_corners_0 = const()[name = tensor<string, []>("input_335_align_corners_0"), val = tensor<bool, []>(true)];
            tensor<fp16, [1, 32, 518, 518]> input_335_cast_fp16 = upsample_bilinear(align_corners = input_335_align_corners_0, scale_factor_height = input_335_scale_factor_height_0, scale_factor_width = input_335_scale_factor_width_0, x = input_333_cast_fp16)[name = tensor<string, []>("input_335_cast_fp16")];
            tensor<string, []> input_337_pad_type_0 = const()[name = tensor<string, []>("input_337_pad_type_0"), val = tensor<string, []>("custom")];
            tensor<int32, [4]> input_337_pad_0 = const()[name = tensor<string, []>("input_337_pad_0"), val = tensor<int32, [4]>([1, 1, 1, 1])];
            tensor<int32, [2]> input_337_strides_0 = const()[name = tensor<string, []>("input_337_strides_0"), val = tensor<int32, [2]>([1, 1])];
            tensor<int32, [2]> input_337_dilations_0 = const()[name = tensor<string, []>("input_337_dilations_0"), val = tensor<int32, [2]>([1, 1])];
            tensor<int32, []> input_337_groups_0 = const()[name = tensor<string, []>("input_337_groups_0"), val = tensor<int32, []>(1)];
            tensor<fp16, [32, 32, 3, 3]> model_depth_head_scratch_output_conv2_0_weight_to_fp16 = const()[name = tensor<string, []>("model_depth_head_scratch_output_conv2_0_weight_to_fp16"), val = tensor<fp16, [32, 32, 3, 3]>(BLOBFILE(path = tensor<string, []>("@model_path/weights/weight.bin"), offset = tensor<uint64, []>(49417984)))];
            tensor<fp16, [32]> model_depth_head_scratch_output_conv2_0_bias_to_fp16 = const()[name = tensor<string, []>("model_depth_head_scratch_output_conv2_0_bias_to_fp16"), val = tensor<fp16, [32]>(BLOBFILE(path = tensor<string, []>("@model_path/weights/weight.bin"), offset = tensor<uint64, []>(49436480)))];
            tensor<fp16, [1, 32, 518, 518]> input_337_cast_fp16 = conv(bias = model_depth_head_scratch_output_conv2_0_bias_to_fp16, dilations = input_337_dilations_0, groups = input_337_groups_0, pad = input_337_pad_0, pad_type = input_337_pad_type_0, strides = input_337_strides_0, weight = model_depth_head_scratch_output_conv2_0_weight_to_fp16, x = input_335_cast_fp16)[name = tensor<string, []>("input_337_cast_fp16")];
            tensor<fp16, [1, 32, 518, 518]> input_339_cast_fp16 = relu(x = input_337_cast_fp16)[name = tensor<string, []>("input_339_cast_fp16")];
            tensor<string, []> input_341_pad_type_0 = const()[name = tensor<string, []>("input_341_pad_type_0"), val = tensor<string, []>("valid")];
            tensor<int32, [2]> input_341_strides_0 = const()[name = tensor<string, []>("input_341_strides_0"), val = tensor<int32, [2]>([1, 1])];
            tensor<int32, [4]> input_341_pad_0 = const()[name = tensor<string, []>("input_341_pad_0"), val = tensor<int32, [4]>([0, 0, 0, 0])];
            tensor<int32, [2]> input_341_dilations_0 = const()[name = tensor<string, []>("input_341_dilations_0"), val = tensor<int32, [2]>([1, 1])];
            tensor<int32, []> input_341_groups_0 = const()[name = tensor<string, []>("input_341_groups_0"), val = tensor<int32, []>(1)];
            tensor<fp16, [1, 32, 1, 1]> model_depth_head_scratch_output_conv2_2_weight_to_fp16 = const()[name = tensor<string, []>("model_depth_head_scratch_output_conv2_2_weight_to_fp16"), val = tensor<fp16, [1, 32, 1, 1]>(BLOBFILE(path = tensor<string, []>("@model_path/weights/weight.bin"), offset = tensor<uint64, []>(49436608)))];
            tensor<fp16, [1]> model_depth_head_scratch_output_conv2_2_bias_to_fp16 = const()[name = tensor<string, []>("model_depth_head_scratch_output_conv2_2_bias_to_fp16"), val = tensor<fp16, [1]>([0x1.6b4p-4])];
            tensor<fp16, [1, 1, 518, 518]> input_341_cast_fp16 = conv(bias = model_depth_head_scratch_output_conv2_2_bias_to_fp16, dilations = input_341_dilations_0, groups = input_341_groups_0, pad = input_341_pad_0, pad_type = input_341_pad_type_0, strides = input_341_strides_0, weight = model_depth_head_scratch_output_conv2_2_weight_to_fp16, x = input_339_cast_fp16)[name = tensor<string, []>("input_341_cast_fp16")];
            tensor<fp16, [1, 1, 518, 518]> input_cast_fp16 = relu(x = input_341_cast_fp16)[name = tensor<string, []>("input_cast_fp16")];
            tensor<int32, [1]> var_1232_axes_0 = const()[name = tensor<string, []>("op_1232_axes_0"), val = tensor<int32, [1]>([1])];
            tensor<fp16, [1, 518, 518]> var_1232_cast_fp16 = squeeze(axes = var_1232_axes_0, x = input_cast_fp16)[name = tensor<string, []>("op_1232_cast_fp16")];
            tensor<string, []> var_1232_cast_fp16_to_fp32_dtype_0 = const()[name = tensor<string, []>("op_1232_cast_fp16_to_fp32_dtype_0"), val = tensor<string, []>("fp32")];
            tensor<fp32, [1, 518, 518]> depth = cast(dtype = var_1232_cast_fp16_to_fp32_dtype_0, x = var_1232_cast_fp16)[name = tensor<string, []>("cast_31")];
        } -> (depth);
}