program(1.0)
[buildInfo = dict<tensor<string, []>, tensor<string, []>>({{"coremlc-component-MIL", "3510.2.1"}, {"coremlc-version", "3500.32.1"}, {"coremltools-component-torch", "2.7.0"}, {"coremltools-source-dialect", "TorchScript"}, {"coremltools-version", "9.0"}})]
{
    func main<ios15>(tensor<fp32, [1, 3, 518, 518]> image) {
            tensor<fp32, []> image__scaled___y_0 = const()[name = tensor<string, []>("image__scaled___y_0"), val = tensor<fp32, []>(0x1.010102p-8)];
            tensor<fp32, [1, 3, 518, 518]> image__scaled__ = mul(x = image, y = image__scaled___y_0)[name = tensor<string, []>("image__scaled__")];
            tensor<fp32, [1, 3, 1, 1]> image__biased___y_0 = const()[name = tensor<string, []>("image__biased___y_0"), val = tensor<fp32, [1, 3, 1, 1]>([[[[-0x1.0f177ap+1]], [[-0x1.04924ap+1]], [[-0x1.cdf012p+0]]]])];
            tensor<fp32, [1, 3, 518, 518]> image__biased__ = add(x = image__scaled__, y = image__biased___y_0)[name = tensor<string, []>("image__biased__")];
            tensor<string, []> x_3_pad_type_0 = const()[name = tensor<string, []>("x_3_pad_type_0"), val = tensor<string, []>("valid")];
            tensor<int32, [2]> x_3_strides_0 = const()[name = tensor<string, []>("x_3_strides_0"), val = tensor<int32, [2]>([14, 14])];
            tensor<int32, [4]> x_3_pad_0 = const()[name = tensor<string, []>("x_3_pad_0"), val = tensor<int32, [4]>([0, 0, 0, 0])];
            tensor<int32, [2]> x_3_dilations_0 = const()[name = tensor<string, []>("x_3_dilations_0"), val = tensor<int32, [2]>([1, 1])];
            tensor<int32, []> x_3_groups_0 = const()[name = tensor<string, []>("x_3_groups_0"), val = tensor<int32, []>(1)];
            tensor<string, []> image_to_fp16_dtype_0 = const()[name = tensor<string, []>("image_to_fp16_dtype_0"), val = tensor<string, []>("fp16")];
            tensor<fp16, [384, 3, 14, 14]> pretrained_patch_embed_proj_weight_to_fp16 = const()[name = tensor<string, []>("pretrained_patch_embed_proj_weight_to_fp16"), val = tensor<fp16, [384, 3, 14, 14]>(BLOBFILE(path = tensor<string, []>("@model_path/weights/weight.bin"), offset = tensor<uint64, []>(64)))];
            tensor<fp16, [384]> pretrained_patch_embed_proj_bias_to_fp16 = const()[name = tensor<string, []>("pretrained_patch_embed_proj_bias_to_fp16"), val = tensor<fp16, [384]>(BLOBFILE(path = tensor<string, []>("@model_path/weights/weight.bin"), offset = tensor<uint64, []>(451712)))];
            tensor<fp16, [1, 3, 518, 518]> image_to_fp16 = cast(dtype = image_to_fp16_dtype_0, x = image__biased__)[name = tensor<string, []>("cast_30")];
            tensor<fp16, [1, 384, 37, 37]> x_3_cast_fp16 = conv(bias = pretrained_patch_embed_proj_bias_to_fp16, dilations = x_3_dilations_0, groups = x_3_groups_0, pad = x_3_pad_0, pad_type = x_3_pad_type_0, strides = x_3_strides_0, weight = pretrained_patch_embed_proj_weight_to_fp16, x = image_to_fp16)[name = tensor<string, []>("x_3_cast_fp16")];
            tensor<int32, [3]> concat_0 = const()[name = tensor<string, []>("concat_0"), val = tensor<int32, [3]>([1, 384, 1369])];
            tensor<fp16, [1, 384, 1369]> var_80_cast_fp16 = reshape(shape = concat_0, x = x_3_cast_fp16)[name = tensor<string, []>("op_80_cast_fp16")];
            tensor<int32, [3]> x_5_perm_0 = const()[name = tensor<string, []>("x_5_perm_0"), val = tensor<int32, [3]>([0, 2, 1])];
            tensor<int32, []> var_92 = const()[name = tensor<string, []>("op_92"), val = tensor<int32, []>(1)];
            tensor<bool, []> x_7_interleave_0 = const()[name = tensor<string, []>("x_7_interleave_0"), val = tensor<bool, []>(false)];
            tensor<fp16, [1, 1, 384]> pretrained_cls_token_to_fp16 = const()[name = tensor<string, []>("pretrained_cls_token_to_fp16"), val = tensor<fp16, [1, 1, 384]>(BLOBFILE(path = tensor<string, []>("@model_path/weights/weight.bin"), offset = tensor<uint64, []>(452544)))];
            tensor<fp16, [1, 1369, 384]> x_5_cast_fp16 = transpose(perm = x_5_perm_0, x = var_80_cast_fp16)[name = tensor<string, []>("transpose_28")];
            tensor<fp16, [1, 1370, 384]> x_7_cast_fp16 = concat(axis = var_92, interleave = x_7_interleave_0, values = (pretrained_cls_token_to_fp16, x_5_cast_fp16))[name = tensor<string, []>("x_7_cast_fp16")];
            tensor<fp16, [1, 1370, 384]> pretrained_pos_embed_to_fp16 = const()[name = tensor<string, []>("pretrained_pos_embed_to_fp16"), val = tensor<fp16, [1, 1370, 384]>(BLOBFILE(path = tensor<string, []>("@model_path/weights/weight.bin"), offset = tensor<uint64, []>(453376)))];
            tensor<fp16, [1, 1370, 384]> input_1_cast_fp16 = add(x = x_7_cast_fp16, y = pretrained_pos_embed_to_fp16)[name = tensor<string, []>("input_1_cast_fp16")];
            tensor<int32, []> var_105 = const()[name = tensor<string, []>("op_105"), val = tensor<int32, []>(-1)];
            tensor<int32, [1]> x_9_axes_0 = const()[name = tensor<string, []>("x_9_axes_0"), val = tensor<int32, [1]>([-1])];
            tensor<fp16, [384]> pretrained_blocks_0_norm1_weight_to_fp16 = const()[name = tensor<string, []>("pretrained_blocks_0_norm1_weight_to_fp16"), val = tensor<fp16, [384]>(BLOBFILE(path = tensor<string, []>("@model_path/weights/weight.bin"), offset = tensor<uint64, []>(1505600)))];
            tensor<fp16, [384]> pretrained_blocks_0_norm1_bias_to_fp16 = const()[name = tensor<string, []>("pretrained_blocks_0_norm1_bias_to_fp16"), val = tensor<fp16, [384]>(BLOBFILE(path = tensor<string, []>("@model_path/weights/weight.bin"), offset = tensor<uint64, []>(1506432)))];
            tensor<fp16, []> var_110_to_fp16 = const()[name = tensor<string, []>("op_110_to_fp16"), val = tensor<fp16, []>(0x1.1p-20)];
            tensor<fp16, [1, 1370, 384]> x_9_cast_fp16 = layer_norm(axes = x_9_axes_0, beta = pretrained_blocks_0_norm1_bias_to_fp16, epsilon = var_110_to_fp16, gamma = pretrained_blocks_0_norm1_weight_to_fp16, x = input_1_cast_fp16)[name = tensor<string, []>("x_9_cast_fp16")];
            tensor<fp16, [1152, 384]> pretrained_blocks_0_attn_qkv_weight_to_fp16 = const()[name = tensor<string, []>("pretrained_blocks_0_attn_qkv_weight_to_fp16"), val = tensor<fp16, [1152, 384]>(BLOBFILE(path = tensor<string, []>("@model_path/weights/weight.bin"), offset = tensor<uint64, []>(1507264)))];
            tensor<fp16, [1152]> pretrained_blocks_0_attn_qkv_bias_to_fp16 = const()[name = tensor<string, []>("pretrained_blocks_0_attn_qkv_bias_to_fp16"), val = tensor<fp16, [1152]>(BLOBFILE(path = tensor<string, []>("@model_path/weights/weight.bin"), offset = tensor<uint64, []>(2392064)))];
            tensor<fp16, [1, 1370, 1152]> linear_0_cast_fp16 = linear(bias = pretrained_blocks_0_attn_qkv_bias_to_fp16, weight = pretrained_blocks_0_attn_qkv_weight_to_fp16, x = x_9_cast_fp16)[name = tensor<string, []>("linear_0_cast_fp16")];
            tensor<int32, [5]> var_133 = const()[name = tensor<string, []>("op_133"), val = tensor<int32, [5]>([1, 1370, 3, 6, 64])];
            tensor<fp16, [1, 1370, 3, 6, 64]> var_134_cast_fp16 = reshape(shape = var_133, x = linear_0_cast_fp16)[name = tensor<string, []>("op_134_cast_fp16")];
            tensor<int32, [5]> var_135 = const()[name = tensor<string, []>("op_135"), val = tensor<int32, [5]>([2, 0, 3, 1, 4])];
            tensor<int32, [5]> var_137_begin_0 = const()[name = tensor<string, []>("op_137_begin_0"), val = tensor<int32, [5]>([0, 0, 0, 0, 0])];
            tensor<int32, [5]> var_137_end_0 = const()[name = tensor<string, []>("op_137_end_0"), val = tensor<int32, [5]>([1, 1, 6, 1370, 64])];
            tensor<bool, [5]> var_137_end_mask_0 = const()[name = tensor<string, []>("op_137_end_mask_0"), val = tensor<bool, [5]>([false, true, true, true, true])];
            tensor<bool, [5]> var_137_squeeze_mask_0 = const()[name = tensor<string, []>("op_137_squeeze_mask_0"), val = tensor<bool, [5]>([true, false, false, false, false])];
            tensor<fp16, [3, 1, 6, 1370, 64]> qkv_1_cast_fp16 = transpose(perm = var_135, x = var_134_cast_fp16)[name = tensor<string, []>("transpose_27")];
            tensor<fp16, [1, 6, 1370, 64]> var_137_cast_fp16 = slice_by_index(begin = var_137_begin_0, end = var_137_end_0, end_mask = var_137_end_mask_0, squeeze_mask = var_137_squeeze_mask_0, x = qkv_1_cast_fp16)[name = tensor<string, []>("op_137_cast_fp16")];
            tensor<fp16, []> var_138_to_fp16 = const()[name = tensor<string, []>("op_138_to_fp16"), val = tensor<fp16, []>(0x1p-3)];
            tensor<fp16, [1, 6, 1370, 64]> q_1_cast_fp16 = mul(x = var_137_cast_fp16, y = var_138_to_fp16)[name = tensor<string, []>("q_1_cast_fp16")];
            tensor<int32, [5]> k_1_begin_0 = const()[name = tensor<string, []>("k_1_begin_0"), val = tensor<int32, [5]>([1, 0, 0, 0, 0])];
            tensor<int32, [5]> k_1_end_0 = const()[name = tensor<string, []>("k_1_end_0"), val = tensor<int32, [5]>([2, 1, 6, 1370, 64])];
            tensor<bool, [5]> k_1_end_mask_0 = const()[name = tensor<string, []>("k_1_end_mask_0"), val = tensor<bool, [5]>([false, true, true, true, true])];
            tensor<bool, [5]> k_1_squeeze_mask_0 = const()[name = tensor<string, []>("k_1_squeeze_mask_0"), val = tensor<bool, [5]>([true, false, false, false, false])];
            tensor<fp16, [1, 6, 1370, 64]> k_1_cast_fp16 = slice_by_index(begin = k_1_begin_0, end = k_1_end_0, end_mask = k_1_end_mask_0, squeeze_mask = k_1_squeeze_mask_0, x = qkv_1_cast_fp16)[name = tensor<string, []>("k_1_cast_fp16")];
            tensor<int32, [5]> v_1_begin_0 = const()[name = tensor<string, []>("v_1_begin_0"), val = tensor<int32, [5]>([2, 0, 0, 0, 0])];
            tensor<int32, [5]> v_1_end_0 = const()[name = tensor<string, []>("v_1_end_0"), val = tensor<int32, [5]>([3, 1, 6, 1370, 64])];
            tensor<bool, [5]> v_1_end_mask_0 = const()[name = tensor<string, []>("v_1_end_mask_0"), val = tensor<bool, [5]>([false, true, true, true, true])];
            tensor<bool, [5]> v_1_squeeze_mask_0 = const()[name = tensor<string, []>("v_1_squeeze_mask_0"), val = tensor<bool, [5]>([true, false, false, false, false])];
            tensor<fp16, [1, 6, 1370, 64]> v_1_cast_fp16 = slice_by_index(begin = v_1_begin_0, end = v_1_end_0, end_mask = v_1_end_mask_0, squeeze_mask = v_1_squeeze_mask_0, x = qkv_1_cast_fp16)[name = tensor<string, []>("v_1_cast_fp16")];
            tensor<bool, []> attn_1_transpose_x_1 = const()[name = tensor<string, []>("attn_1_transpose_x_1"), val = tensor<bool, []>(false)];
            tensor<bool, []> attn_1_transpose_y_1 = const()[name = tensor<string, []>("attn_1_transpose_y_1"), val = tensor<bool, []>(true)];
            tensor<fp16, [1, 6, 1370, 1370]> attn_1_cast_fp16 = matmul(transpose_x = attn_1_transpose_x_1, transpose_y = attn_1_transpose_y_1, x = q_1_cast_fp16, y = k_1_cast_fp16)[name = tensor<string, []>("attn_1_cast_fp16")];
            tensor<fp16, [1, 6, 1370, 1370]> input_3_cast_fp16 = softmax(axis = var_105, x = attn_1_cast_fp16)[name = tensor<string, []>("input_3_cast_fp16")];
            tensor<bool, []> var_146_transpose_x_0 = const()[name = tensor<string, []>("op_146_transpose_x_0"), val = tensor<bool, []>(false)];
            tensor<bool, []> var_146_transpose_y_0 = const()[name = tensor<string, []>("op_146_transpose_y_0"), val = tensor<bool, []>(false)];
            tensor<fp16, [1, 6, 1370, 64]> var_146_cast_fp16 = matmul(transpose_x = var_146_transpose_x_0, transpose_y = var_146_transpose_y_0, x = input_3_cast_fp16, y = v_1_cast_fp16)[name = tensor<string, []>("op_146_cast_fp16")];
            tensor<int32, [4]> var_147_perm_0 = const()[name = tensor<string, []>("op_147_perm_0"), val = tensor<int32, [4]>([0, 2, 1, 3])];
            tensor<int32, [3]> var_148 = const()[name = tensor<string, []>("op_148"), val = tensor<int32, [3]>([1, 1370, 384])];
            tensor<fp16, [1, 1370, 6, 64]> var_147_cast_fp16 = transpose(perm = var_147_perm_0, x = var_146_cast_fp16)[name = tensor<string, []>("transpose_26")];
            tensor<fp16, [1, 1370, 384]> input_5_cast_fp16 = reshape(shape = var_148, x = var_147_cast_fp16)[name = tensor<string, []>("input_5_cast_fp16")];
            tensor<fp16, [384, 384]> pretrained_blocks_0_attn_proj_weight_to_fp16 = const()[name = tensor<string, []>("pretrained_blocks_0_attn_proj_weight_to_fp16"), val = tensor<fp16, [384, 384]>(BLOBFILE(path = tensor<string, []>("@model_path/weights/weight.bin"), offset = tensor<uint64, []>(2394432)))];
            tensor<fp16, [384]> pretrained_blocks_0_attn_proj_bias_to_fp16 = const()[name = tensor<string, []>("pretrained_blocks_0_attn_proj_bias_to_fp16"), val = tensor<fp16, [384]>(BLOBFILE(path = tensor<string, []>("@model_path/weights/weight.bin"), offset = tensor<uint64, []>(2689408)))];
            tensor<fp16, [1, 1370, 384]> linear_1_cast_fp16 = linear(bias = pretrained_blocks_0_attn_proj_bias_to_fp16, weight = pretrained_blocks_0_attn_proj_weight_to_fp16, x = input_5_cast_fp16)[name = tensor<string, []>("linear_1_cast_fp16")];
            tensor<fp16, [384]> pretrained_blocks_0_ls1_gamma_to_fp16 = const()[name = tensor<string, []>("pretrained_blocks_0_ls1_gamma_to_fp16"), val = tensor<fp16, [384]>(BLOBFILE(path = tensor<string, []>("@model_path/weights/weight.bin"), offset = tensor<uint64, []>(2690240)))];
            tensor<fp16, [1, 1370, 384]> var_155_cast_fp16 = mul(x = linear_1_cast_fp16, y = pretrained_blocks_0_ls1_gamma_to_fp16)[name = tensor<string, []>("op_155_cast_fp16")];
            tensor<fp16, [1, 1370, 384]> input_9_cast_fp16 = add(x = input_1_cast_fp16, y = var_155_cast_fp16)[name = tensor<string, []>("input_9_cast_fp16")];
            tensor<int32, [1]> input_11_axes_0 = const()[name = tensor<string, []>("input_11_axes_0"), val = tensor<int32, [1]>([-1])];
            tensor<fp16, [384]> pretrained_blocks_0_norm2_weight_to_fp16 = const()[name = tensor<string, []>("pretrained_blocks_0_norm2_weight_to_fp16"), val = tensor<fp16, [384]>(BLOBFILE(path = tensor<string, []>("@model_path/weights/weight.bin"), offset = tensor<uint64, []>(2691072)))];
            tensor<fp16, [384]> pretrained_blocks_0_norm2_bias_to_fp16 = const()[name = tensor<string, []>("pretrained_blocks_0_norm2_bias_to_fp16"), val = tensor<fp16, [384]>(BLOBFILE(path = tensor<string, []>("@model_path/weights/weight.bin"), offset = tensor<uint64, []>(2691904)))];
            tensor<fp16, [1, 1370, 384]> input_11_cast_fp16 = layer_norm(axes = input_11_axes_0, beta = pretrained_blocks_0_norm2_bias_to_fp16, epsilon = var_110_to_fp16, gamma = pretrained_blocks_0_norm2_weight_to_fp16, x = input_9_cast_fp16)[name = tensor<string, []>("input_11_cast_fp16")];
            tensor<fp16, [1536, 384]> pretrained_blocks_0_mlp_fc1_weight_to_fp16 = const()[name = tensor<string, []>("pretrained_blocks_0_mlp_fc1_weight_to_fp16"), val = tensor<fp16, [1536, 384]>(BLOBFILE(path = tensor<string, []>("@model_path/weights/weight.bin"), offset = tensor<uint64, []>(2692736)))];
            tensor<fp16, [1536]> pretrained_blocks_0_mlp_fc1_bias_to_fp16 = const()[name = tensor<string, []>("pretrained_blocks_0_mlp_fc1_bias_to_fp16"), val = tensor<fp16, [1536]>(BLOBFILE(path = tensor<string, []>("@model_path/weights/weight.bin"), offset = tensor<uint64, []>(3872448)))];
            tensor<fp16, [1, 1370, 1536]> linear_2_cast_fp16 = linear(bias = pretrained_blocks_0_mlp_fc1_bias_to_fp16, weight = pretrained_blocks_0_mlp_fc1_weight_to_fp16, x = input_11_cast_fp16)[name = tensor<string, []>("linear_2_cast_fp16")];
            tensor<string, []> input_15_mode_0 = const()[name = tensor<string, []>("input_15_mode_0"), val = tensor<string, []>("EXACT")];
            tensor<fp16, [1, 1370, 1536]> input_15_cast_fp16 = gelu(mode = input_15_mode_0, x = linear_2_cast_fp16)[name = tensor<string, []>("input_15_cast_fp16")];
            tensor<fp16, [384, 1536]> pretrained_blocks_0_mlp_fc2_weight_to_fp16 = const()[name = tensor<string, []>("pretrained_blocks_0_mlp_fc2_weight_to_fp16"), val = tensor<fp16, [384, 1536]>(BLOBFILE(path = tensor<string, []>("@model_path/weights/weight.bin"), offset = tensor<uint64, []>(3875584)))];
            tensor<fp16, [384]> pretrained_blocks_0_mlp_fc2_bias_to_fp16 = const()[name = tensor<string, []>("pretrained_blocks_0_mlp_fc2_bias_to_fp16"), val = tensor<fp16, [384]>(BLOBFILE(path = tensor<string, []>("@model_path/weights/weight.bin"), offset = tensor<uint64, []>(5055296)))];
            tensor<fp16, [1, 1370, 384]> linear_3_cast_fp16 = linear(bias = pretrained_blocks_0_mlp_fc2_bias_to_fp16, weight = pretrained_blocks_0_mlp_fc2_weight_to_fp16, x = input_15_cast_fp16)[name = tensor<string, []>("linear_3_cast_fp16")];
            tensor<fp16, [384]> pretrained_blocks_0_ls2_gamma_to_fp16 = const()[name = tensor<string, []>("pretrained_blocks_0_ls2_gamma_to_fp16"), val = tensor<fp16, [384]>(BLOBFILE(path = tensor<string, []>("@model_path/weights/weight.bin"), offset = tensor<uint64, []>(5056128)))];
            tensor<fp16, [1, 1370, 384]> var_173_cast_fp16 = mul(x = linear_3_cast_fp16, y = pretrained_blocks_0_ls2_gamma_to_fp16)[name = tensor<string, []>("op_173_cast_fp16")];
            tensor<fp16, [1, 1370, 384]> input_21_cast_fp16 = add(x = input_9_cast_fp16, y = var_173_cast_fp16)[name = tensor<string, []>("input_21_cast_fp16")];
            tensor<int32, []> var_184 = const()[name = tensor<string, []>("op_184"), val = tensor<int32, []>(-1)];
            tensor<int32, [1]> x_15_axes_0 = const()[name = tensor<string, []>("x_15_axes_0"), val = tensor<int32, [1]>([-1])];
            tensor<fp16, [384]> pretrained_blocks_1_norm1_weight_to_fp16 = const()[name = tensor<string, []>("pretrained_blocks_1_norm1_weight_to_fp16"), val = tensor<fp16, [384]>(BLOBFILE(path = tensor<string, []>("@model_path/weights/weight.bin"), offset = tensor<uint64, []>(5056960)))];
            tensor<fp16, [384]> pretrained_blocks_1_norm1_bias_to_fp16 = const()[name = tensor<string, []>("pretrained_blocks_1_norm1_bias_to_fp16"), val = tensor<fp16, [384]>(BLOBFILE(path = tensor<string, []>("@model_path/weights/weight.bin"), offset = tensor<uint64, []>(5057792)))];
            tensor<fp16, []> var_189_to_fp16 = const()[name = tensor<string, []>("op_189_to_fp16"), val = tensor<fp16, []>(0x1.1p-20)];
            tensor<fp16, [1, 1370, 384]> x_15_cast_fp16 = layer_norm(axes = x_15_axes_0, beta = pretrained_blocks_1_norm1_bias_to_fp16, epsilon = var_189_to_fp16, gamma = pretrained_blocks_1_norm1_weight_to_fp16, x = input_21_cast_fp16)[name = tensor<string, []>("x_15_cast_fp16")];
            tensor<fp16, [1152, 384]> pretrained_blocks_1_attn_qkv_weight_to_fp16 = const()[name = tensor<string, []>("pretrained_blocks_1_attn_qkv_weight_to_fp16"), val = tensor<fp16, [1152, 384]>(BLOBFILE(path = tensor<string, []>("@model_path/weights/weight.bin"), offset = tensor<uint64, []>(5058624)))];
            tensor<fp16, [1152]> pretrained_blocks_1_attn_qkv_bias_to_fp16 = const()[name = tensor<string, []>("pretrained_blocks_1_attn_qkv_bias_to_fp16"), val = tensor<fp16, [1152]>(BLOBFILE(path = tensor<string, []>("@model_path/weights/weight.bin"), offset = tensor<uint64, []>(5943424)))];
            tensor<fp16, [1, 1370, 1152]> linear_4_cast_fp16 = linear(bias = pretrained_blocks_1_attn_qkv_bias_to_fp16, weight = pretrained_blocks_1_attn_qkv_weight_to_fp16, x = x_15_cast_fp16)[name = tensor<string, []>("linear_4_cast_fp16")];
            tensor<int32, [5]> var_212 = const()[name = tensor<string, []>("op_212"), val = tensor<int32, [5]>([1, 1370, 3, 6, 64])];
            tensor<fp16, [1, 1370, 3, 6, 64]> var_213_cast_fp16 = reshape(shape = var_212, x = linear_4_cast_fp16)[name = tensor<string, []>("op_213_cast_fp16")];
            tensor<int32, [5]> var_214 = const()[name = tensor<string, []>("op_214"), val = tensor<int32, [5]>([2, 0, 3, 1, 4])];
            tensor<int32, [5]> var_216_begin_0 = const()[name = tensor<string, []>("op_216_begin_0"), val = tensor<int32, [5]>([0, 0, 0, 0, 0])];
            tensor<int32, [5]> var_216_end_0 = const()[name = tensor<string, []>("op_216_end_0"), val = tensor<int32, [5]>([1, 1, 6, 1370, 64])];
            tensor<bool, [5]> var_216_end_mask_0 = const()[name = tensor<string, []>("op_216_end_mask_0"), val = tensor<bool, [5]>([false, true, true, true, true])];
            tensor<bool, [5]> var_216_squeeze_mask_0 = const()[name = tensor<string, []>("op_216_squeeze_mask_0"), val = tensor<bool, [5]>([true, false, false, false, false])];
            tensor<fp16, [3, 1, 6, 1370, 64]> qkv_3_cast_fp16 = transpose(perm = var_214, x = var_213_cast_fp16)[name = tensor<string, []>("transpose_25")];
            tensor<fp16, [1, 6, 1370, 64]> var_216_cast_fp16 = slice_by_index(begin = var_216_begin_0, end = var_216_end_0, end_mask = var_216_end_mask_0, squeeze_mask = var_216_squeeze_mask_0, x = qkv_3_cast_fp16)[name = tensor<string, []>("op_216_cast_fp16")];
            tensor<fp16, []> var_217_to_fp16 = const()[name = tensor<string, []>("op_217_to_fp16"), val = tensor<fp16, []>(0x1p-3)];
            tensor<fp16, [1, 6, 1370, 64]> q_3_cast_fp16 = mul(x = var_216_cast_fp16, y = var_217_to_fp16)[name = tensor<string, []>("q_3_cast_fp16")];
            tensor<int32, [5]> k_3_begin_0 = const()[name = tensor<string, []>("k_3_begin_0"), val = tensor<int32, [5]>([1, 0, 0, 0, 0])];
            tensor<int32, [5]> k_3_end_0 = const()[name = tensor<string, []>("k_3_end_0"), val = tensor<int32, [5]>([2, 1, 6, 1370, 64])];
            tensor<bool, [5]> k_3_end_mask_0 = const()[name = tensor<string, []>("k_3_end_mask_0"), val = tensor<bool, [5]>([false, true, true, true, true])];
            tensor<bool, [5]> k_3_squeeze_mask_0 = const()[name = tensor<string, []>("k_3_squeeze_mask_0"), val = tensor<bool, [5]>([true, false, false, false, false])];
            tensor<fp16, [1, 6, 1370, 64]> k_3_cast_fp16 = slice_by_index(begin = k_3_begin_0, end = k_3_end_0, end_mask = k_3_end_mask_0, squeeze_mask = k_3_squeeze_mask_0, x = qkv_3_cast_fp16)[name = tensor<string, []>("k_3_cast_fp16")];
            tensor<int32, [5]> v_3_begin_0 = const()[name = tensor<string, []>("v_3_begin_0"), val = tensor<int32, [5]>([2, 0, 0, 0, 0])];
            tensor<int32, [5]> v_3_end_0 = const()[name = tensor<string, []>("v_3_end_0"), val = tensor<int32, [5]>([3, 1, 6, 1370, 64])];
            tensor<bool, [5]> v_3_end_mask_0 = const()[name = tensor<string, []>("v_3_end_mask_0"), val = tensor<bool, [5]>([false, true, true, true, true])];
            tensor<bool, [5]> v_3_squeeze_mask_0 = const()[name = tensor<string, []>("v_3_squeeze_mask_0"), val = tensor<bool, [5]>([true, false, false, false, false])];
            tensor<fp16, [1, 6, 1370, 64]> v_3_cast_fp16 = slice_by_index(begin = v_3_begin_0, end = v_3_end_0, end_mask = v_3_end_mask_0, squeeze_mask = v_3_squeeze_mask_0, x = qkv_3_cast_fp16)[name = tensor<string, []>("v_3_cast_fp16")];
            tensor<bool, []> attn_5_transpose_x_1 = const()[name = tensor<string, []>("attn_5_transpose_x_1"), val = tensor<bool, []>(false)];
            tensor<bool, []> attn_5_transpose_y_1 = const()[name = tensor<string, []>("attn_5_transpose_y_1"), val = tensor<bool, []>(true)];
            tensor<fp16, [1, 6, 1370, 1370]> attn_5_cast_fp16 = matmul(transpose_x = attn_5_transpose_x_1, transpose_y = attn_5_transpose_y_1, x = q_3_cast_fp16, y = k_3_cast_fp16)[name = tensor<string, []>("attn_5_cast_fp16")];
            tensor<fp16, [1, 6, 1370, 1370]> input_23_cast_fp16 = softmax(axis = var_184, x = attn_5_cast_fp16)[name = tensor<string, []>("input_23_cast_fp16")];
            tensor<bool, []> var_225_transpose_x_0 = const()[name = tensor<string, []>("op_225_transpose_x_0"), val = tensor<bool, []>(false)];
            tensor<bool, []> var_225_transpose_y_0 = const()[name = tensor<string, []>("op_225_transpose_y_0"), val = tensor<bool, []>(false)];
            tensor<fp16, [1, 6, 1370, 64]> var_225_cast_fp16 = matmul(transpose_x = var_225_transpose_x_0, transpose_y = var_225_transpose_y_0, x = input_23_cast_fp16, y = v_3_cast_fp16)[name = tensor<string, []>("op_225_cast_fp16")];
            tensor<int32, [4]> var_226_perm_0 = const()[name = tensor<string, []>("op_226_perm_0"), val = tensor<int32, [4]>([0, 2, 1, 3])];
            tensor<int32, [3]> var_227 = const()[name = tensor<string, []>("op_227"), val = tensor<int32, [3]>([1, 1370, 384])];
            tensor<fp16, [1, 1370, 6, 64]> var_226_cast_fp16 = transpose(perm = var_226_perm_0, x = var_225_cast_fp16)[name = tensor<string, []>("transpose_24")];
            tensor<fp16, [1, 1370, 384]> input_25_cast_fp16 = reshape(shape = var_227, x = var_226_cast_fp16)[name = tensor<string, []>("input_25_cast_fp16")];
            tensor<fp16, [384, 384]> pretrained_blocks_1_attn_proj_weight_to_fp16 = const()[name = tensor<string, []>("pretrained_blocks_1_attn_proj_weight_to_fp16"), val = tensor<fp16, [384, 384]>(BLOBFILE(path = tensor<string, []>("@model_path/weights/weight.bin"), offset = tensor<uint64, []>(5945792)))];
            tensor<fp16, [384]> pretrained_blocks_1_attn_proj_bias_to_fp16 = const()[name = tensor<string, []>("pretrained_blocks_1_attn_proj_bias_to_fp16"), val = tensor<fp16, [384]>(BLOBFILE(path = tensor<string, []>("@model_path/weights/weight.bin"), offset = tensor<uint64, []>(6240768)))];
            tensor<fp16, [1, 1370, 384]> linear_5_cast_fp16 = linear(bias = pretrained_blocks_1_attn_proj_bias_to_fp16, weight = pretrained_blocks_1_attn_proj_weight_to_fp16, x = input_25_cast_fp16)[name = tensor<string, []>("linear_5_cast_fp16")];
            tensor<fp16, [384]> pretrained_blocks_1_ls1_gamma_to_fp16 = const()[name = tensor<string, []>("pretrained_blocks_1_ls1_gamma_to_fp16"), val = tensor<fp16, [384]>(BLOBFILE(path = tensor<string, []>("@model_path/weights/weight.bin"), offset = tensor<uint64, []>(6241600)))];
            tensor<fp16, [1, 1370, 384]> var_234_cast_fp16 = mul(x = linear_5_cast_fp16, y = pretrained_blocks_1_ls1_gamma_to_fp16)[name = tensor<string, []>("op_234_cast_fp16")];
            tensor<fp16, [1, 1370, 384]> input_29_cast_fp16 = add(x = input_21_cast_fp16, y = var_234_cast_fp16)[name = tensor<string, []>("input_29_cast_fp16")];
            tensor<int32, [1]> input_31_axes_0 = const()[name = tensor<string, []>("input_31_axes_0"), val = tensor<int32, [1]>([-1])];
            tensor<fp16, [384]> pretrained_blocks_1_norm2_weight_to_fp16 = const()[name = tensor<string, []>("pretrained_blocks_1_norm2_weight_to_fp16"), val = tensor<fp16, [384]>(BLOBFILE(path = tensor<string, []>("@model_path/weights/weight.bin"), offset = tensor<uint64, []>(6242432)))];
            tensor<fp16, [384]> pretrained_blocks_1_norm2_bias_to_fp16 = const()[name = tensor<string, []>("pretrained_blocks_1_norm2_bias_to_fp16"), val = tensor<fp16, [384]>(BLOBFILE(path = tensor<string, []>("@model_path/weights/weight.bin"), offset = tensor<uint64, []>(6243264)))];
            tensor<fp16, [1, 1370, 384]> input_31_cast_fp16 = layer_norm(axes = input_31_axes_0, beta = pretrained_blocks_1_norm2_bias_to_fp16, epsilon = var_189_to_fp16, gamma = pretrained_blocks_1_norm2_weight_to_fp16, x = input_29_cast_fp16)[name = tensor<string, []>("input_31_cast_fp16")];
            tensor<fp16, [1536, 384]> pretrained_blocks_1_mlp_fc1_weight_to_fp16 = const()[name = tensor<string, []>("pretrained_blocks_1_mlp_fc1_weight_to_fp16"), val = tensor<fp16, [1536, 384]>(BLOBFILE(path = tensor<string, []>("@model_path/weights/weight.bin"), offset = tensor<uint64, []>(6244096)))];
            tensor<fp16, [1536]> pretrained_blocks_1_mlp_fc1_bias_to_fp16 = const()[name = tensor<string, []>("pretrained_blocks_1_mlp_fc1_bias_to_fp16"), val = tensor<fp16, [1536]>(BLOBFILE(path = tensor<string, []>("@model_path/weights/weight.bin"), offset = tensor<uint64, []>(7423808)))];
            tensor<fp16, [1, 1370, 1536]> linear_6_cast_fp16 = linear(bias = pretrained_blocks_1_mlp_fc1_bias_to_fp16, weight = pretrained_blocks_1_mlp_fc1_weight_to_fp16, x = input_31_cast_fp16)[name = tensor<string, []>("linear_6_cast_fp16")];
            tensor<string, []> input_35_mode_0 = const()[name = tensor<string, []>("input_35_mode_0"), val = tensor<string, []>("EXACT")];
            tensor<fp16, [1, 1370, 1536]> input_35_cast_fp16 = gelu(mode = input_35_mode_0, x = linear_6_cast_fp16)[name = tensor<string, []>("input_35_cast_fp16")];
            tensor<fp16, [384, 1536]> pretrained_blocks_1_mlp_fc2_weight_to_fp16 = const()[name = tensor<string, []>("pretrained_blocks_1_mlp_fc2_weight_to_fp16"), val = tensor<fp16, [384, 1536]>(BLOBFILE(path = tensor<string, []>("@model_path/weights/weight.bin"), offset = tensor<uint64, []>(7426944)))];
            tensor<fp16, [384]> pretrained_blocks_1_mlp_fc2_bias_to_fp16 = const()[name = tensor<string, []>("pretrained_blocks_1_mlp_fc2_bias_to_fp16"), val = tensor<fp16, [384]>(BLOBFILE(path = tensor<string, []>("@model_path/weights/weight.bin"), offset = tensor<uint64, []>(8606656)))];
            tensor<fp16, [1, 1370, 384]> linear_7_cast_fp16 = linear(bias = pretrained_blocks_1_mlp_fc2_bias_to_fp16, weight = pretrained_blocks_1_mlp_fc2_weight_to_fp16, x = input_35_cast_fp16)[name = tensor<string, []>("linear_7_cast_fp16")];
            tensor<fp16, [384]> pretrained_blocks_1_ls2_gamma_to_fp16 = const()[name = tensor<string, []>("pretrained_blocks_1_ls2_gamma_to_fp16"), val = tensor<fp16, [384]>(BLOBFILE(path = tensor<string, []>("@model_path/weights/weight.bin"), offset = tensor<uint64, []>(8607488)))];
            tensor<fp16, [1, 1370, 384]> var_252_cast_fp16 = mul(x = linear_7_cast_fp16, y = pretrained_blocks_1_ls2_gamma_to_fp16)[name = tensor<string, []>("op_252_cast_fp16")];
            tensor<fp16, [1, 1370, 384]> input_41_cast_fp16 = add(x = input_29_cast_fp16, y = var_252_cast_fp16)[name = tensor<string, []>("input_41_cast_fp16")];
            tensor<int32, []> var_263 = const()[name = tensor<string, []>("op_263"), val = tensor<int32, []>(-1)];
            tensor<int32, [1]> x_21_axes_0 = const()[name = tensor<string, []>("x_21_axes_0"), val = tensor<int32, [1]>([-1])];
            tensor<fp16, [384]> pretrained_blocks_2_norm1_weight_to_fp16 = const()[name = tensor<string, []>("pretrained_blocks_2_norm1_weight_to_fp16"), val = tensor<fp16, [384]>(BLOBFILE(path = tensor<string, []>("@model_path/weights/weight.bin"), offset = tensor<uint64, []>(8608320)))];
            tensor<fp16, [384]> pretrained_blocks_2_norm1_bias_to_fp16 = const()[name = tensor<string, []>("pretrained_blocks_2_norm1_bias_to_fp16"), val = tensor<fp16, [384]>(BLOBFILE(path = tensor<string, []>("@model_path/weights/weight.bin"), offset = tensor<uint64, []>(8609152)))];
            tensor<fp16, []> var_268_to_fp16 = const()[name = tensor<string, []>("op_268_to_fp16"), val = tensor<fp16, []>(0x1.1p-20)];
            tensor<fp16, [1, 1370, 384]> x_21_cast_fp16 = layer_norm(axes = x_21_axes_0, beta = pretrained_blocks_2_norm1_bias_to_fp16, epsilon = var_268_to_fp16, gamma = pretrained_blocks_2_norm1_weight_to_fp16, x = input_41_cast_fp16)[name = tensor<string, []>("x_21_cast_fp16")];
            tensor<fp16, [1152, 384]> pretrained_blocks_2_attn_qkv_weight_to_fp16 = const()[name = tensor<string, []>("pretrained_blocks_2_attn_qkv_weight_to_fp16"), val = tensor<fp16, [1152, 384]>(BLOBFILE(path = tensor<string, []>("@model_path/weights/weight.bin"), offset = tensor<uint64, []>(8609984)))];
            tensor<fp16, [1152]> pretrained_blocks_2_attn_qkv_bias_to_fp16 = const()[name = tensor<string, []>("pretrained_blocks_2_attn_qkv_bias_to_fp16"), val = tensor<fp16, [1152]>(BLOBFILE(path = tensor<string, []>("@model_path/weights/weight.bin"), offset = tensor<uint64, []>(9494784)))];
            tensor<fp16, [1, 1370, 1152]> linear_8_cast_fp16 = linear(bias = pretrained_blocks_2_attn_qkv_bias_to_fp16, weight = pretrained_blocks_2_attn_qkv_weight_to_fp16, x = x_21_cast_fp16)[name = tensor<string, []>("linear_8_cast_fp16")];
            tensor<int32, [5]> var_291 = const()[name = tensor<string, []>("op_291"), val = tensor<int32, [5]>([1, 1370, 3, 6, 64])];
            tensor<fp16, [1, 1370, 3, 6, 64]> var_292_cast_fp16 = reshape(shape = var_291, x = linear_8_cast_fp16)[name = tensor<string, []>("op_292_cast_fp16")];
            tensor<int32, [5]> var_293 = const()[name = tensor<string, []>("op_293"), val = tensor<int32, [5]>([2, 0, 3, 1, 4])];
            tensor<int32, [5]> var_295_begin_0 = const()[name = tensor<string, []>("op_295_begin_0"), val = tensor<int32, [5]>([0, 0, 0, 0, 0])];
            tensor<int32, [5]> var_295_end_0 = const()[name = tensor<string, []>("op_295_end_0"), val = tensor<int32, [5]>([1, 1, 6, 1370, 64])];
            tensor<bool, [5]> var_295_end_mask_0 = const()[name = tensor<string, []>("op_295_end_mask_0"), val = tensor<bool, [5]>([false, true, true, true, true])];
            tensor<bool, [5]> var_295_squeeze_mask_0 = const()[name = tensor<string, []>("op_295_squeeze_mask_0"), val = tensor<bool, [5]>([true, false, false, false, false])];
            tensor<fp16, [3, 1, 6, 1370, 64]> qkv_5_cast_fp16 = transpose(perm = var_293, x = var_292_cast_fp16)[name = tensor<string, []>("transpose_23")];
            tensor<fp16, [1, 6, 1370, 64]> var_295_cast_fp16 = slice_by_index(begin = var_295_begin_0, end = var_295_end_0, end_mask = var_295_end_mask_0, squeeze_mask = var_295_squeeze_mask_0, x = qkv_5_cast_fp16)[name = tensor<string, []>("op_295_cast_fp16")];
            tensor<fp16, []> var_296_to_fp16 = const()[name = tensor<string, []>("op_296_to_fp16"), val = tensor<fp16, []>(0x1p-3)];
            tensor<fp16, [1, 6, 1370, 64]> q_5_cast_fp16 = mul(x = var_295_cast_fp16, y = var_296_to_fp16)[name = tensor<string, []>("q_5_cast_fp16")];
            tensor<int32, [5]> k_5_begin_0 = const()[name = tensor<string, []>("k_5_begin_0"), val = tensor<int32, [5]>([1, 0, 0, 0, 0])];
            tensor<int32, [5]> k_5_end_0 = const()[name = tensor<string, []>("k_5_end_0"), val = tensor<int32, [5]>([2, 1, 6, 1370, 64])];
            tensor<bool, [5]> k_5_end_mask_0 = const()[name = tensor<string, []>("k_5_end_mask_0"), val = tensor<bool, [5]>([false, true, true, true, true])];
            tensor<bool, [5]> k_5_squeeze_mask_0 = const()[name = tensor<string, []>("k_5_squeeze_mask_0"), val = tensor<bool, [5]>([true, false, false, false, false])];
            tensor<fp16, [1, 6, 1370, 64]> k_5_cast_fp16 = slice_by_index(begin = k_5_begin_0, end = k_5_end_0, end_mask = k_5_end_mask_0, squeeze_mask = k_5_squeeze_mask_0, x = qkv_5_cast_fp16)[name = tensor<string, []>("k_5_cast_fp16")];
            tensor<int32, [5]> v_5_begin_0 = const()[name = tensor<string, []>("v_5_begin_0"), val = tensor<int32, [5]>([2, 0, 0, 0, 0])];
            tensor<int32, [5]> v_5_end_0 = const()[name = tensor<string, []>("v_5_end_0"), val = tensor<int32, [5]>([3, 1, 6, 1370, 64])];
            tensor<bool, [5]> v_5_end_mask_0 = const()[name = tensor<string, []>("v_5_end_mask_0"), val = tensor<bool, [5]>([false, true, true, true, true])];
            tensor<bool, [5]> v_5_squeeze_mask_0 = const()[name = tensor<string, []>("v_5_squeeze_mask_0"), val = tensor<bool, [5]>([true, false, false, false, false])];
            tensor<fp16, [1, 6, 1370, 64]> v_5_cast_fp16 = slice_by_index(begin = v_5_begin_0, end = v_5_end_0, end_mask = v_5_end_mask_0, squeeze_mask = v_5_squeeze_mask_0, x = qkv_5_cast_fp16)[name = tensor<string, []>("v_5_cast_fp16")];
            tensor<bool, []> attn_9_transpose_x_1 = const()[name = tensor<string, []>("attn_9_transpose_x_1"), val = tensor<bool, []>(false)];
            tensor<bool, []> attn_9_transpose_y_1 = const()[name = tensor<string, []>("attn_9_transpose_y_1"), val = tensor<bool, []>(true)];
            tensor<fp16, [1, 6, 1370, 1370]> attn_9_cast_fp16 = matmul(transpose_x = attn_9_transpose_x_1, transpose_y = attn_9_transpose_y_1, x = q_5_cast_fp16, y = k_5_cast_fp16)[name = tensor<string, []>("attn_9_cast_fp16")];
            tensor<fp16, [1, 6, 1370, 1370]> input_43_cast_fp16 = softmax(axis = var_263, x = attn_9_cast_fp16)[name = tensor<string, []>("input_43_cast_fp16")];
            tensor<bool, []> var_304_transpose_x_0 = const()[name = tensor<string, []>("op_304_transpose_x_0"), val = tensor<bool, []>(false)];
            tensor<bool, []> var_304_transpose_y_0 = const()[name = tensor<string, []>("op_304_transpose_y_0"), val = tensor<bool, []>(false)];
            tensor<fp16, [1, 6, 1370, 64]> var_304_cast_fp16 = matmul(transpose_x = var_304_transpose_x_0, transpose_y = var_304_transpose_y_0, x = input_43_cast_fp16, y = v_5_cast_fp16)[name = tensor<string, []>("op_304_cast_fp16")];
            tensor<int32, [4]> var_305_perm_0 = const()[name = tensor<string, []>("op_305_perm_0"), val = tensor<int32, [4]>([0, 2, 1, 3])];
            tensor<int32, [3]> var_306 = const()[name = tensor<string, []>("op_306"), val = tensor<int32, [3]>([1, 1370, 384])];
            tensor<fp16, [1, 1370, 6, 64]> var_305_cast_fp16 = transpose(perm = var_305_perm_0, x = var_304_cast_fp16)[name = tensor<string, []>("transpose_22")];
            tensor<fp16, [1, 1370, 384]> input_45_cast_fp16 = reshape(shape = var_306, x = var_305_cast_fp16)[name = tensor<string, []>("input_45_cast_fp16")];
            tensor<fp16, [384, 384]> pretrained_blocks_2_attn_proj_weight_to_fp16 = const()[name = tensor<string, []>("pretrained_blocks_2_attn_proj_weight_to_fp16"), val = tensor<fp16, [384, 384]>(BLOBFILE(path = tensor<string, []>("@model_path/weights/weight.bin"), offset = tensor<uint64, []>(9497152)))];
            tensor<fp16, [384]> pretrained_blocks_2_attn_proj_bias_to_fp16 = const()[name = tensor<string, []>("pretrained_blocks_2_attn_proj_bias_to_fp16"), val = tensor<fp16, [384]>(BLOBFILE(path = tensor<string, []>("@model_path/weights/weight.bin"), offset = tensor<uint64, []>(9792128)))];
            tensor<fp16, [1, 1370, 384]> linear_9_cast_fp16 = linear(bias = pretrained_blocks_2_attn_proj_bias_to_fp16, weight = pretrained_blocks_2_attn_proj_weight_to_fp16, x = input_45_cast_fp16)[name = tensor<string, []>("linear_9_cast_fp16")];
            tensor<fp16, [384]> pretrained_blocks_2_ls1_gamma_to_fp16 = const()[name = tensor<string, []>("pretrained_blocks_2_ls1_gamma_to_fp16"), val = tensor<fp16, [384]>(BLOBFILE(path = tensor<string, []>("@model_path/weights/weight.bin"), offset = tensor<uint64, []>(9792960)))];
            tensor<fp16, [1, 1370, 384]> var_313_cast_fp16 = mul(x = linear_9_cast_fp16, y = pretrained_blocks_2_ls1_gamma_to_fp16)[name = tensor<string, []>("op_313_cast_fp16")];
            tensor<fp16, [1, 1370, 384]> input_49_cast_fp16 = add(x = input_41_cast_fp16, y = var_313_cast_fp16)[name = tensor<string, []>("input_49_cast_fp16")];
            tensor<int32, [1]> input_51_axes_0 = const()[name = tensor<string, []>("input_51_axes_0"), val = tensor<int32, [1]>([-1])];
            tensor<fp16, [384]> pretrained_blocks_2_norm2_weight_to_fp16 = const()[name = tensor<string, []>("pretrained_blocks_2_norm2_weight_to_fp16"), val = tensor<fp16, [384]>(BLOBFILE(path = tensor<string, []>("@model_path/weights/weight.bin"), offset = tensor<uint64, []>(9793792)))];
            tensor<fp16, [384]> pretrained_blocks_2_norm2_bias_to_fp16 = const()[name = tensor<string, []>("pretrained_blocks_2_norm2_bias_to_fp16"), val = tensor<fp16, [384]>(BLOBFILE(path = tensor<string, []>("@model_path/weights/weight.bin"), offset = tensor<uint64, []>(9794624)))];
            tensor<fp16, [1, 1370, 384]> input_51_cast_fp16 = layer_norm(axes = input_51_axes_0, beta = pretrained_blocks_2_norm2_bias_to_fp16, epsilon = var_268_to_fp16, gamma = pretrained_blocks_2_norm2_weight_to_fp16, x = input_49_cast_fp16)[name = tensor<string, []>("input_51_cast_fp16")];
            tensor<fp16, [1536, 384]> pretrained_blocks_2_mlp_fc1_weight_to_fp16 = const()[name = tensor<string, []>("pretrained_blocks_2_mlp_fc1_weight_to_fp16"), val = tensor<fp16, [1536, 384]>(BLOBFILE(path = tensor<string, []>("@model_path/weights/weight.bin"), offset = tensor<uint64, []>(9795456)))];
            tensor<fp16, [1536]> pretrained_blocks_2_mlp_fc1_bias_to_fp16 = const()[name = tensor<string, []>("pretrained_blocks_2_mlp_fc1_bias_to_fp16"), val = tensor<fp16, [1536]>(BLOBFILE(path = tensor<string, []>("@model_path/weights/weight.bin"), offset = tensor<uint64, []>(10975168)))];
            tensor<fp16, [1, 1370, 1536]> linear_10_cast_fp16 = linear(bias = pretrained_blocks_2_mlp_fc1_bias_to_fp16, weight = pretrained_blocks_2_mlp_fc1_weight_to_fp16, x = input_51_cast_fp16)[name = tensor<string, []>("linear_10_cast_fp16")];
            tensor<string, []> input_55_mode_0 = const()[name = tensor<string, []>("input_55_mode_0"), val = tensor<string, []>("EXACT")];
            tensor<fp16, [1, 1370, 1536]> input_55_cast_fp16 = gelu(mode = input_55_mode_0, x = linear_10_cast_fp16)[name = tensor<string, []>("input_55_cast_fp16")];
            tensor<fp16, [384, 1536]> pretrained_blocks_2_mlp_fc2_weight_to_fp16 = const()[name = tensor<string, []>("pretrained_blocks_2_mlp_fc2_weight_to_fp16"), val = tensor<fp16, [384, 1536]>(BLOBFILE(path = tensor<string, []>("@model_path/weights/weight.bin"), offset = tensor<uint64, []>(10978304)))];
            tensor<fp16, [384]> pretrained_blocks_2_mlp_fc2_bias_to_fp16 = const()[name = tensor<string, []>("pretrained_blocks_2_mlp_fc2_bias_to_fp16"), val = tensor<fp16, [384]>(BLOBFILE(path = tensor<string, []>("@model_path/weights/weight.bin"), offset = tensor<uint64, []>(12158016)))];
            tensor<fp16, [1, 1370, 384]> linear_11_cast_fp16 = linear(bias = pretrained_blocks_2_mlp_fc2_bias_to_fp16, weight = pretrained_blocks_2_mlp_fc2_weight_to_fp16, x = input_55_cast_fp16)[name = tensor<string, []>("linear_11_cast_fp16")];
            tensor<fp16, [384]> pretrained_blocks_2_ls2_gamma_to_fp16 = const()[name = tensor<string, []>("pretrained_blocks_2_ls2_gamma_to_fp16"), val = tensor<fp16, [384]>(BLOBFILE(path = tensor<string, []>("@model_path/weights/weight.bin"), offset = tensor<uint64, []>(12158848)))];
            tensor<fp16, [1, 1370, 384]> var_331_cast_fp16 = mul(x = linear_11_cast_fp16, y = pretrained_blocks_2_ls2_gamma_to_fp16)[name = tensor<string, []>("op_331_cast_fp16")];
            tensor<fp16, [1, 1370, 384]> input_61_cast_fp16 = add(x = input_49_cast_fp16, y = var_331_cast_fp16)[name = tensor<string, []>("input_61_cast_fp16")];
            tensor<int32, []> var_342 = const()[name = tensor<string, []>("op_342"), val = tensor<int32, []>(-1)];
            tensor<int32, [1]> x_27_axes_0 = const()[name = tensor<string, []>("x_27_axes_0"), val = tensor<int32, [1]>([-1])];
            tensor<fp16, [384]> pretrained_blocks_3_norm1_weight_to_fp16 = const()[name = tensor<string, []>("pretrained_blocks_3_norm1_weight_to_fp16"), val = tensor<fp16, [384]>(BLOBFILE(path = tensor<string, []>("@model_path/weights/weight.bin"), offset = tensor<uint64, []>(12159680)))];
            tensor<fp16, [384]> pretrained_blocks_3_norm1_bias_to_fp16 = const()[name = tensor<string, []>("pretrained_blocks_3_norm1_bias_to_fp16"), val = tensor<fp16, [384]>(BLOBFILE(path = tensor<string, []>("@model_path/weights/weight.bin"), offset = tensor<uint64, []>(12160512)))];
            tensor<fp16, []> var_347_to_fp16 = const()[name = tensor<string, []>("op_347_to_fp16"), val = tensor<fp16, []>(0x1.1p-20)];
            tensor<fp16, [1, 1370, 384]> x_27_cast_fp16 = layer_norm(axes = x_27_axes_0, beta = pretrained_blocks_3_norm1_bias_to_fp16, epsilon = var_347_to_fp16, gamma = pretrained_blocks_3_norm1_weight_to_fp16, x = input_61_cast_fp16)[name = tensor<string, []>("x_27_cast_fp16")];
            tensor<fp16, [1152, 384]> pretrained_blocks_3_attn_qkv_weight_to_fp16 = const()[name = tensor<string, []>("pretrained_blocks_3_attn_qkv_weight_to_fp16"), val = tensor<fp16, [1152, 384]>(BLOBFILE(path = tensor<string, []>("@model_path/weights/weight.bin"), offset = tensor<uint64, []>(12161344)))];
            tensor<fp16, [1152]> pretrained_blocks_3_attn_qkv_bias_to_fp16 = const()[name = tensor<string, []>("pretrained_blocks_3_attn_qkv_bias_to_fp16"), val = tensor<fp16, [1152]>(BLOBFILE(path = tensor<string, []>("@model_path/weights/weight.bin"), offset = tensor<uint64, []>(13046144)))];
            tensor<fp16, [1, 1370, 1152]> linear_12_cast_fp16 = linear(bias = pretrained_blocks_3_attn_qkv_bias_to_fp16, weight = pretrained_blocks_3_attn_qkv_weight_to_fp16, x = x_27_cast_fp16)[name = tensor<string, []>("linear_12_cast_fp16")];
            tensor<int32, [5]> var_370 = const()[name = tensor<string, []>("op_370"), val = tensor<int32, [5]>([1, 1370, 3, 6, 64])];
            tensor<fp16, [1, 1370, 3, 6, 64]> var_371_cast_fp16 = reshape(shape = var_370, x = linear_12_cast_fp16)[name = tensor<string, []>("op_371_cast_fp16")];
            tensor<int32, [5]> var_372 = const()[name = tensor<string, []>("op_372"), val = tensor<int32, [5]>([2, 0, 3, 1, 4])];
            tensor<int32, [5]> var_374_begin_0 = const()[name = tensor<string, []>("op_374_begin_0"), val = tensor<int32, [5]>([0, 0, 0, 0, 0])];
            tensor<int32, [5]> var_374_end_0 = const()[name = tensor<string, []>("op_374_end_0"), val = tensor<int32, [5]>([1, 1, 6, 1370, 64])];
            tensor<bool, [5]> var_374_end_mask_0 = const()[name = tensor<string, []>("op_374_end_mask_0"), val = tensor<bool, [5]>([false, true, true, true, true])];
            tensor<bool, [5]> var_374_squeeze_mask_0 = const()[name = tensor<string, []>("op_374_squeeze_mask_0"), val = tensor<bool, [5]>([true, false, false, false, false])];
            tensor<fp16, [3, 1, 6, 1370, 64]> qkv_7_cast_fp16 = transpose(perm = var_372, x = var_371_cast_fp16)[name = tensor<string, []>("transpose_21")];
            tensor<fp16, [1, 6, 1370, 64]> var_374_cast_fp16 = slice_by_index(begin = var_374_begin_0, end = var_374_end_0, end_mask = var_374_end_mask_0, squeeze_mask = var_374_squeeze_mask_0, x = qkv_7_cast_fp16)[name = tensor<string, []>("op_374_cast_fp16")];
            tensor<fp16, []> var_375_to_fp16 = const()[name = tensor<string, []>("op_375_to_fp16"), val = tensor<fp16, []>(0x1p-3)];
            tensor<fp16, [1, 6, 1370, 64]> q_7_cast_fp16 = mul(x = var_374_cast_fp16, y = var_375_to_fp16)[name = tensor<string, []>("q_7_cast_fp16")];
            tensor<int32, [5]> k_7_begin_0 = const()[name = tensor<string, []>("k_7_begin_0"), val = tensor<int32, [5]>([1, 0, 0, 0, 0])];
            tensor<int32, [5]> k_7_end_0 = const()[name = tensor<string, []>("k_7_end_0"), val = tensor<int32, [5]>([2, 1, 6, 1370, 64])];
            tensor<bool, [5]> k_7_end_mask_0 = const()[name = tensor<string, []>("k_7_end_mask_0"), val = tensor<bool, [5]>([false, true, true, true, true])];
            tensor<bool, [5]> k_7_squeeze_mask_0 = const()[name = tensor<string, []>("k_7_squeeze_mask_0"), val = tensor<bool, [5]>([true, false, false, false, false])];
            tensor<fp16, [1, 6, 1370, 64]> k_7_cast_fp16 = slice_by_index(begin = k_7_begin_0, end = k_7_end_0, end_mask = k_7_end_mask_0, squeeze_mask = k_7_squeeze_mask_0, x = qkv_7_cast_fp16)[name = tensor<string, []>("k_7_cast_fp16")];
            tensor<int32, [5]> v_7_begin_0 = const()[name = tensor<string, []>("v_7_begin_0"), val = tensor<int32, [5]>([2, 0, 0, 0, 0])];
            tensor<int32, [5]> v_7_end_0 = const()[name = tensor<string, []>("v_7_end_0"), val = tensor<int32, [5]>([3, 1, 6, 1370, 64])];
            tensor<bool, [5]> v_7_end_mask_0 = const()[name = tensor<string, []>("v_7_end_mask_0"), val = tensor<bool, [5]>([false, true, true, true, true])];
            tensor<bool, [5]> v_7_squeeze_mask_0 = const()[name = tensor<string, []>("v_7_squeeze_mask_0"), val = tensor<bool, [5]>([true, false, false, false, false])];
            tensor<fp16, [1, 6, 1370, 64]> v_7_cast_fp16 = slice_by_index(begin = v_7_begin_0, end = v_7_end_0, end_mask = v_7_end_mask_0, squeeze_mask = v_7_squeeze_mask_0, x = qkv_7_cast_fp16)[name = tensor<string, []>("v_7_cast_fp16")];
            tensor<bool, []> attn_13_transpose_x_1 = const()[name = tensor<string, []>("attn_13_transpose_x_1"), val = tensor<bool, []>(false)];
            tensor<bool, []> attn_13_transpose_y_1 = const()[name = tensor<string, []>("attn_13_transpose_y_1"), val = tensor<bool, []>(true)];
            tensor<fp16, [1, 6, 1370, 1370]> attn_13_cast_fp16 = matmul(transpose_x = attn_13_transpose_x_1, transpose_y = attn_13_transpose_y_1, x = q_7_cast_fp16, y = k_7_cast_fp16)[name = tensor<string, []>("attn_13_cast_fp16")];
            tensor<fp16, [1, 6, 1370, 1370]> input_63_cast_fp16 = softmax(axis = var_342, x = attn_13_cast_fp16)[name = tensor<string, []>("input_63_cast_fp16")];
            tensor<bool, []> var_383_transpose_x_0 = const()[name = tensor<string, []>("op_383_transpose_x_0"), val = tensor<bool, []>(false)];
            tensor<bool, []> var_383_transpose_y_0 = const()[name = tensor<string, []>("op_383_transpose_y_0"), val = tensor<bool, []>(false)];
            tensor<fp16, [1, 6, 1370, 64]> var_383_cast_fp16 = matmul(transpose_x = var_383_transpose_x_0, transpose_y = var_383_transpose_y_0, x = input_63_cast_fp16, y = v_7_cast_fp16)[name = tensor<string, []>("op_383_cast_fp16")];
            tensor<int32, [4]> var_384_perm_0 = const()[name = tensor<string, []>("op_384_perm_0"), val = tensor<int32, [4]>([0, 2, 1, 3])];
            tensor<int32, [3]> var_385 = const()[name = tensor<string, []>("op_385"), val = tensor<int32, [3]>([1, 1370, 384])];
            tensor<fp16, [1, 1370, 6, 64]> var_384_cast_fp16 = transpose(perm = var_384_perm_0, x = var_383_cast_fp16)[name = tensor<string, []>("transpose_20")];
            tensor<fp16, [1, 1370, 384]> input_65_cast_fp16 = reshape(shape = var_385, x = var_384_cast_fp16)[name = tensor<string, []>("input_65_cast_fp16")];
            tensor<fp16, [384, 384]> pretrained_blocks_3_attn_proj_weight_to_fp16 = const()[name = tensor<string, []>("pretrained_blocks_3_attn_proj_weight_to_fp16"), val = tensor<fp16, [384, 384]>(BLOBFILE(path = tensor<string, []>("@model_path/weights/weight.bin"), offset = tensor<uint64, []>(13048512)))];
            tensor<fp16, [384]> pretrained_blocks_3_attn_proj_bias_to_fp16 = const()[name = tensor<string, []>("pretrained_blocks_3_attn_proj_bias_to_fp16"), val = tensor<fp16, [384]>(BLOBFILE(path = tensor<string, []>("@model_path/weights/weight.bin"), offset = tensor<uint64, []>(13343488)))];
            tensor<fp16, [1, 1370, 384]> linear_13_cast_fp16 = linear(bias = pretrained_blocks_3_attn_proj_bias_to_fp16, weight = pretrained_blocks_3_attn_proj_weight_to_fp16, x = input_65_cast_fp16)[name = tensor<string, []>("linear_13_cast_fp16")];
            tensor<fp16, [384]> pretrained_blocks_3_ls1_gamma_to_fp16 = const()[name = tensor<string, []>("pretrained_blocks_3_ls1_gamma_to_fp16"), val = tensor<fp16, [384]>(BLOBFILE(path = tensor<string, []>("@model_path/weights/weight.bin"), offset = tensor<uint64, []>(13344320)))];
            tensor<fp16, [1, 1370, 384]> var_392_cast_fp16 = mul(x = linear_13_cast_fp16, y = pretrained_blocks_3_ls1_gamma_to_fp16)[name = tensor<string, []>("op_392_cast_fp16")];
            tensor<fp16, [1, 1370, 384]> input_69_cast_fp16 = add(x = input_61_cast_fp16, y = var_392_cast_fp16)[name = tensor<string, []>("input_69_cast_fp16")];
            tensor<int32, [1]> input_71_axes_0 = const()[name = tensor<string, []>("input_71_axes_0"), val = tensor<int32, [1]>([-1])];
            tensor<fp16, [384]> pretrained_blocks_3_norm2_weight_to_fp16 = const()[name = tensor<string, []>("pretrained_blocks_3_norm2_weight_to_fp16"), val = tensor<fp16, [384]>(BLOBFILE(path = tensor<string, []>("@model_path/weights/weight.bin"), offset = tensor<uint64, []>(13345152)))];
            tensor<fp16, [384]> pretrained_blocks_3_norm2_bias_to_fp16 = const()[name = tensor<string, []>("pretrained_blocks_3_norm2_bias_to_fp16"), val = tensor<fp16, [384]>(BLOBFILE(path = tensor<string, []>("@model_path/weights/weight.bin"), offset = tensor<uint64, []>(13345984)))];
            tensor<fp16, [1, 1370, 384]> input_71_cast_fp16 = layer_norm(axes = input_71_axes_0, beta = pretrained_blocks_3_norm2_bias_to_fp16, epsilon = var_347_to_fp16, gamma = pretrained_blocks_3_norm2_weight_to_fp16, x = input_69_cast_fp16)[name = tensor<string, []>("input_71_cast_fp16")];
            tensor<fp16, [1536, 384]> pretrained_blocks_3_mlp_fc1_weight_to_fp16 = const()[name = tensor<string, []>("pretrained_blocks_3_mlp_fc1_weight_to_fp16"), val = tensor<fp16, [1536, 384]>(BLOBFILE(path = tensor<string, []>("@model_path/weights/weight.bin"), offset = tensor<uint64, []>(13346816)))];
            tensor<fp16, [1536]> pretrained_blocks_3_mlp_fc1_bias_to_fp16 = const()[name = tensor<string, []>("pretrained_blocks_3_mlp_fc1_bias_to_fp16"), val = tensor<fp16, [1536]>(BLOBFILE(path = tensor<string, []>("@model_path/weights/weight.bin"), offset = tensor<uint64, []>(14526528)))];
            tensor<fp16, [1, 1370, 1536]> linear_14_cast_fp16 = linear(bias = pretrained_blocks_3_mlp_fc1_bias_to_fp16, weight = pretrained_blocks_3_mlp_fc1_weight_to_fp16, x = input_71_cast_fp16)[name = tensor<string, []>("linear_14_cast_fp16")];
            tensor<string, []> input_75_mode_0 = const()[name = tensor<string, []>("input_75_mode_0"), val = tensor<string, []>("EXACT")];
            tensor<fp16, [1, 1370, 1536]> input_75_cast_fp16 = gelu(mode = input_75_mode_0, x = linear_14_cast_fp16)[name = tensor<string, []>("input_75_cast_fp16")];
            tensor<fp16, [384, 1536]> pretrained_blocks_3_mlp_fc2_weight_to_fp16 = const()[name = tensor<string, []>("pretrained_blocks_3_mlp_fc2_weight_to_fp16"), val = tensor<fp16, [384, 1536]>(BLOBFILE(path = tensor<string, []>("@model_path/weights/weight.bin"), offset = tensor<uint64, []>(14529664)))];
            tensor<fp16, [384]> pretrained_blocks_3_mlp_fc2_bias_to_fp16 = const()[name = tensor<string, []>("pretrained_blocks_3_mlp_fc2_bias_to_fp16"), val = tensor<fp16, [384]>(BLOBFILE(path = tensor<string, []>("@model_path/weights/weight.bin"), offset = tensor<uint64, []>(15709376)))];
            tensor<fp16, [1, 1370, 384]> linear_15_cast_fp16 = linear(bias = pretrained_blocks_3_mlp_fc2_bias_to_fp16, weight = pretrained_blocks_3_mlp_fc2_weight_to_fp16, x = input_75_cast_fp16)[name = tensor<string, []>("linear_15_cast_fp16")];
            tensor<fp16, [384]> pretrained_blocks_3_ls2_gamma_to_fp16 = const()[name = tensor<string, []>("pretrained_blocks_3_ls2_gamma_to_fp16"), val = tensor<fp16, [384]>(BLOBFILE(path = tensor<string, []>("@model_path/weights/weight.bin"), offset = tensor<uint64, []>(15710208)))];
            tensor<fp16, [1, 1370, 384]> var_410_cast_fp16 = mul(x = linear_15_cast_fp16, y = pretrained_blocks_3_ls2_gamma_to_fp16)[name = tensor<string, []>("op_410_cast_fp16")];
            tensor<fp16, [1, 1370, 384]> input_81_cast_fp16 = add(x = input_69_cast_fp16, y = var_410_cast_fp16)[name = tensor<string, []>("input_81_cast_fp16")];
            tensor<int32, []> var_421 = const()[name = tensor<string, []>("op_421"), val = tensor<int32, []>(-1)];
            tensor<int32, [1]> x_33_axes_0 = const()[name = tensor<string, []>("x_33_axes_0"), val = tensor<int32, [1]>([-1])];
            tensor<fp16, [384]> pretrained_blocks_4_norm1_weight_to_fp16 = const()[name = tensor<string, []>("pretrained_blocks_4_norm1_weight_to_fp16"), val = tensor<fp16, [384]>(BLOBFILE(path = tensor<string, []>("@model_path/weights/weight.bin"), offset = tensor<uint64, []>(15711040)))];
            tensor<fp16, [384]> pretrained_blocks_4_norm1_bias_to_fp16 = const()[name = tensor<string, []>("pretrained_blocks_4_norm1_bias_to_fp16"), val = tensor<fp16, [384]>(BLOBFILE(path = tensor<string, []>("@model_path/weights/weight.bin"), offset = tensor<uint64, []>(15711872)))];
            tensor<fp16, []> var_426_to_fp16 = const()[name = tensor<string, []>("op_426_to_fp16"), val = tensor<fp16, []>(0x1.1p-20)];
            tensor<fp16, [1, 1370, 384]> x_33_cast_fp16 = layer_norm(axes = x_33_axes_0, beta = pretrained_blocks_4_norm1_bias_to_fp16, epsilon = var_426_to_fp16, gamma = pretrained_blocks_4_norm1_weight_to_fp16, x = input_81_cast_fp16)[name = tensor<string, []>("x_33_cast_fp16")];
            tensor<fp16, [1152, 384]> pretrained_blocks_4_attn_qkv_weight_to_fp16 = const()[name = tensor<string, []>("pretrained_blocks_4_attn_qkv_weight_to_fp16"), val = tensor<fp16, [1152, 384]>(BLOBFILE(path = tensor<string, []>("@model_path/weights/weight.bin"), offset = tensor<uint64, []>(15712704)))];
            tensor<fp16, [1152]> pretrained_blocks_4_attn_qkv_bias_to_fp16 = const()[name = tensor<string, []>("pretrained_blocks_4_attn_qkv_bias_to_fp16"), val = tensor<fp16, [1152]>(BLOBFILE(path = tensor<string, []>("@model_path/weights/weight.bin"), offset = tensor<uint64, []>(16597504)))];
            tensor<fp16, [1, 1370, 1152]> linear_16_cast_fp16 = linear(bias = pretrained_blocks_4_attn_qkv_bias_to_fp16, weight = pretrained_blocks_4_attn_qkv_weight_to_fp16, x = x_33_cast_fp16)[name = tensor<string, []>("linear_16_cast_fp16")];
            tensor<int32, [5]> var_449 = const()[name = tensor<string, []>("op_449"), val = tensor<int32, [5]>([1, 1370, 3, 6, 64])];
            tensor<fp16, [1, 1370, 3, 6, 64]> var_450_cast_fp16 = reshape(shape = var_449, x = linear_16_cast_fp16)[name = tensor<string, []>("op_450_cast_fp16")];
            tensor<int32, [5]> var_451 = const()[name = tensor<string, []>("op_451"), val = tensor<int32, [5]>([2, 0, 3, 1, 4])];
            tensor<int32, [5]> var_453_begin_0 = const()[name = tensor<string, []>("op_453_begin_0"), val = tensor<int32, [5]>([0, 0, 0, 0, 0])];
            tensor<int32, [5]> var_453_end_0 = const()[name = tensor<string, []>("op_453_end_0"), val = tensor<int32, [5]>([1, 1, 6, 1370, 64])];
            tensor<bool, [5]> var_453_end_mask_0 = const()[name = tensor<string, []>("op_453_end_mask_0"), val = tensor<bool, [5]>([false, true, true, true, true])];
            tensor<bool, [5]> var_453_squeeze_mask_0 = const()[name = tensor<string, []>("op_453_squeeze_mask_0"), val = tensor<bool, [5]>([true, false, false, false, false])];
            tensor<fp16, [3, 1, 6, 1370, 64]> qkv_9_cast_fp16 = transpose(perm = var_451, x = var_450_cast_fp16)[name = tensor<string, []>("transpose_19")];
            tensor<fp16, [1, 6, 1370, 64]> var_453_cast_fp16 = slice_by_index(begin = var_453_begin_0, end = var_453_end_0, end_mask = var_453_end_mask_0, squeeze_mask = var_453_squeeze_mask_0, x = qkv_9_cast_fp16)[name = tensor<string, []>("op_453_cast_fp16")];
            tensor<fp16, []> var_454_to_fp16 = const()[name = tensor<string, []>("op_454_to_fp16"), val = tensor<fp16, []>(0x1p-3)];
            tensor<fp16, [1, 6, 1370, 64]> q_9_cast_fp16 = mul(x = var_453_cast_fp16, y = var_454_to_fp16)[name = tensor<string, []>("q_9_cast_fp16")];
            tensor<int32, [5]> k_9_begin_0 = const()[name = tensor<string, []>("k_9_begin_0"), val = tensor<int32, [5]>([1, 0, 0, 0, 0])];
            tensor<int32, [5]> k_9_end_0 = const()[name = tensor<string, []>("k_9_end_0"), val = tensor<int32, [5]>([2, 1, 6, 1370, 64])];
            tensor<bool, [5]> k_9_end_mask_0 = const()[name = tensor<string, []>("k_9_end_mask_0"), val = tensor<bool, [5]>([false, true, true, true, true])];
            tensor<bool, [5]> k_9_squeeze_mask_0 = const()[name = tensor<string, []>("k_9_squeeze_mask_0"), val = tensor<bool, [5]>([true, false, false, false, false])];
            tensor<fp16, [1, 6, 1370, 64]> k_9_cast_fp16 = slice_by_index(begin = k_9_begin_0, end = k_9_end_0, end_mask = k_9_end_mask_0, squeeze_mask = k_9_squeeze_mask_0, x = qkv_9_cast_fp16)[name = tensor<string, []>("k_9_cast_fp16")];
            tensor<int32, [5]> v_9_begin_0 = const()[name = tensor<string, []>("v_9_begin_0"), val = tensor<int32, [5]>([2, 0, 0, 0, 0])];
            tensor<int32, [5]> v_9_end_0 = const()[name = tensor<string, []>("v_9_end_0"), val = tensor<int32, [5]>([3, 1, 6, 1370, 64])];
            tensor<bool, [5]> v_9_end_mask_0 = const()[name = tensor<string, []>("v_9_end_mask_0"), val = tensor<bool, [5]>([false, true, true, true, true])];
            tensor<bool, [5]> v_9_squeeze_mask_0 = const()[name = tensor<string, []>("v_9_squeeze_mask_0"), val = tensor<bool, [5]>([true, false, false, false, false])];
            tensor<fp16, [1, 6, 1370, 64]> v_9_cast_fp16 = slice_by_index(begin = v_9_begin_0, end = v_9_end_0, end_mask = v_9_end_mask_0, squeeze_mask = v_9_squeeze_mask_0, x = qkv_9_cast_fp16)[name = tensor<string, []>("v_9_cast_fp16")];
            tensor<bool, []> attn_17_transpose_x_1 = const()[name = tensor<string, []>("attn_17_transpose_x_1"), val = tensor<bool, []>(false)];
            tensor<bool, []> attn_17_transpose_y_1 = const()[name = tensor<string, []>("attn_17_transpose_y_1"), val = tensor<bool, []>(true)];
            tensor<fp16, [1, 6, 1370, 1370]> attn_17_cast_fp16 = matmul(transpose_x = attn_17_transpose_x_1, transpose_y = attn_17_transpose_y_1, x = q_9_cast_fp16, y = k_9_cast_fp16)[name = tensor<string, []>("attn_17_cast_fp16")];
            tensor<fp16, [1, 6, 1370, 1370]> input_83_cast_fp16 = softmax(axis = var_421, x = attn_17_cast_fp16)[name = tensor<string, []>("input_83_cast_fp16")];
            tensor<bool, []> var_462_transpose_x_0 = const()[name = tensor<string, []>("op_462_transpose_x_0"), val = tensor<bool, []>(false)];
            tensor<bool, []> var_462_transpose_y_0 = const()[name = tensor<string, []>("op_462_transpose_y_0"), val = tensor<bool, []>(false)];
            tensor<fp16, [1, 6, 1370, 64]> var_462_cast_fp16 = matmul(transpose_x = var_462_transpose_x_0, transpose_y = var_462_transpose_y_0, x = input_83_cast_fp16, y = v_9_cast_fp16)[name = tensor<string, []>("op_462_cast_fp16")];
            tensor<int32, [4]> var_463_perm_0 = const()[name = tensor<string, []>("op_463_perm_0"), val = tensor<int32, [4]>([0, 2, 1, 3])];
            tensor<int32, [3]> var_464 = const()[name = tensor<string, []>("op_464"), val = tensor<int32, [3]>([1, 1370, 384])];
            tensor<fp16, [1, 1370, 6, 64]> var_463_cast_fp16 = transpose(perm = var_463_perm_0, x = var_462_cast_fp16)[name = tensor<string, []>("transpose_18")];
            tensor<fp16, [1, 1370, 384]> input_85_cast_fp16 = reshape(shape = var_464, x = var_463_cast_fp16)[name = tensor<string, []>("input_85_cast_fp16")];
            tensor<fp16, [384, 384]> pretrained_blocks_4_attn_proj_weight_to_fp16 = const()[name = tensor<string, []>("pretrained_blocks_4_attn_proj_weight_to_fp16"), val = tensor<fp16, [384, 384]>(BLOBFILE(path = tensor<string, []>("@model_path/weights/weight.bin"), offset = tensor<uint64, []>(16599872)))];
            tensor<fp16, [384]> pretrained_blocks_4_attn_proj_bias_to_fp16 = const()[name = tensor<string, []>("pretrained_blocks_4_attn_proj_bias_to_fp16"), val = tensor<fp16, [384]>(BLOBFILE(path = tensor<string, []>("@model_path/weights/weight.bin"), offset = tensor<uint64, []>(16894848)))];
            tensor<fp16, [1, 1370, 384]> linear_17_cast_fp16 = linear(bias = pretrained_blocks_4_attn_proj_bias_to_fp16, weight = pretrained_blocks_4_attn_proj_weight_to_fp16, x = input_85_cast_fp16)[name = tensor<string, []>("linear_17_cast_fp16")];
            tensor<fp16, [384]> pretrained_blocks_4_ls1_gamma_to_fp16 = const()[name = tensor<string, []>("pretrained_blocks_4_ls1_gamma_to_fp16"), val = tensor<fp16, [384]>(BLOBFILE(path = tensor<string, []>("@model_path/weights/weight.bin"), offset = tensor<uint64, []>(16895680)))];
            tensor<fp16, [1, 1370, 384]> var_471_cast_fp16 = mul(x = linear_17_cast_fp16, y = pretrained_blocks_4_ls1_gamma_to_fp16)[name = tensor<string, []>("op_471_cast_fp16")];
            tensor<fp16, [1, 1370, 384]> input_89_cast_fp16 = add(x = input_81_cast_fp16, y = var_471_cast_fp16)[name = tensor<string, []>("input_89_cast_fp16")];
            tensor<int32, [1]> input_91_axes_0 = const()[name = tensor<string, []>("input_91_axes_0"), val = tensor<int32, [1]>([-1])];
            tensor<fp16, [384]> pretrained_blocks_4_norm2_weight_to_fp16 = const()[name = tensor<string, []>("pretrained_blocks_4_norm2_weight_to_fp16"), val = tensor<fp16, [384]>(BLOBFILE(path = tensor<string, []>("@model_path/weights/weight.bin"), offset = tensor<uint64, []>(16896512)))];
            tensor<fp16, [384]> pretrained_blocks_4_norm2_bias_to_fp16 = const()[name = tensor<string, []>("pretrained_blocks_4_norm2_bias_to_fp16"), val = tensor<fp16, [384]>(BLOBFILE(path = tensor<string, []>("@model_path/weights/weight.bin"), offset = tensor<uint64, []>(16897344)))];
            tensor<fp16, [1, 1370, 384]> input_91_cast_fp16 = layer_norm(axes = input_91_axes_0, beta = pretrained_blocks_4_norm2_bias_to_fp16, epsilon = var_426_to_fp16, gamma = pretrained_blocks_4_norm2_weight_to_fp16, x = input_89_cast_fp16)[name = tensor<string, []>("input_91_cast_fp16")];
            tensor<fp16, [1536, 384]> pretrained_blocks_4_mlp_fc1_weight_to_fp16 = const()[name = tensor<string, []>("pretrained_blocks_4_mlp_fc1_weight_to_fp16"), val = tensor<fp16, [1536, 384]>(BLOBFILE(path = tensor<string, []>("@model_path/weights/weight.bin"), offset = tensor<uint64, []>(16898176)))];
            tensor<fp16, [1536]> pretrained_blocks_4_mlp_fc1_bias_to_fp16 = const()[name = tensor<string, []>("pretrained_blocks_4_mlp_fc1_bias_to_fp16"), val = tensor<fp16, [1536]>(BLOBFILE(path = tensor<string, []>("@model_path/weights/weight.bin"), offset = tensor<uint64, []>(18077888)))];
            tensor<fp16, [1, 1370, 1536]> linear_18_cast_fp16 = linear(bias = pretrained_blocks_4_mlp_fc1_bias_to_fp16, weight = pretrained_blocks_4_mlp_fc1_weight_to_fp16, x = input_91_cast_fp16)[name = tensor<string, []>("linear_18_cast_fp16")];
            tensor<string, []> input_95_mode_0 = const()[name = tensor<string, []>("input_95_mode_0"), val = tensor<string, []>("EXACT")];
            tensor<fp16, [1, 1370, 1536]> input_95_cast_fp16 = gelu(mode = input_95_mode_0, x = linear_18_cast_fp16)[name = tensor<string, []>("input_95_cast_fp16")];
            tensor<fp16, [384, 1536]> pretrained_blocks_4_mlp_fc2_weight_to_fp16 = const()[name = tensor<string, []>("pretrained_blocks_4_mlp_fc2_weight_to_fp16"), val = tensor<fp16, [384, 1536]>(BLOBFILE(path = tensor<string, []>("@model_path/weights/weight.bin"), offset = tensor<uint64, []>(18081024)))];
            tensor<fp16, [384]> pretrained_blocks_4_mlp_fc2_bias_to_fp16 = const()[name = tensor<string, []>("pretrained_blocks_4_mlp_fc2_bias_to_fp16"), val = tensor<fp16, [384]>(BLOBFILE(path = tensor<string, []>("@model_path/weights/weight.bin"), offset = tensor<uint64, []>(19260736)))];
            tensor<fp16, [1, 1370, 384]> linear_19_cast_fp16 = linear(bias = pretrained_blocks_4_mlp_fc2_bias_to_fp16, weight = pretrained_blocks_4_mlp_fc2_weight_to_fp16, x = input_95_cast_fp16)[name = tensor<string, []>("linear_19_cast_fp16")];
            tensor<fp16, [384]> pretrained_blocks_4_ls2_gamma_to_fp16 = const()[name = tensor<string, []>("pretrained_blocks_4_ls2_gamma_to_fp16"), val = tensor<fp16, [384]>(BLOBFILE(path = tensor<string, []>("@model_path/weights/weight.bin"), offset = tensor<uint64, []>(19261568)))];
            tensor<fp16, [1, 1370, 384]> var_489_cast_fp16 = mul(x = linear_19_cast_fp16, y = pretrained_blocks_4_ls2_gamma_to_fp16)[name = tensor<string, []>("op_489_cast_fp16")];
            tensor<fp16, [1, 1370, 384]> input_101_cast_fp16 = add(x = input_89_cast_fp16, y = var_489_cast_fp16)[name = tensor<string, []>("input_101_cast_fp16")];
            tensor<int32, []> var_500 = const()[name = tensor<string, []>("op_500"), val = tensor<int32, []>(-1)];
            tensor<int32, [1]> x_39_axes_0 = const()[name = tensor<string, []>("x_39_axes_0"), val = tensor<int32, [1]>([-1])];
            tensor<fp16, [384]> pretrained_blocks_5_norm1_weight_to_fp16 = const()[name = tensor<string, []>("pretrained_blocks_5_norm1_weight_to_fp16"), val = tensor<fp16, [384]>(BLOBFILE(path = tensor<string, []>("@model_path/weights/weight.bin"), offset = tensor<uint64, []>(19262400)))];
            tensor<fp16, [384]> pretrained_blocks_5_norm1_bias_to_fp16 = const()[name = tensor<string, []>("pretrained_blocks_5_norm1_bias_to_fp16"), val = tensor<fp16, [384]>(BLOBFILE(path = tensor<string, []>("@model_path/weights/weight.bin"), offset = tensor<uint64, []>(19263232)))];
            tensor<fp16, []> var_505_to_fp16 = const()[name = tensor<string, []>("op_505_to_fp16"), val = tensor<fp16, []>(0x1.1p-20)];
            tensor<fp16, [1, 1370, 384]> x_39_cast_fp16 = layer_norm(axes = x_39_axes_0, beta = pretrained_blocks_5_norm1_bias_to_fp16, epsilon = var_505_to_fp16, gamma = pretrained_blocks_5_norm1_weight_to_fp16, x = input_101_cast_fp16)[name = tensor<string, []>("x_39_cast_fp16")];
            tensor<fp16, [1152, 384]> pretrained_blocks_5_attn_qkv_weight_to_fp16 = const()[name = tensor<string, []>("pretrained_blocks_5_attn_qkv_weight_to_fp16"), val = tensor<fp16, [1152, 384]>(BLOBFILE(path = tensor<string, []>("@model_path/weights/weight.bin"), offset = tensor<uint64, []>(19264064)))];
            tensor<fp16, [1152]> pretrained_blocks_5_attn_qkv_bias_to_fp16 = const()[name = tensor<string, []>("pretrained_blocks_5_attn_qkv_bias_to_fp16"), val = tensor<fp16, [1152]>(BLOBFILE(path = tensor<string, []>("@model_path/weights/weight.bin"), offset = tensor<uint64, []>(20148864)))];
            tensor<fp16, [1, 1370, 1152]> linear_20_cast_fp16 = linear(bias = pretrained_blocks_5_attn_qkv_bias_to_fp16, weight = pretrained_blocks_5_attn_qkv_weight_to_fp16, x = x_39_cast_fp16)[name = tensor<string, []>("linear_20_cast_fp16")];
            tensor<int32, [5]> var_528 = const()[name = tensor<string, []>("op_528"), val = tensor<int32, [5]>([1, 1370, 3, 6, 64])];
            tensor<fp16, [1, 1370, 3, 6, 64]> var_529_cast_fp16 = reshape(shape = var_528, x = linear_20_cast_fp16)[name = tensor<string, []>("op_529_cast_fp16")];
            tensor<int32, [5]> var_530 = const()[name = tensor<string, []>("op_530"), val = tensor<int32, [5]>([2, 0, 3, 1, 4])];
            tensor<int32, [5]> var_532_begin_0 = const()[name = tensor<string, []>("op_532_begin_0"), val = tensor<int32, [5]>([0, 0, 0, 0, 0])];
            tensor<int32, [5]> var_532_end_0 = const()[name = tensor<string, []>("op_532_end_0"), val = tensor<int32, [5]>([1, 1, 6, 1370, 64])];
            tensor<bool, [5]> var_532_end_mask_0 = const()[name = tensor<string, []>("op_532_end_mask_0"), val = tensor<bool, [5]>([false, true, true, true, true])];
            tensor<bool, [5]> var_532_squeeze_mask_0 = const()[name = tensor<string, []>("op_532_squeeze_mask_0"), val = tensor<bool, [5]>([true, false, false, false, false])];
            tensor<fp16, [3, 1, 6, 1370, 64]> qkv_11_cast_fp16 = transpose(perm = var_530, x = var_529_cast_fp16)[name = tensor<string, []>("transpose_17")];
            tensor<fp16, [1, 6, 1370, 64]> var_532_cast_fp16 = slice_by_index(begin = var_532_begin_0, end = var_532_end_0, end_mask = var_532_end_mask_0, squeeze_mask = var_532_squeeze_mask_0, x = qkv_11_cast_fp16)[name = tensor<string, []>("op_532_cast_fp16")];
            tensor<fp16, []> var_533_to_fp16 = const()[name = tensor<string, []>("op_533_to_fp16"), val = tensor<fp16, []>(0x1p-3)];
            tensor<fp16, [1, 6, 1370, 64]> q_11_cast_fp16 = mul(x = var_532_cast_fp16, y = var_533_to_fp16)[name = tensor<string, []>("q_11_cast_fp16")];
            tensor<int32, [5]> k_11_begin_0 = const()[name = tensor<string, []>("k_11_begin_0"), val = tensor<int32, [5]>([1, 0, 0, 0, 0])];
            tensor<int32, [5]> k_11_end_0 = const()[name = tensor<string, []>("k_11_end_0"), val = tensor<int32, [5]>([2, 1, 6, 1370, 64])];
            tensor<bool, [5]> k_11_end_mask_0 = const()[name = tensor<string, []>("k_11_end_mask_0"), val = tensor<bool, [5]>([false, true, true, true, true])];
            tensor<bool, [5]> k_11_squeeze_mask_0 = const()[name = tensor<string, []>("k_11_squeeze_mask_0"), val = tensor<bool, [5]>([true, false, false, false, false])];
            tensor<fp16, [1, 6, 1370, 64]> k_11_cast_fp16 = slice_by_index(begin = k_11_begin_0, end = k_11_end_0, end_mask = k_11_end_mask_0, squeeze_mask = k_11_squeeze_mask_0, x = qkv_11_cast_fp16)[name = tensor<string, []>("k_11_cast_fp16")];
            tensor<int32, [5]> v_11_begin_0 = const()[name = tensor<string, []>("v_11_begin_0"), val = tensor<int32, [5]>([2, 0, 0, 0, 0])];
            tensor<int32, [5]> v_11_end_0 = const()[name = tensor<string, []>("v_11_end_0"), val = tensor<int32, [5]>([3, 1, 6, 1370, 64])];
            tensor<bool, [5]> v_11_end_mask_0 = const()[name = tensor<string, []>("v_11_end_mask_0"), val = tensor<bool, [5]>([false, true, true, true, true])];
            tensor<bool, [5]> v_11_squeeze_mask_0 = const()[name = tensor<string, []>("v_11_squeeze_mask_0"), val = tensor<bool, [5]>([true, false, false, false, false])];
            tensor<fp16, [1, 6, 1370, 64]> v_11_cast_fp16 = slice_by_index(begin = v_11_begin_0, end = v_11_end_0, end_mask = v_11_end_mask_0, squeeze_mask = v_11_squeeze_mask_0, x = qkv_11_cast_fp16)[name = tensor<string, []>("v_11_cast_fp16")];
            tensor<bool, []> attn_21_transpose_x_1 = const()[name = tensor<string, []>("attn_21_transpose_x_1"), val = tensor<bool, []>(false)];
            tensor<bool, []> attn_21_transpose_y_1 = const()[name = tensor<string, []>("attn_21_transpose_y_1"), val = tensor<bool, []>(true)];
            tensor<fp16, [1, 6, 1370, 1370]> attn_21_cast_fp16 = matmul(transpose_x = attn_21_transpose_x_1, transpose_y = attn_21_transpose_y_1, x = q_11_cast_fp16, y = k_11_cast_fp16)[name = tensor<string, []>("attn_21_cast_fp16")];
            tensor<fp16, [1, 6, 1370, 1370]> input_103_cast_fp16 = softmax(axis = var_500, x = attn_21_cast_fp16)[name = tensor<string, []>("input_103_cast_fp16")];
            tensor<bool, []> var_541_transpose_x_0 = const()[name = tensor<string, []>("op_541_transpose_x_0"), val = tensor<bool, []>(false)];
            tensor<bool, []> var_541_transpose_y_0 = const()[name = tensor<string, []>("op_541_transpose_y_0"), val = tensor<bool, []>(false)];
            tensor<fp16, [1, 6, 1370, 64]> var_541_cast_fp16 = matmul(transpose_x = var_541_transpose_x_0, transpose_y = var_541_transpose_y_0, x = input_103_cast_fp16, y = v_11_cast_fp16)[name = tensor<string, []>("op_541_cast_fp16")];
            tensor<int32, [4]> var_542_perm_0 = const()[name = tensor<string, []>("op_542_perm_0"), val = tensor<int32, [4]>([0, 2, 1, 3])];
            tensor<int32, [3]> var_543 = const()[name = tensor<string, []>("op_543"), val = tensor<int32, [3]>([1, 1370, 384])];
            tensor<fp16, [1, 1370, 6, 64]> var_542_cast_fp16 = transpose(perm = var_542_perm_0, x = var_541_cast_fp16)[name = tensor<string, []>("transpose_16")];
            tensor<fp16, [1, 1370, 384]> input_105_cast_fp16 = reshape(shape = var_543, x = var_542_cast_fp16)[name = tensor<string, []>("input_105_cast_fp16")];
            tensor<fp16, [384, 384]> pretrained_blocks_5_attn_proj_weight_to_fp16 = const()[name = tensor<string, []>("pretrained_blocks_5_attn_proj_weight_to_fp16"), val = tensor<fp16, [384, 384]>(BLOBFILE(path = tensor<string, []>("@model_path/weights/weight.bin"), offset = tensor<uint64, []>(20151232)))];
            tensor<fp16, [384]> pretrained_blocks_5_attn_proj_bias_to_fp16 = const()[name = tensor<string, []>("pretrained_blocks_5_attn_proj_bias_to_fp16"), val = tensor<fp16, [384]>(BLOBFILE(path = tensor<string, []>("@model_path/weights/weight.bin"), offset = tensor<uint64, []>(20446208)))];
            tensor<fp16, [1, 1370, 384]> linear_21_cast_fp16 = linear(bias = pretrained_blocks_5_attn_proj_bias_to_fp16, weight = pretrained_blocks_5_attn_proj_weight_to_fp16, x = input_105_cast_fp16)[name = tensor<string, []>("linear_21_cast_fp16")];
            tensor<fp16, [384]> pretrained_blocks_5_ls1_gamma_to_fp16 = const()[name = tensor<string, []>("pretrained_blocks_5_ls1_gamma_to_fp16"), val = tensor<fp16, [384]>(BLOBFILE(path = tensor<string, []>("@model_path/weights/weight.bin"), offset = tensor<uint64, []>(20447040)))];
            tensor<fp16, [1, 1370, 384]> var_550_cast_fp16 = mul(x = linear_21_cast_fp16, y = pretrained_blocks_5_ls1_gamma_to_fp16)[name = tensor<string, []>("op_550_cast_fp16")];
            tensor<fp16, [1, 1370, 384]> input_109_cast_fp16 = add(x = input_101_cast_fp16, y = var_550_cast_fp16)[name = tensor<string, []>("input_109_cast_fp16")];
            tensor<int32, [1]> input_111_axes_0 = const()[name = tensor<string, []>("input_111_axes_0"), val = tensor<int32, [1]>([-1])];
            tensor<fp16, [384]> pretrained_blocks_5_norm2_weight_to_fp16 = const()[name = tensor<string, []>("pretrained_blocks_5_norm2_weight_to_fp16"), val = tensor<fp16, [384]>(BLOBFILE(path = tensor<string, []>("@model_path/weights/weight.bin"), offset = tensor<uint64, []>(20447872)))];
            tensor<fp16, [384]> pretrained_blocks_5_norm2_bias_to_fp16 = const()[name = tensor<string, []>("pretrained_blocks_5_norm2_bias_to_fp16"), val = tensor<fp16, [384]>(BLOBFILE(path = tensor<string, []>("@model_path/weights/weight.bin"), offset = tensor<uint64, []>(20448704)))];
            tensor<fp16, [1, 1370, 384]> input_111_cast_fp16 = layer_norm(axes = input_111_axes_0, beta = pretrained_blocks_5_norm2_bias_to_fp16, epsilon = var_505_to_fp16, gamma = pretrained_blocks_5_norm2_weight_to_fp16, x = input_109_cast_fp16)[name = tensor<string, []>("input_111_cast_fp16")];
            tensor<fp16, [1536, 384]> pretrained_blocks_5_mlp_fc1_weight_to_fp16 = const()[name = tensor<string, []>("pretrained_blocks_5_mlp_fc1_weight_to_fp16"), val = tensor<fp16, [1536, 384]>(BLOBFILE(path = tensor<string, []>("@model_path/weights/weight.bin"), offset = tensor<uint64, []>(20449536)))];
            tensor<fp16, [1536]> pretrained_blocks_5_mlp_fc1_bias_to_fp16 = const()[name = tensor<string, []>("pretrained_blocks_5_mlp_fc1_bias_to_fp16"), val = tensor<fp16, [1536]>(BLOBFILE(path = tensor<string, []>("@model_path/weights/weight.bin"), offset = tensor<uint64, []>(21629248)))];
            tensor<fp16, [1, 1370, 1536]> linear_22_cast_fp16 = linear(bias = pretrained_blocks_5_mlp_fc1_bias_to_fp16, weight = pretrained_blocks_5_mlp_fc1_weight_to_fp16, x = input_111_cast_fp16)[name = tensor<string, []>("linear_22_cast_fp16")];
            tensor<string, []> input_115_mode_0 = const()[name = tensor<string, []>("input_115_mode_0"), val = tensor<string, []>("EXACT")];
            tensor<fp16, [1, 1370, 1536]> input_115_cast_fp16 = gelu(mode = input_115_mode_0, x = linear_22_cast_fp16)[name = tensor<string, []>("input_115_cast_fp16")];
            tensor<fp16, [384, 1536]> pretrained_blocks_5_mlp_fc2_weight_to_fp16 = const()[name = tensor<string, []>("pretrained_blocks_5_mlp_fc2_weight_to_fp16"), val = tensor<fp16, [384, 1536]>(BLOBFILE(path = tensor<string, []>("@model_path/weights/weight.bin"), offset = tensor<uint64, []>(21632384)))];
            tensor<fp16, [384]> pretrained_blocks_5_mlp_fc2_bias_to_fp16 = const()[name = tensor<string, []>("pretrained_blocks_5_mlp_fc2_bias_to_fp16"), val = tensor<fp16, [384]>(BLOBFILE(path = tensor<string, []>("@model_path/weights/weight.bin"), offset = tensor<uint64, []>(22812096)))];
            tensor<fp16, [1, 1370, 384]> linear_23_cast_fp16 = linear(bias = pretrained_blocks_5_mlp_fc2_bias_to_fp16, weight = pretrained_blocks_5_mlp_fc2_weight_to_fp16, x = input_115_cast_fp16)[name = tensor<string, []>("linear_23_cast_fp16")];
            tensor<fp16, [384]> pretrained_blocks_5_ls2_gamma_to_fp16 = const()[name = tensor<string, []>("pretrained_blocks_5_ls2_gamma_to_fp16"), val = tensor<fp16, [384]>(BLOBFILE(path = tensor<string, []>("@model_path/weights/weight.bin"), offset = tensor<uint64, []>(22812928)))];
            tensor<fp16, [1, 1370, 384]> var_568_cast_fp16 = mul(x = linear_23_cast_fp16, y = pretrained_blocks_5_ls2_gamma_to_fp16)[name = tensor<string, []>("op_568_cast_fp16")];
            tensor<fp16, [1, 1370, 384]> input_121_cast_fp16 = add(x = input_109_cast_fp16, y = var_568_cast_fp16)[name = tensor<string, []>("input_121_cast_fp16")];
            tensor<int32, []> var_579 = const()[name = tensor<string, []>("op_579"), val = tensor<int32, []>(-1)];
            tensor<int32, [1]> x_45_axes_0 = const()[name = tensor<string, []>("x_45_axes_0"), val = tensor<int32, [1]>([-1])];
            tensor<fp16, [384]> pretrained_blocks_6_norm1_weight_to_fp16 = const()[name = tensor<string, []>("pretrained_blocks_6_norm1_weight_to_fp16"), val = tensor<fp16, [384]>(BLOBFILE(path = tensor<string, []>("@model_path/weights/weight.bin"), offset = tensor<uint64, []>(22813760)))];
            tensor<fp16, [384]> pretrained_blocks_6_norm1_bias_to_fp16 = const()[name = tensor<string, []>("pretrained_blocks_6_norm1_bias_to_fp16"), val = tensor<fp16, [384]>(BLOBFILE(path = tensor<string, []>("@model_path/weights/weight.bin"), offset = tensor<uint64, []>(22814592)))];
            tensor<fp16, []> var_584_to_fp16 = const()[name = tensor<string, []>("op_584_to_fp16"), val = tensor<fp16, []>(0x1.1p-20)];
            tensor<fp16, [1, 1370, 384]> x_45_cast_fp16 = layer_norm(axes = x_45_axes_0, beta = pretrained_blocks_6_norm1_bias_to_fp16, epsilon = var_584_to_fp16, gamma = pretrained_blocks_6_norm1_weight_to_fp16, x = input_121_cast_fp16)[name = tensor<string, []>("x_45_cast_fp16")];
            tensor<fp16, [1152, 384]> pretrained_blocks_6_attn_qkv_weight_to_fp16 = const()[name = tensor<string, []>("pretrained_blocks_6_attn_qkv_weight_to_fp16"), val = tensor<fp16, [1152, 384]>(BLOBFILE(path = tensor<string, []>("@model_path/weights/weight.bin"), offset = tensor<uint64, []>(22815424)))];
            tensor<fp16, [1152]> pretrained_blocks_6_attn_qkv_bias_to_fp16 = const()[name = tensor<string, []>("pretrained_blocks_6_attn_qkv_bias_to_fp16"), val = tensor<fp16, [1152]>(BLOBFILE(path = tensor<string, []>("@model_path/weights/weight.bin"), offset = tensor<uint64, []>(23700224)))];
            tensor<fp16, [1, 1370, 1152]> linear_24_cast_fp16 = linear(bias = pretrained_blocks_6_attn_qkv_bias_to_fp16, weight = pretrained_blocks_6_attn_qkv_weight_to_fp16, x = x_45_cast_fp16)[name = tensor<string, []>("linear_24_cast_fp16")];
            tensor<int32, [5]> var_607 = const()[name = tensor<string, []>("op_607"), val = tensor<int32, [5]>([1, 1370, 3, 6, 64])];
            tensor<fp16, [1, 1370, 3, 6, 64]> var_608_cast_fp16 = reshape(shape = var_607, x = linear_24_cast_fp16)[name = tensor<string, []>("op_608_cast_fp16")];
            tensor<int32, [5]> var_609 = const()[name = tensor<string, []>("op_609"), val = tensor<int32, [5]>([2, 0, 3, 1, 4])];
            tensor<int32, [5]> var_611_begin_0 = const()[name = tensor<string, []>("op_611_begin_0"), val = tensor<int32, [5]>([0, 0, 0, 0, 0])];
            tensor<int32, [5]> var_611_end_0 = const()[name = tensor<string, []>("op_611_end_0"), val = tensor<int32, [5]>([1, 1, 6, 1370, 64])];
            tensor<bool, [5]> var_611_end_mask_0 = const()[name = tensor<string, []>("op_611_end_mask_0"), val = tensor<bool, [5]>([false, true, true, true, true])];
            tensor<bool, [5]> var_611_squeeze_mask_0 = const()[name = tensor<string, []>("op_611_squeeze_mask_0"), val = tensor<bool, [5]>([true, false, false, false, false])];
            tensor<fp16, [3, 1, 6, 1370, 64]> qkv_13_cast_fp16 = transpose(perm = var_609, x = var_608_cast_fp16)[name = tensor<string, []>("transpose_15")];
            tensor<fp16, [1, 6, 1370, 64]> var_611_cast_fp16 = slice_by_index(begin = var_611_begin_0, end = var_611_end_0, end_mask = var_611_end_mask_0, squeeze_mask = var_611_squeeze_mask_0, x = qkv_13_cast_fp16)[name = tensor<string, []>("op_611_cast_fp16")];
            tensor<fp16, []> var_612_to_fp16 = const()[name = tensor<string, []>("op_612_to_fp16"), val = tensor<fp16, []>(0x1p-3)];
            tensor<fp16, [1, 6, 1370, 64]> q_13_cast_fp16 = mul(x = var_611_cast_fp16, y = var_612_to_fp16)[name = tensor<string, []>("q_13_cast_fp16")];
            tensor<int32, [5]> k_13_begin_0 = const()[name = tensor<string, []>("k_13_begin_0"), val = tensor<int32, [5]>([1, 0, 0, 0, 0])];
            tensor<int32, [5]> k_13_end_0 = const()[name = tensor<string, []>("k_13_end_0"), val = tensor<int32, [5]>([2, 1, 6, 1370, 64])];
            tensor<bool, [5]> k_13_end_mask_0 = const()[name = tensor<string, []>("k_13_end_mask_0"), val = tensor<bool, [5]>([false, true, true, true, true])];
            tensor<bool, [5]> k_13_squeeze_mask_0 = const()[name = tensor<string, []>("k_13_squeeze_mask_0"), val = tensor<bool, [5]>([true, false, false, false, false])];
            tensor<fp16, [1, 6, 1370, 64]> k_13_cast_fp16 = slice_by_index(begin = k_13_begin_0, end = k_13_end_0, end_mask = k_13_end_mask_0, squeeze_mask = k_13_squeeze_mask_0, x = qkv_13_cast_fp16)[name = tensor<string, []>("k_13_cast_fp16")];
            tensor<int32, [5]> v_13_begin_0 = const()[name = tensor<string, []>("v_13_begin_0"), val = tensor<int32, [5]>([2, 0, 0, 0, 0])];
            tensor<int32, [5]> v_13_end_0 = const()[name = tensor<string, []>("v_13_end_0"), val = tensor<int32, [5]>([3, 1, 6, 1370, 64])];
            tensor<bool, [5]> v_13_end_mask_0 = const()[name = tensor<string, []>("v_13_end_mask_0"), val = tensor<bool, [5]>([false, true, true, true, true])];
            tensor<bool, [5]> v_13_squeeze_mask_0 = const()[name = tensor<string, []>("v_13_squeeze_mask_0"), val = tensor<bool, [5]>([true, false, false, false, false])];
            tensor<fp16, [1, 6, 1370, 64]> v_13_cast_fp16 = slice_by_index(begin = v_13_begin_0, end = v_13_end_0, end_mask = v_13_end_mask_0, squeeze_mask = v_13_squeeze_mask_0, x = qkv_13_cast_fp16)[name = tensor<string, []>("v_13_cast_fp16")];
            tensor<bool, []> attn_25_transpose_x_1 = const()[name = tensor<string, []>("attn_25_transpose_x_1"), val = tensor<bool, []>(false)];
            tensor<bool, []> attn_25_transpose_y_1 = const()[name = tensor<string, []>("attn_25_transpose_y_1"), val = tensor<bool, []>(true)];
            tensor<fp16, [1, 6, 1370, 1370]> attn_25_cast_fp16 = matmul(transpose_x = attn_25_transpose_x_1, transpose_y = attn_25_transpose_y_1, x = q_13_cast_fp16, y = k_13_cast_fp16)[name = tensor<string, []>("attn_25_cast_fp16")];
            tensor<fp16, [1, 6, 1370, 1370]> input_123_cast_fp16 = softmax(axis = var_579, x = attn_25_cast_fp16)[name = tensor<string, []>("input_123_cast_fp16")];
            tensor<bool, []> var_620_transpose_x_0 = const()[name = tensor<string, []>("op_620_transpose_x_0"), val = tensor<bool, []>(false)];
            tensor<bool, []> var_620_transpose_y_0 = const()[name = tensor<string, []>("op_620_transpose_y_0"), val = tensor<bool, []>(false)];
            tensor<fp16, [1, 6, 1370, 64]> var_620_cast_fp16 = matmul(transpose_x = var_620_transpose_x_0, transpose_y = var_620_transpose_y_0, x = input_123_cast_fp16, y = v_13_cast_fp16)[name = tensor<string, []>("op_620_cast_fp16")];
            tensor<int32, [4]> var_621_perm_0 = const()[name = tensor<string, []>("op_621_perm_0"), val = tensor<int32, [4]>([0, 2, 1, 3])];
            tensor<int32, [3]> var_622 = const()[name = tensor<string, []>("op_622"), val = tensor<int32, [3]>([1, 1370, 384])];
            tensor<fp16, [1, 1370, 6, 64]> var_621_cast_fp16 = transpose(perm = var_621_perm_0, x = var_620_cast_fp16)[name = tensor<string, []>("transpose_14")];
            tensor<fp16, [1, 1370, 384]> input_125_cast_fp16 = reshape(shape = var_622, x = var_621_cast_fp16)[name = tensor<string, []>("input_125_cast_fp16")];
            tensor<fp16, [384, 384]> pretrained_blocks_6_attn_proj_weight_to_fp16 = const()[name = tensor<string, []>("pretrained_blocks_6_attn_proj_weight_to_fp16"), val = tensor<fp16, [384, 384]>(BLOBFILE(path = tensor<string, []>("@model_path/weights/weight.bin"), offset = tensor<uint64, []>(23702592)))];
            tensor<fp16, [384]> pretrained_blocks_6_attn_proj_bias_to_fp16 = const()[name = tensor<string, []>("pretrained_blocks_6_attn_proj_bias_to_fp16"), val = tensor<fp16, [384]>(BLOBFILE(path = tensor<string, []>("@model_path/weights/weight.bin"), offset = tensor<uint64, []>(23997568)))];
            tensor<fp16, [1, 1370, 384]> linear_25_cast_fp16 = linear(bias = pretrained_blocks_6_attn_proj_bias_to_fp16, weight = pretrained_blocks_6_attn_proj_weight_to_fp16, x = input_125_cast_fp16)[name = tensor<string, []>("linear_25_cast_fp16")];
            tensor<fp16, [384]> pretrained_blocks_6_ls1_gamma_to_fp16 = const()[name = tensor<string, []>("pretrained_blocks_6_ls1_gamma_to_fp16"), val = tensor<fp16, [384]>(BLOBFILE(path = tensor<string, []>("@model_path/weights/weight.bin"), offset = tensor<uint64, []>(23998400)))];
            tensor<fp16, [1, 1370, 384]> var_629_cast_fp16 = mul(x = linear_25_cast_fp16, y = pretrained_blocks_6_ls1_gamma_to_fp16)[name = tensor<string, []>("op_629_cast_fp16")];
            tensor<fp16, [1, 1370, 384]> input_129_cast_fp16 = add(x = input_121_cast_fp16, y = var_629_cast_fp16)[name = tensor<string, []>("input_129_cast_fp16")];
            tensor<int32, [1]> input_131_axes_0 = const()[name = tensor<string, []>("input_131_axes_0"), val = tensor<int32, [1]>([-1])];
            tensor<fp16, [384]> pretrained_blocks_6_norm2_weight_to_fp16 = const()[name = tensor<string, []>("pretrained_blocks_6_norm2_weight_to_fp16"), val = tensor<fp16, [384]>(BLOBFILE(path = tensor<string, []>("@model_path/weights/weight.bin"), offset = tensor<uint64, []>(23999232)))];
            tensor<fp16, [384]> pretrained_blocks_6_norm2_bias_to_fp16 = const()[name = tensor<string, []>("pretrained_blocks_6_norm2_bias_to_fp16"), val = tensor<fp16, [384]>(BLOBFILE(path = tensor<string, []>("@model_path/weights/weight.bin"), offset = tensor<uint64, []>(24000064)))];
            tensor<fp16, [1, 1370, 384]> input_131_cast_fp16 = layer_norm(axes = input_131_axes_0, beta = pretrained_blocks_6_norm2_bias_to_fp16, epsilon = var_584_to_fp16, gamma = pretrained_blocks_6_norm2_weight_to_fp16, x = input_129_cast_fp16)[name = tensor<string, []>("input_131_cast_fp16")];
            tensor<fp16, [1536, 384]> pretrained_blocks_6_mlp_fc1_weight_to_fp16 = const()[name = tensor<string, []>("pretrained_blocks_6_mlp_fc1_weight_to_fp16"), val = tensor<fp16, [1536, 384]>(BLOBFILE(path = tensor<string, []>("@model_path/weights/weight.bin"), offset = tensor<uint64, []>(24000896)))];
            tensor<fp16, [1536]> pretrained_blocks_6_mlp_fc1_bias_to_fp16 = const()[name = tensor<string, []>("pretrained_blocks_6_mlp_fc1_bias_to_fp16"), val = tensor<fp16, [1536]>(BLOBFILE(path = tensor<string, []>("@model_path/weights/weight.bin"), offset = tensor<uint64, []>(25180608)))];
            tensor<fp16, [1, 1370, 1536]> linear_26_cast_fp16 = linear(bias = pretrained_blocks_6_mlp_fc1_bias_to_fp16, weight = pretrained_blocks_6_mlp_fc1_weight_to_fp16, x = input_131_cast_fp16)[name = tensor<string, []>("linear_26_cast_fp16")];
            tensor<string, []> input_135_mode_0 = const()[name = tensor<string, []>("input_135_mode_0"), val = tensor<string, []>("EXACT")];
            tensor<fp16, [1, 1370, 1536]> input_135_cast_fp16 = gelu(mode = input_135_mode_0, x = linear_26_cast_fp16)[name = tensor<string, []>("input_135_cast_fp16")];
            tensor<fp16, [384, 1536]> pretrained_blocks_6_mlp_fc2_weight_to_fp16 = const()[name = tensor<string, []>("pretrained_blocks_6_mlp_fc2_weight_to_fp16"), val = tensor<fp16, [384, 1536]>(BLOBFILE(path = tensor<string, []>("@model_path/weights/weight.bin"), offset = tensor<uint64, []>(25183744)))];
            tensor<fp16, [384]> pretrained_blocks_6_mlp_fc2_bias_to_fp16 = const()[name = tensor<string, []>("pretrained_blocks_6_mlp_fc2_bias_to_fp16"), val = tensor<fp16, [384]>(BLOBFILE(path = tensor<string, []>("@model_path/weights/weight.bin"), offset = tensor<uint64, []>(26363456)))];
            tensor<fp16, [1, 1370, 384]> linear_27_cast_fp16 = linear(bias = pretrained_blocks_6_mlp_fc2_bias_to_fp16, weight = pretrained_blocks_6_mlp_fc2_weight_to_fp16, x = input_135_cast_fp16)[name = tensor<string, []>("linear_27_cast_fp16")];
            tensor<fp16, [384]> pretrained_blocks_6_ls2_gamma_to_fp16 = const()[name = tensor<string, []>("pretrained_blocks_6_ls2_gamma_to_fp16"), val = tensor<fp16, [384]>(BLOBFILE(path = tensor<string, []>("@model_path/weights/weight.bin"), offset = tensor<uint64, []>(26364288)))];
            tensor<fp16, [1, 1370, 384]> var_647_cast_fp16 = mul(x = linear_27_cast_fp16, y = pretrained_blocks_6_ls2_gamma_to_fp16)[name = tensor<string, []>("op_647_cast_fp16")];
            tensor<fp16, [1, 1370, 384]> input_141_cast_fp16 = add(x = input_129_cast_fp16, y = var_647_cast_fp16)[name = tensor<string, []>("input_141_cast_fp16")];
            tensor<int32, []> var_658 = const()[name = tensor<string, []>("op_658"), val = tensor<int32, []>(-1)];
            tensor<int32, [1]> x_51_axes_0 = const()[name = tensor<string, []>("x_51_axes_0"), val = tensor<int32, [1]>([-1])];
            tensor<fp16, [384]> pretrained_blocks_7_norm1_weight_to_fp16 = const()[name = tensor<string, []>("pretrained_blocks_7_norm1_weight_to_fp16"), val = tensor<fp16, [384]>(BLOBFILE(path = tensor<string, []>("@model_path/weights/weight.bin"), offset = tensor<uint64, []>(26365120)))];
            tensor<fp16, [384]> pretrained_blocks_7_norm1_bias_to_fp16 = const()[name = tensor<string, []>("pretrained_blocks_7_norm1_bias_to_fp16"), val = tensor<fp16, [384]>(BLOBFILE(path = tensor<string, []>("@model_path/weights/weight.bin"), offset = tensor<uint64, []>(26365952)))];
            tensor<fp16, []> var_663_to_fp16 = const()[name = tensor<string, []>("op_663_to_fp16"), val = tensor<fp16, []>(0x1.1p-20)];
            tensor<fp16, [1, 1370, 384]> x_51_cast_fp16 = layer_norm(axes = x_51_axes_0, beta = pretrained_blocks_7_norm1_bias_to_fp16, epsilon = var_663_to_fp16, gamma = pretrained_blocks_7_norm1_weight_to_fp16, x = input_141_cast_fp16)[name = tensor<string, []>("x_51_cast_fp16")];
            tensor<fp16, [1152, 384]> pretrained_blocks_7_attn_qkv_weight_to_fp16 = const()[name = tensor<string, []>("pretrained_blocks_7_attn_qkv_weight_to_fp16"), val = tensor<fp16, [1152, 384]>(BLOBFILE(path = tensor<string, []>("@model_path/weights/weight.bin"), offset = tensor<uint64, []>(26366784)))];
            tensor<fp16, [1152]> pretrained_blocks_7_attn_qkv_bias_to_fp16 = const()[name = tensor<string, []>("pretrained_blocks_7_attn_qkv_bias_to_fp16"), val = tensor<fp16, [1152]>(BLOBFILE(path = tensor<string, []>("@model_path/weights/weight.bin"), offset = tensor<uint64, []>(27251584)))];
            tensor<fp16, [1, 1370, 1152]> linear_28_cast_fp16 = linear(bias = pretrained_blocks_7_attn_qkv_bias_to_fp16, weight = pretrained_blocks_7_attn_qkv_weight_to_fp16, x = x_51_cast_fp16)[name = tensor<string, []>("linear_28_cast_fp16")];
            tensor<int32, [5]> var_686 = const()[name = tensor<string, []>("op_686"), val = tensor<int32, [5]>([1, 1370, 3, 6, 64])];
            tensor<fp16, [1, 1370, 3, 6, 64]> var_687_cast_fp16 = reshape(shape = var_686, x = linear_28_cast_fp16)[name = tensor<string, []>("op_687_cast_fp16")];
            tensor<int32, [5]> var_688 = const()[name = tensor<string, []>("op_688"), val = tensor<int32, [5]>([2, 0, 3, 1, 4])];
            tensor<int32, [5]> var_690_begin_0 = const()[name = tensor<string, []>("op_690_begin_0"), val = tensor<int32, [5]>([0, 0, 0, 0, 0])];
            tensor<int32, [5]> var_690_end_0 = const()[name = tensor<string, []>("op_690_end_0"), val = tensor<int32, [5]>([1, 1, 6, 1370, 64])];
            tensor<bool, [5]> var_690_end_mask_0 = const()[name = tensor<string, []>("op_690_end_mask_0"), val = tensor<bool, [5]>([false, true, true, true, true])];
            tensor<bool, [5]> var_690_squeeze_mask_0 = const()[name = tensor<string, []>("op_690_squeeze_mask_0"), val = tensor<bool, [5]>([true, false, false, false, false])];
            tensor<fp16, [3, 1, 6, 1370, 64]> qkv_15_cast_fp16 = transpose(perm = var_688, x = var_687_cast_fp16)[name = tensor<string, []>("transpose_13")];
            tensor<fp16, [1, 6, 1370, 64]> var_690_cast_fp16 = slice_by_index(begin = var_690_begin_0, end = var_690_end_0, end_mask = var_690_end_mask_0, squeeze_mask = var_690_squeeze_mask_0, x = qkv_15_cast_fp16)[name = tensor<string, []>("op_690_cast_fp16")];
            tensor<fp16, []> var_691_to_fp16 = const()[name = tensor<string, []>("op_691_to_fp16"), val = tensor<fp16, []>(0x1p-3)];
            tensor<fp16, [1, 6, 1370, 64]> q_15_cast_fp16 = mul(x = var_690_cast_fp16, y = var_691_to_fp16)[name = tensor<string, []>("q_15_cast_fp16")];
            tensor<int32, [5]> k_15_begin_0 = const()[name = tensor<string, []>("k_15_begin_0"), val = tensor<int32, [5]>([1, 0, 0, 0, 0])];
            tensor<int32, [5]> k_15_end_0 = const()[name = tensor<string, []>("k_15_end_0"), val = tensor<int32, [5]>([2, 1, 6, 1370, 64])];
            tensor<bool, [5]> k_15_end_mask_0 = const()[name = tensor<string, []>("k_15_end_mask_0"), val = tensor<bool, [5]>([false, true, true, true, true])];
            tensor<bool, [5]> k_15_squeeze_mask_0 = const()[name = tensor<string, []>("k_15_squeeze_mask_0"), val = tensor<bool, [5]>([true, false, false, false, false])];
            tensor<fp16, [1, 6, 1370, 64]> k_15_cast_fp16 = slice_by_index(begin = k_15_begin_0, end = k_15_end_0, end_mask = k_15_end_mask_0, squeeze_mask = k_15_squeeze_mask_0, x = qkv_15_cast_fp16)[name = tensor<string, []>("k_15_cast_fp16")];
            tensor<int32, [5]> v_15_begin_0 = const()[name = tensor<string, []>("v_15_begin_0"), val = tensor<int32, [5]>([2, 0, 0, 0, 0])];
            tensor<int32, [5]> v_15_end_0 = const()[name = tensor<string, []>("v_15_end_0"), val = tensor<int32, [5]>([3, 1, 6, 1370, 64])];
            tensor<bool, [5]> v_15_end_mask_0 = const()[name = tensor<string, []>("v_15_end_mask_0"), val = tensor<bool, [5]>([false, true, true, true, true])];
            tensor<bool, [5]> v_15_squeeze_mask_0 = const()[name = tensor<string, []>("v_15_squeeze_mask_0"), val = tensor<bool, [5]>([true, false, false, false, false])];
            tensor<fp16, [1, 6, 1370, 64]> v_15_cast_fp16 = slice_by_index(begin = v_15_begin_0, end = v_15_end_0, end_mask = v_15_end_mask_0, squeeze_mask = v_15_squeeze_mask_0, x = qkv_15_cast_fp16)[name = tensor<string, []>("v_15_cast_fp16")];
            tensor<bool, []> attn_29_transpose_x_1 = const()[name = tensor<string, []>("attn_29_transpose_x_1"), val = tensor<bool, []>(false)];
            tensor<bool, []> attn_29_transpose_y_1 = const()[name = tensor<string, []>("attn_29_transpose_y_1"), val = tensor<bool, []>(true)];
            tensor<fp16, [1, 6, 1370, 1370]> attn_29_cast_fp16 = matmul(transpose_x = attn_29_transpose_x_1, transpose_y = attn_29_transpose_y_1, x = q_15_cast_fp16, y = k_15_cast_fp16)[name = tensor<string, []>("attn_29_cast_fp16")];
            tensor<fp16, [1, 6, 1370, 1370]> input_143_cast_fp16 = softmax(axis = var_658, x = attn_29_cast_fp16)[name = tensor<string, []>("input_143_cast_fp16")];
            tensor<bool, []> var_699_transpose_x_0 = const()[name = tensor<string, []>("op_699_transpose_x_0"), val = tensor<bool, []>(false)];
            tensor<bool, []> var_699_transpose_y_0 = const()[name = tensor<string, []>("op_699_transpose_y_0"), val = tensor<bool, []>(false)];
            tensor<fp16, [1, 6, 1370, 64]> var_699_cast_fp16 = matmul(transpose_x = var_699_transpose_x_0, transpose_y = var_699_transpose_y_0, x = input_143_cast_fp16, y = v_15_cast_fp16)[name = tensor<string, []>("op_699_cast_fp16")];
            tensor<int32, [4]> var_700_perm_0 = const()[name = tensor<string, []>("op_700_perm_0"), val = tensor<int32, [4]>([0, 2, 1, 3])];
            tensor<int32, [3]> var_701 = const()[name = tensor<string, []>("op_701"), val = tensor<int32, [3]>([1, 1370, 384])];
            tensor<fp16, [1, 1370, 6, 64]> var_700_cast_fp16 = transpose(perm = var_700_perm_0, x = var_699_cast_fp16)[name = tensor<string, []>("transpose_12")];
            tensor<fp16, [1, 1370, 384]> input_145_cast_fp16 = reshape(shape = var_701, x = var_700_cast_fp16)[name = tensor<string, []>("input_145_cast_fp16")];
            tensor<fp16, [384, 384]> pretrained_blocks_7_attn_proj_weight_to_fp16 = const()[name = tensor<string, []>("pretrained_blocks_7_attn_proj_weight_to_fp16"), val = tensor<fp16, [384, 384]>(BLOBFILE(path = tensor<string, []>("@model_path/weights/weight.bin"), offset = tensor<uint64, []>(27253952)))];
            tensor<fp16, [384]> pretrained_blocks_7_attn_proj_bias_to_fp16 = const()[name = tensor<string, []>("pretrained_blocks_7_attn_proj_bias_to_fp16"), val = tensor<fp16, [384]>(BLOBFILE(path = tensor<string, []>("@model_path/weights/weight.bin"), offset = tensor<uint64, []>(27548928)))];
            tensor<fp16, [1, 1370, 384]> linear_29_cast_fp16 = linear(bias = pretrained_blocks_7_attn_proj_bias_to_fp16, weight = pretrained_blocks_7_attn_proj_weight_to_fp16, x = input_145_cast_fp16)[name = tensor<string, []>("linear_29_cast_fp16")];
            tensor<fp16, [384]> pretrained_blocks_7_ls1_gamma_to_fp16 = const()[name = tensor<string, []>("pretrained_blocks_7_ls1_gamma_to_fp16"), val = tensor<fp16, [384]>(BLOBFILE(path = tensor<string, []>("@model_path/weights/weight.bin"), offset = tensor<uint64, []>(27549760)))];
            tensor<fp16, [1, 1370, 384]> var_708_cast_fp16 = mul(x = linear_29_cast_fp16, y = pretrained_blocks_7_ls1_gamma_to_fp16)[name = tensor<string, []>("op_708_cast_fp16")];
            tensor<fp16, [1, 1370, 384]> input_149_cast_fp16 = add(x = input_141_cast_fp16, y = var_708_cast_fp16)[name = tensor<string, []>("input_149_cast_fp16")];
            tensor<int32, [1]> input_151_axes_0 = const()[name = tensor<string, []>("input_151_axes_0"), val = tensor<int32, [1]>([-1])];
            tensor<fp16, [384]> pretrained_blocks_7_norm2_weight_to_fp16 = const()[name = tensor<string, []>("pretrained_blocks_7_norm2_weight_to_fp16"), val = tensor<fp16, [384]>(BLOBFILE(path = tensor<string, []>("@model_path/weights/weight.bin"), offset = tensor<uint64, []>(27550592)))];
            tensor<fp16, [384]> pretrained_blocks_7_norm2_bias_to_fp16 = const()[name = tensor<string, []>("pretrained_blocks_7_norm2_bias_to_fp16"), val = tensor<fp16, [384]>(BLOBFILE(path = tensor<string, []>("@model_path/weights/weight.bin"), offset = tensor<uint64, []>(27551424)))];
            tensor<fp16, [1, 1370, 384]> input_151_cast_fp16 = layer_norm(axes = input_151_axes_0, beta = pretrained_blocks_7_norm2_bias_to_fp16, epsilon = var_663_to_fp16, gamma = pretrained_blocks_7_norm2_weight_to_fp16, x = input_149_cast_fp16)[name = tensor<string, []>("input_151_cast_fp16")];
            tensor<fp16, [1536, 384]> pretrained_blocks_7_mlp_fc1_weight_to_fp16 = const()[name = tensor<string, []>("pretrained_blocks_7_mlp_fc1_weight_to_fp16"), val = tensor<fp16, [1536, 384]>(BLOBFILE(path = tensor<string, []>("@model_path/weights/weight.bin"), offset = tensor<uint64, []>(27552256)))];
            tensor<fp16, [1536]> pretrained_blocks_7_mlp_fc1_bias_to_fp16 = const()[name = tensor<string, []>("pretrained_blocks_7_mlp_fc1_bias_to_fp16"), val = tensor<fp16, [1536]>(BLOBFILE(path = tensor<string, []>("@model_path/weights/weight.bin"), offset = tensor<uint64, []>(28731968)))];
            tensor<fp16, [1, 1370, 1536]> linear_30_cast_fp16 = linear(bias = pretrained_blocks_7_mlp_fc1_bias_to_fp16, weight = pretrained_blocks_7_mlp_fc1_weight_to_fp16, x = input_151_cast_fp16)[name = tensor<string, []>("linear_30_cast_fp16")];
            tensor<string, []> input_155_mode_0 = const()[name = tensor<string, []>("input_155_mode_0"), val = tensor<string, []>("EXACT")];
            tensor<fp16, [1, 1370, 1536]> input_155_cast_fp16 = gelu(mode = input_155_mode_0, x = linear_30_cast_fp16)[name = tensor<string, []>("input_155_cast_fp16")];
            tensor<fp16, [384, 1536]> pretrained_blocks_7_mlp_fc2_weight_to_fp16 = const()[name = tensor<string, []>("pretrained_blocks_7_mlp_fc2_weight_to_fp16"), val = tensor<fp16, [384, 1536]>(BLOBFILE(path = tensor<string, []>("@model_path/weights/weight.bin"), offset = tensor<uint64, []>(28735104)))];
            tensor<fp16, [384]> pretrained_blocks_7_mlp_fc2_bias_to_fp16 = const()[name = tensor<string, []>("pretrained_blocks_7_mlp_fc2_bias_to_fp16"), val = tensor<fp16, [384]>(BLOBFILE(path = tensor<string, []>("@model_path/weights/weight.bin"), offset = tensor<uint64, []>(29914816)))];
            tensor<fp16, [1, 1370, 384]> linear_31_cast_fp16 = linear(bias = pretrained_blocks_7_mlp_fc2_bias_to_fp16, weight = pretrained_blocks_7_mlp_fc2_weight_to_fp16, x = input_155_cast_fp16)[name = tensor<string, []>("linear_31_cast_fp16")];
            tensor<fp16, [384]> pretrained_blocks_7_ls2_gamma_to_fp16 = const()[name = tensor<string, []>("pretrained_blocks_7_ls2_gamma_to_fp16"), val = tensor<fp16, [384]>(BLOBFILE(path = tensor<string, []>("@model_path/weights/weight.bin"), offset = tensor<uint64, []>(29915648)))];
            tensor<fp16, [1, 1370, 384]> var_726_cast_fp16 = mul(x = linear_31_cast_fp16, y = pretrained_blocks_7_ls2_gamma_to_fp16)[name = tensor<string, []>("op_726_cast_fp16")];
            tensor<fp16, [1, 1370, 384]> input_161_cast_fp16 = add(x = input_149_cast_fp16, y = var_726_cast_fp16)[name = tensor<string, []>("input_161_cast_fp16")];
            tensor<int32, []> var_737 = const()[name = tensor<string, []>("op_737"), val = tensor<int32, []>(-1)];
            tensor<int32, [1]> x_57_axes_0 = const()[name = tensor<string, []>("x_57_axes_0"), val = tensor<int32, [1]>([-1])];
            tensor<fp16, [384]> pretrained_blocks_8_norm1_weight_to_fp16 = const()[name = tensor<string, []>("pretrained_blocks_8_norm1_weight_to_fp16"), val = tensor<fp16, [384]>(BLOBFILE(path = tensor<string, []>("@model_path/weights/weight.bin"), offset = tensor<uint64, []>(29916480)))];
            tensor<fp16, [384]> pretrained_blocks_8_norm1_bias_to_fp16 = const()[name = tensor<string, []>("pretrained_blocks_8_norm1_bias_to_fp16"), val = tensor<fp16, [384]>(BLOBFILE(path = tensor<string, []>("@model_path/weights/weight.bin"), offset = tensor<uint64, []>(29917312)))];
            tensor<fp16, []> var_742_to_fp16 = const()[name = tensor<string, []>("op_742_to_fp16"), val = tensor<fp16, []>(0x1.1p-20)];
            tensor<fp16, [1, 1370, 384]> x_57_cast_fp16 = layer_norm(axes = x_57_axes_0, beta = pretrained_blocks_8_norm1_bias_to_fp16, epsilon = var_742_to_fp16, gamma = pretrained_blocks_8_norm1_weight_to_fp16, x = input_161_cast_fp16)[name = tensor<string, []>("x_57_cast_fp16")];
            tensor<fp16, [1152, 384]> pretrained_blocks_8_attn_qkv_weight_to_fp16 = const()[name = tensor<string, []>("pretrained_blocks_8_attn_qkv_weight_to_fp16"), val = tensor<fp16, [1152, 384]>(BLOBFILE(path = tensor<string, []>("@model_path/weights/weight.bin"), offset = tensor<uint64, []>(29918144)))];
            tensor<fp16, [1152]> pretrained_blocks_8_attn_qkv_bias_to_fp16 = const()[name = tensor<string, []>("pretrained_blocks_8_attn_qkv_bias_to_fp16"), val = tensor<fp16, [1152]>(BLOBFILE(path = tensor<string, []>("@model_path/weights/weight.bin"), offset = tensor<uint64, []>(30802944)))];
            tensor<fp16, [1, 1370, 1152]> linear_32_cast_fp16 = linear(bias = pretrained_blocks_8_attn_qkv_bias_to_fp16, weight = pretrained_blocks_8_attn_qkv_weight_to_fp16, x = x_57_cast_fp16)[name = tensor<string, []>("linear_32_cast_fp16")];
            tensor<int32, [5]> var_765 = const()[name = tensor<string, []>("op_765"), val = tensor<int32, [5]>([1, 1370, 3, 6, 64])];
            tensor<fp16, [1, 1370, 3, 6, 64]> var_766_cast_fp16 = reshape(shape = var_765, x = linear_32_cast_fp16)[name = tensor<string, []>("op_766_cast_fp16")];
            tensor<int32, [5]> var_767 = const()[name = tensor<string, []>("op_767"), val = tensor<int32, [5]>([2, 0, 3, 1, 4])];
            tensor<int32, [5]> var_769_begin_0 = const()[name = tensor<string, []>("op_769_begin_0"), val = tensor<int32, [5]>([0, 0, 0, 0, 0])];
            tensor<int32, [5]> var_769_end_0 = const()[name = tensor<string, []>("op_769_end_0"), val = tensor<int32, [5]>([1, 1, 6, 1370, 64])];
            tensor<bool, [5]> var_769_end_mask_0 = const()[name = tensor<string, []>("op_769_end_mask_0"), val = tensor<bool, [5]>([false, true, true, true, true])];
            tensor<bool, [5]> var_769_squeeze_mask_0 = const()[name = tensor<string, []>("op_769_squeeze_mask_0"), val = tensor<bool, [5]>([true, false, false, false, false])];
            tensor<fp16, [3, 1, 6, 1370, 64]> qkv_17_cast_fp16 = transpose(perm = var_767, x = var_766_cast_fp16)[name = tensor<string, []>("transpose_11")];
            tensor<fp16, [1, 6, 1370, 64]> var_769_cast_fp16 = slice_by_index(begin = var_769_begin_0, end = var_769_end_0, end_mask = var_769_end_mask_0, squeeze_mask = var_769_squeeze_mask_0, x = qkv_17_cast_fp16)[name = tensor<string, []>("op_769_cast_fp16")];
            tensor<fp16, []> var_770_to_fp16 = const()[name = tensor<string, []>("op_770_to_fp16"), val = tensor<fp16, []>(0x1p-3)];
            tensor<fp16, [1, 6, 1370, 64]> q_17_cast_fp16 = mul(x = var_769_cast_fp16, y = var_770_to_fp16)[name = tensor<string, []>("q_17_cast_fp16")];
            tensor<int32, [5]> k_17_begin_0 = const()[name = tensor<string, []>("k_17_begin_0"), val = tensor<int32, [5]>([1, 0, 0, 0, 0])];
            tensor<int32, [5]> k_17_end_0 = const()[name = tensor<string, []>("k_17_end_0"), val = tensor<int32, [5]>([2, 1, 6, 1370, 64])];
            tensor<bool, [5]> k_17_end_mask_0 = const()[name = tensor<string, []>("k_17_end_mask_0"), val = tensor<bool, [5]>([false, true, true, true, true])];
            tensor<bool, [5]> k_17_squeeze_mask_0 = const()[name = tensor<string, []>("k_17_squeeze_mask_0"), val = tensor<bool, [5]>([true, false, false, false, false])];
            tensor<fp16, [1, 6, 1370, 64]> k_17_cast_fp16 = slice_by_index(begin = k_17_begin_0, end = k_17_end_0, end_mask = k_17_end_mask_0, squeeze_mask = k_17_squeeze_mask_0, x = qkv_17_cast_fp16)[name = tensor<string, []>("k_17_cast_fp16")];
            tensor<int32, [5]> v_17_begin_0 = const()[name = tensor<string, []>("v_17_begin_0"), val = tensor<int32, [5]>([2, 0, 0, 0, 0])];
            tensor<int32, [5]> v_17_end_0 = const()[name = tensor<string, []>("v_17_end_0"), val = tensor<int32, [5]>([3, 1, 6, 1370, 64])];
            tensor<bool, [5]> v_17_end_mask_0 = const()[name = tensor<string, []>("v_17_end_mask_0"), val = tensor<bool, [5]>([false, true, true, true, true])];
            tensor<bool, [5]> v_17_squeeze_mask_0 = const()[name = tensor<string, []>("v_17_squeeze_mask_0"), val = tensor<bool, [5]>([true, false, false, false, false])];
            tensor<fp16, [1, 6, 1370, 64]> v_17_cast_fp16 = slice_by_index(begin = v_17_begin_0, end = v_17_end_0, end_mask = v_17_end_mask_0, squeeze_mask = v_17_squeeze_mask_0, x = qkv_17_cast_fp16)[name = tensor<string, []>("v_17_cast_fp16")];
            tensor<bool, []> attn_33_transpose_x_1 = const()[name = tensor<string, []>("attn_33_transpose_x_1"), val = tensor<bool, []>(false)];
            tensor<bool, []> attn_33_transpose_y_1 = const()[name = tensor<string, []>("attn_33_transpose_y_1"), val = tensor<bool, []>(true)];
            tensor<fp16, [1, 6, 1370, 1370]> attn_33_cast_fp16 = matmul(transpose_x = attn_33_transpose_x_1, transpose_y = attn_33_transpose_y_1, x = q_17_cast_fp16, y = k_17_cast_fp16)[name = tensor<string, []>("attn_33_cast_fp16")];
            tensor<fp16, [1, 6, 1370, 1370]> input_163_cast_fp16 = softmax(axis = var_737, x = attn_33_cast_fp16)[name = tensor<string, []>("input_163_cast_fp16")];
            tensor<bool, []> var_778_transpose_x_0 = const()[name = tensor<string, []>("op_778_transpose_x_0"), val = tensor<bool, []>(false)];
            tensor<bool, []> var_778_transpose_y_0 = const()[name = tensor<string, []>("op_778_transpose_y_0"), val = tensor<bool, []>(false)];
            tensor<fp16, [1, 6, 1370, 64]> var_778_cast_fp16 = matmul(transpose_x = var_778_transpose_x_0, transpose_y = var_778_transpose_y_0, x = input_163_cast_fp16, y = v_17_cast_fp16)[name = tensor<string, []>("op_778_cast_fp16")];
            tensor<int32, [4]> var_779_perm_0 = const()[name = tensor<string, []>("op_779_perm_0"), val = tensor<int32, [4]>([0, 2, 1, 3])];
            tensor<int32, [3]> var_780 = const()[name = tensor<string, []>("op_780"), val = tensor<int32, [3]>([1, 1370, 384])];
            tensor<fp16, [1, 1370, 6, 64]> var_779_cast_fp16 = transpose(perm = var_779_perm_0, x = var_778_cast_fp16)[name = tensor<string, []>("transpose_10")];
            tensor<fp16, [1, 1370, 384]> input_165_cast_fp16 = reshape(shape = var_780, x = var_779_cast_fp16)[name = tensor<string, []>("input_165_cast_fp16")];
            tensor<fp16, [384, 384]> pretrained_blocks_8_attn_proj_weight_to_fp16 = const()[name = tensor<string, []>("pretrained_blocks_8_attn_proj_weight_to_fp16"), val = tensor<fp16, [384, 384]>(BLOBFILE(path = tensor<string, []>("@model_path/weights/weight.bin"), offset = tensor<uint64, []>(30805312)))];
            tensor<fp16, [384]> pretrained_blocks_8_attn_proj_bias_to_fp16 = const()[name = tensor<string, []>("pretrained_blocks_8_attn_proj_bias_to_fp16"), val = tensor<fp16, [384]>(BLOBFILE(path = tensor<string, []>("@model_path/weights/weight.bin"), offset = tensor<uint64, []>(31100288)))];
            tensor<fp16, [1, 1370, 384]> linear_33_cast_fp16 = linear(bias = pretrained_blocks_8_attn_proj_bias_to_fp16, weight = pretrained_blocks_8_attn_proj_weight_to_fp16, x = input_165_cast_fp16)[name = tensor<string, []>("linear_33_cast_fp16")];
            tensor<fp16, [384]> pretrained_blocks_8_ls1_gamma_to_fp16 = const()[name = tensor<string, []>("pretrained_blocks_8_ls1_gamma_to_fp16"), val = tensor<fp16, [384]>(BLOBFILE(path = tensor<string, []>("@model_path/weights/weight.bin"), offset = tensor<uint64, []>(31101120)))];
            tensor<fp16, [1, 1370, 384]> var_787_cast_fp16 = mul(x = linear_33_cast_fp16, y = pretrained_blocks_8_ls1_gamma_to_fp16)[name = tensor<string, []>("op_787_cast_fp16")];
            tensor<fp16, [1, 1370, 384]> input_169_cast_fp16 = add(x = input_161_cast_fp16, y = var_787_cast_fp16)[name = tensor<string, []>("input_169_cast_fp16")];
            tensor<int32, [1]> input_171_axes_0 = const()[name = tensor<string, []>("input_171_axes_0"), val = tensor<int32, [1]>([-1])];
            tensor<fp16, [384]> pretrained_blocks_8_norm2_weight_to_fp16 = const()[name = tensor<string, []>("pretrained_blocks_8_norm2_weight_to_fp16"), val = tensor<fp16, [384]>(BLOBFILE(path = tensor<string, []>("@model_path/weights/weight.bin"), offset = tensor<uint64, []>(31101952)))];
            tensor<fp16, [384]> pretrained_blocks_8_norm2_bias_to_fp16 = const()[name = tensor<string, []>("pretrained_blocks_8_norm2_bias_to_fp16"), val = tensor<fp16, [384]>(BLOBFILE(path = tensor<string, []>("@model_path/weights/weight.bin"), offset = tensor<uint64, []>(31102784)))];
            tensor<fp16, [1, 1370, 384]> input_171_cast_fp16 = layer_norm(axes = input_171_axes_0, beta = pretrained_blocks_8_norm2_bias_to_fp16, epsilon = var_742_to_fp16, gamma = pretrained_blocks_8_norm2_weight_to_fp16, x = input_169_cast_fp16)[name = tensor<string, []>("input_171_cast_fp16")];
            tensor<fp16, [1536, 384]> pretrained_blocks_8_mlp_fc1_weight_to_fp16 = const()[name = tensor<string, []>("pretrained_blocks_8_mlp_fc1_weight_to_fp16"), val = tensor<fp16, [1536, 384]>(BLOBFILE(path = tensor<string, []>("@model_path/weights/weight.bin"), offset = tensor<uint64, []>(31103616)))];
            tensor<fp16, [1536]> pretrained_blocks_8_mlp_fc1_bias_to_fp16 = const()[name = tensor<string, []>("pretrained_blocks_8_mlp_fc1_bias_to_fp16"), val = tensor<fp16, [1536]>(BLOBFILE(path = tensor<string, []>("@model_path/weights/weight.bin"), offset = tensor<uint64, []>(32283328)))];
            tensor<fp16, [1, 1370, 1536]> linear_34_cast_fp16 = linear(bias = pretrained_blocks_8_mlp_fc1_bias_to_fp16, weight = pretrained_blocks_8_mlp_fc1_weight_to_fp16, x = input_171_cast_fp16)[name = tensor<string, []>("linear_34_cast_fp16")];
            tensor<string, []> input_175_mode_0 = const()[name = tensor<string, []>("input_175_mode_0"), val = tensor<string, []>("EXACT")];
            tensor<fp16, [1, 1370, 1536]> input_175_cast_fp16 = gelu(mode = input_175_mode_0, x = linear_34_cast_fp16)[name = tensor<string, []>("input_175_cast_fp16")];
            tensor<fp16, [384, 1536]> pretrained_blocks_8_mlp_fc2_weight_to_fp16 = const()[name = tensor<string, []>("pretrained_blocks_8_mlp_fc2_weight_to_fp16"), val = tensor<fp16, [384, 1536]>(BLOBFILE(path = tensor<string, []>("@model_path/weights/weight.bin"), offset = tensor<uint64, []>(32286464)))];
            tensor<fp16, [384]> pretrained_blocks_8_mlp_fc2_bias_to_fp16 = const()[name = tensor<string, []>("pretrained_blocks_8_mlp_fc2_bias_to_fp16"), val = tensor<fp16, [384]>(BLOBFILE(path = tensor<string, []>("@model_path/weights/weight.bin"), offset = tensor<uint64, []>(33466176)))];
            tensor<fp16, [1, 1370, 384]> linear_35_cast_fp16 = linear(bias = pretrained_blocks_8_mlp_fc2_bias_to_fp16, weight = pretrained_blocks_8_mlp_fc2_weight_to_fp16, x = input_175_cast_fp16)[name = tensor<string, []>("linear_35_cast_fp16")];
            tensor<fp16, [384]> pretrained_blocks_8_ls2_gamma_to_fp16 = const()[name = tensor<string, []>("pretrained_blocks_8_ls2_gamma_to_fp16"), val = tensor<fp16, [384]>(BLOBFILE(path = tensor<string, []>("@model_path/weights/weight.bin"), offset = tensor<uint64, []>(33467008)))];
            tensor<fp16, [1, 1370, 384]> var_805_cast_fp16 = mul(x = linear_35_cast_fp16, y = pretrained_blocks_8_ls2_gamma_to_fp16)[name = tensor<string, []>("op_805_cast_fp16")];
            tensor<fp16, [1, 1370, 384]> input_181_cast_fp16 = add(x = input_169_cast_fp16, y = var_805_cast_fp16)[name = tensor<string, []>("input_181_cast_fp16")];
            tensor<int32, []> var_816 = const()[name = tensor<string, []>("op_816"), val = tensor<int32, []>(-1)];
            tensor<int32, [1]> x_63_axes_0 = const()[name = tensor<string, []>("x_63_axes_0"), val = tensor<int32, [1]>([-1])];
            tensor<fp16, [384]> pretrained_blocks_9_norm1_weight_to_fp16 = const()[name = tensor<string, []>("pretrained_blocks_9_norm1_weight_to_fp16"), val = tensor<fp16, [384]>(BLOBFILE(path = tensor<string, []>("@model_path/weights/weight.bin"), offset = tensor<uint64, []>(33467840)))];
            tensor<fp16, [384]> pretrained_blocks_9_norm1_bias_to_fp16 = const()[name = tensor<string, []>("pretrained_blocks_9_norm1_bias_to_fp16"), val = tensor<fp16, [384]>(BLOBFILE(path = tensor<string, []>("@model_path/weights/weight.bin"), offset = tensor<uint64, []>(33468672)))];
            tensor<fp16, []> var_821_to_fp16 = const()[name = tensor<string, []>("op_821_to_fp16"), val = tensor<fp16, []>(0x1.1p-20)];
            tensor<fp16, [1, 1370, 384]> x_63_cast_fp16 = layer_norm(axes = x_63_axes_0, beta = pretrained_blocks_9_norm1_bias_to_fp16, epsilon = var_821_to_fp16, gamma = pretrained_blocks_9_norm1_weight_to_fp16, x = input_181_cast_fp16)[name = tensor<string, []>("x_63_cast_fp16")];
            tensor<fp16, [1152, 384]> pretrained_blocks_9_attn_qkv_weight_to_fp16 = const()[name = tensor<string, []>("pretrained_blocks_9_attn_qkv_weight_to_fp16"), val = tensor<fp16, [1152, 384]>(BLOBFILE(path = tensor<string, []>("@model_path/weights/weight.bin"), offset = tensor<uint64, []>(33469504)))];
            tensor<fp16, [1152]> pretrained_blocks_9_attn_qkv_bias_to_fp16 = const()[name = tensor<string, []>("pretrained_blocks_9_attn_qkv_bias_to_fp16"), val = tensor<fp16, [1152]>(BLOBFILE(path = tensor<string, []>("@model_path/weights/weight.bin"), offset = tensor<uint64, []>(34354304)))];
            tensor<fp16, [1, 1370, 1152]> linear_36_cast_fp16 = linear(bias = pretrained_blocks_9_attn_qkv_bias_to_fp16, weight = pretrained_blocks_9_attn_qkv_weight_to_fp16, x = x_63_cast_fp16)[name = tensor<string, []>("linear_36_cast_fp16")];
            tensor<int32, [5]> var_844 = const()[name = tensor<string, []>("op_844"), val = tensor<int32, [5]>([1, 1370, 3, 6, 64])];
            tensor<fp16, [1, 1370, 3, 6, 64]> var_845_cast_fp16 = reshape(shape = var_844, x = linear_36_cast_fp16)[name = tensor<string, []>("op_845_cast_fp16")];
            tensor<int32, [5]> var_846 = const()[name = tensor<string, []>("op_846"), val = tensor<int32, [5]>([2, 0, 3, 1, 4])];
            tensor<int32, [5]> var_848_begin_0 = const()[name = tensor<string, []>("op_848_begin_0"), val = tensor<int32, [5]>([0, 0, 0, 0, 0])];
            tensor<int32, [5]> var_848_end_0 = const()[name = tensor<string, []>("op_848_end_0"), val = tensor<int32, [5]>([1, 1, 6, 1370, 64])];
            tensor<bool, [5]> var_848_end_mask_0 = const()[name = tensor<string, []>("op_848_end_mask_0"), val = tensor<bool, [5]>([false, true, true, true, true])];
            tensor<bool, [5]> var_848_squeeze_mask_0 = const()[name = tensor<string, []>("op_848_squeeze_mask_0"), val = tensor<bool, [5]>([true, false, false, false, false])];
            tensor<fp16, [3, 1, 6, 1370, 64]> qkv_19_cast_fp16 = transpose(perm = var_846, x = var_845_cast_fp16)[name = tensor<string, []>("transpose_9")];
            tensor<fp16, [1, 6, 1370, 64]> var_848_cast_fp16 = slice_by_index(begin = var_848_begin_0, end = var_848_end_0, end_mask = var_848_end_mask_0, squeeze_mask = var_848_squeeze_mask_0, x = qkv_19_cast_fp16)[name = tensor<string, []>("op_848_cast_fp16")];
            tensor<fp16, []> var_849_to_fp16 = const()[name = tensor<string, []>("op_849_to_fp16"), val = tensor<fp16, []>(0x1p-3)];
            tensor<fp16, [1, 6, 1370, 64]> q_19_cast_fp16 = mul(x = var_848_cast_fp16, y = var_849_to_fp16)[name = tensor<string, []>("q_19_cast_fp16")];
            tensor<int32, [5]> k_19_begin_0 = const()[name = tensor<string, []>("k_19_begin_0"), val = tensor<int32, [5]>([1, 0, 0, 0, 0])];
            tensor<int32, [5]> k_19_end_0 = const()[name = tensor<string, []>("k_19_end_0"), val = tensor<int32, [5]>([2, 1, 6, 1370, 64])];
            tensor<bool, [5]> k_19_end_mask_0 = const()[name = tensor<string, []>("k_19_end_mask_0"), val = tensor<bool, [5]>([false, true, true, true, true])];
            tensor<bool, [5]> k_19_squeeze_mask_0 = const()[name = tensor<string, []>("k_19_squeeze_mask_0"), val = tensor<bool, [5]>([true, false, false, false, false])];
            tensor<fp16, [1, 6, 1370, 64]> k_19_cast_fp16 = slice_by_index(begin = k_19_begin_0, end = k_19_end_0, end_mask = k_19_end_mask_0, squeeze_mask = k_19_squeeze_mask_0, x = qkv_19_cast_fp16)[name = tensor<string, []>("k_19_cast_fp16")];
            tensor<int32, [5]> v_19_begin_0 = const()[name = tensor<string, []>("v_19_begin_0"), val = tensor<int32, [5]>([2, 0, 0, 0, 0])];
            tensor<int32, [5]> v_19_end_0 = const()[name = tensor<string, []>("v_19_end_0"), val = tensor<int32, [5]>([3, 1, 6, 1370, 64])];
            tensor<bool, [5]> v_19_end_mask_0 = const()[name = tensor<string, []>("v_19_end_mask_0"), val = tensor<bool, [5]>([false, true, true, true, true])];
            tensor<bool, [5]> v_19_squeeze_mask_0 = const()[name = tensor<string, []>("v_19_squeeze_mask_0"), val = tensor<bool, [5]>([true, false, false, false, false])];
            tensor<fp16, [1, 6, 1370, 64]> v_19_cast_fp16 = slice_by_index(begin = v_19_begin_0, end = v_19_end_0, end_mask = v_19_end_mask_0, squeeze_mask = v_19_squeeze_mask_0, x = qkv_19_cast_fp16)[name = tensor<string, []>("v_19_cast_fp16")];
            tensor<bool, []> attn_37_transpose_x_1 = const()[name = tensor<string, []>("attn_37_transpose_x_1"), val = tensor<bool, []>(false)];
            tensor<bool, []> attn_37_transpose_y_1 = const()[name = tensor<string, []>("attn_37_transpose_y_1"), val = tensor<bool, []>(true)];
            tensor<fp16, [1, 6, 1370, 1370]> attn_37_cast_fp16 = matmul(transpose_x = attn_37_transpose_x_1, transpose_y = attn_37_transpose_y_1, x = q_19_cast_fp16, y = k_19_cast_fp16)[name = tensor<string, []>("attn_37_cast_fp16")];
            tensor<fp16, [1, 6, 1370, 1370]> input_183_cast_fp16 = softmax(axis = var_816, x = attn_37_cast_fp16)[name = tensor<string, []>("input_183_cast_fp16")];
            tensor<bool, []> var_857_transpose_x_0 = const()[name = tensor<string, []>("op_857_transpose_x_0"), val = tensor<bool, []>(false)];
            tensor<bool, []> var_857_transpose_y_0 = const()[name = tensor<string, []>("op_857_transpose_y_0"), val = tensor<bool, []>(false)];
            tensor<fp16, [1, 6, 1370, 64]> var_857_cast_fp16 = matmul(transpose_x = var_857_transpose_x_0, transpose_y = var_857_transpose_y_0, x = input_183_cast_fp16, y = v_19_cast_fp16)[name = tensor<string, []>("op_857_cast_fp16")];
            tensor<int32, [4]> var_858_perm_0 = const()[name = tensor<string, []>("op_858_perm_0"), val = tensor<int32, [4]>([0, 2, 1, 3])];
            tensor<int32, [3]> var_859 = const()[name = tensor<string, []>("op_859"), val = tensor<int32, [3]>([1, 1370, 384])];
            tensor<fp16, [1, 1370, 6, 64]> var_858_cast_fp16 = transpose(perm = var_858_perm_0, x = var_857_cast_fp16)[name = tensor<string, []>("transpose_8")];
            tensor<fp16, [1, 1370, 384]> input_185_cast_fp16 = reshape(shape = var_859, x = var_858_cast_fp16)[name = tensor<string, []>("input_185_cast_fp16")];
            tensor<fp16, [384, 384]> pretrained_blocks_9_attn_proj_weight_to_fp16 = const()[name = tensor<string, []>("pretrained_blocks_9_attn_proj_weight_to_fp16"), val = tensor<fp16, [384, 384]>(BLOBFILE(path = tensor<string, []>("@model_path/weights/weight.bin"), offset = tensor<uint64, []>(34356672)))];
            tensor<fp16, [384]> pretrained_blocks_9_attn_proj_bias_to_fp16 = const()[name = tensor<string, []>("pretrained_blocks_9_attn_proj_bias_to_fp16"), val = tensor<fp16, [384]>(BLOBFILE(path = tensor<string, []>("@model_path/weights/weight.bin"), offset = tensor<uint64, []>(34651648)))];
            tensor<fp16, [1, 1370, 384]> linear_37_cast_fp16 = linear(bias = pretrained_blocks_9_attn_proj_bias_to_fp16, weight = pretrained_blocks_9_attn_proj_weight_to_fp16, x = input_185_cast_fp16)[name = tensor<string, []>("linear_37_cast_fp16")];
            tensor<fp16, [384]> pretrained_blocks_9_ls1_gamma_to_fp16 = const()[name = tensor<string, []>("pretrained_blocks_9_ls1_gamma_to_fp16"), val = tensor<fp16, [384]>(BLOBFILE(path = tensor<string, []>("@model_path/weights/weight.bin"), offset = tensor<uint64, []>(34652480)))];
            tensor<fp16, [1, 1370, 384]> var_866_cast_fp16 = mul(x = linear_37_cast_fp16, y = pretrained_blocks_9_ls1_gamma_to_fp16)[name = tensor<string, []>("op_866_cast_fp16")];
            tensor<fp16, [1, 1370, 384]> input_189_cast_fp16 = add(x = input_181_cast_fp16, y = var_866_cast_fp16)[name = tensor<string, []>("input_189_cast_fp16")];
            tensor<int32, [1]> input_191_axes_0 = const()[name = tensor<string, []>("input_191_axes_0"), val = tensor<int32, [1]>([-1])];
            tensor<fp16, [384]> pretrained_blocks_9_norm2_weight_to_fp16 = const()[name = tensor<string, []>("pretrained_blocks_9_norm2_weight_to_fp16"), val = tensor<fp16, [384]>(BLOBFILE(path = tensor<string, []>("@model_path/weights/weight.bin"), offset = tensor<uint64, []>(34653312)))];
            tensor<fp16, [384]> pretrained_blocks_9_norm2_bias_to_fp16 = const()[name = tensor<string, []>("pretrained_blocks_9_norm2_bias_to_fp16"), val = tensor<fp16, [384]>(BLOBFILE(path = tensor<string, []>("@model_path/weights/weight.bin"), offset = tensor<uint64, []>(34654144)))];
            tensor<fp16, [1, 1370, 384]> input_191_cast_fp16 = layer_norm(axes = input_191_axes_0, beta = pretrained_blocks_9_norm2_bias_to_fp16, epsilon = var_821_to_fp16, gamma = pretrained_blocks_9_norm2_weight_to_fp16, x = input_189_cast_fp16)[name = tensor<string, []>("input_191_cast_fp16")];
            tensor<fp16, [1536, 384]> pretrained_blocks_9_mlp_fc1_weight_to_fp16 = const()[name = tensor<string, []>("pretrained_blocks_9_mlp_fc1_weight_to_fp16"), val = tensor<fp16, [1536, 384]>(BLOBFILE(path = tensor<string, []>("@model_path/weights/weight.bin"), offset = tensor<uint64, []>(34654976)))];
            tensor<fp16, [1536]> pretrained_blocks_9_mlp_fc1_bias_to_fp16 = const()[name = tensor<string, []>("pretrained_blocks_9_mlp_fc1_bias_to_fp16"), val = tensor<fp16, [1536]>(BLOBFILE(path = tensor<string, []>("@model_path/weights/weight.bin"), offset = tensor<uint64, []>(35834688)))];
            tensor<fp16, [1, 1370, 1536]> linear_38_cast_fp16 = linear(bias = pretrained_blocks_9_mlp_fc1_bias_to_fp16, weight = pretrained_blocks_9_mlp_fc1_weight_to_fp16, x = input_191_cast_fp16)[name = tensor<string, []>("linear_38_cast_fp16")];
            tensor<string, []> input_195_mode_0 = const()[name = tensor<string, []>("input_195_mode_0"), val = tensor<string, []>("EXACT")];
            tensor<fp16, [1, 1370, 1536]> input_195_cast_fp16 = gelu(mode = input_195_mode_0, x = linear_38_cast_fp16)[name = tensor<string, []>("input_195_cast_fp16")];
            tensor<fp16, [384, 1536]> pretrained_blocks_9_mlp_fc2_weight_to_fp16 = const()[name = tensor<string, []>("pretrained_blocks_9_mlp_fc2_weight_to_fp16"), val = tensor<fp16, [384, 1536]>(BLOBFILE(path = tensor<string, []>("@model_path/weights/weight.bin"), offset = tensor<uint64, []>(35837824)))];
            tensor<fp16, [384]> pretrained_blocks_9_mlp_fc2_bias_to_fp16 = const()[name = tensor<string, []>("pretrained_blocks_9_mlp_fc2_bias_to_fp16"), val = tensor<fp16, [384]>(BLOBFILE(path = tensor<string, []>("@model_path/weights/weight.bin"), offset = tensor<uint64, []>(37017536)))];
            tensor<fp16, [1, 1370, 384]> linear_39_cast_fp16 = linear(bias = pretrained_blocks_9_mlp_fc2_bias_to_fp16, weight = pretrained_blocks_9_mlp_fc2_weight_to_fp16, x = input_195_cast_fp16)[name = tensor<string, []>("linear_39_cast_fp16")];
            tensor<fp16, [384]> pretrained_blocks_9_ls2_gamma_to_fp16 = const()[name = tensor<string, []>("pretrained_blocks_9_ls2_gamma_to_fp16"), val = tensor<fp16, [384]>(BLOBFILE(path = tensor<string, []>("@model_path/weights/weight.bin"), offset = tensor<uint64, []>(37018368)))];
            tensor<fp16, [1, 1370, 384]> var_884_cast_fp16 = mul(x = linear_39_cast_fp16, y = pretrained_blocks_9_ls2_gamma_to_fp16)[name = tensor<string, []>("op_884_cast_fp16")];
            tensor<fp16, [1, 1370, 384]> input_201_cast_fp16 = add(x = input_189_cast_fp16, y = var_884_cast_fp16)[name = tensor<string, []>("input_201_cast_fp16")];
            tensor<int32, []> var_895 = const()[name = tensor<string, []>("op_895"), val = tensor<int32, []>(-1)];
            tensor<int32, [1]> x_69_axes_0 = const()[name = tensor<string, []>("x_69_axes_0"), val = tensor<int32, [1]>([-1])];
            tensor<fp16, [384]> pretrained_blocks_10_norm1_weight_to_fp16 = const()[name = tensor<string, []>("pretrained_blocks_10_norm1_weight_to_fp16"), val = tensor<fp16, [384]>(BLOBFILE(path = tensor<string, []>("@model_path/weights/weight.bin"), offset = tensor<uint64, []>(37019200)))];
            tensor<fp16, [384]> pretrained_blocks_10_norm1_bias_to_fp16 = const()[name = tensor<string, []>("pretrained_blocks_10_norm1_bias_to_fp16"), val = tensor<fp16, [384]>(BLOBFILE(path = tensor<string, []>("@model_path/weights/weight.bin"), offset = tensor<uint64, []>(37020032)))];
            tensor<fp16, []> var_900_to_fp16 = const()[name = tensor<string, []>("op_900_to_fp16"), val = tensor<fp16, []>(0x1.1p-20)];
            tensor<fp16, [1, 1370, 384]> x_69_cast_fp16 = layer_norm(axes = x_69_axes_0, beta = pretrained_blocks_10_norm1_bias_to_fp16, epsilon = var_900_to_fp16, gamma = pretrained_blocks_10_norm1_weight_to_fp16, x = input_201_cast_fp16)[name = tensor<string, []>("x_69_cast_fp16")];
            tensor<fp16, [1152, 384]> pretrained_blocks_10_attn_qkv_weight_to_fp16 = const()[name = tensor<string, []>("pretrained_blocks_10_attn_qkv_weight_to_fp16"), val = tensor<fp16, [1152, 384]>(BLOBFILE(path = tensor<string, []>("@model_path/weights/weight.bin"), offset = tensor<uint64, []>(37020864)))];
            tensor<fp16, [1152]> pretrained_blocks_10_attn_qkv_bias_to_fp16 = const()[name = tensor<string, []>("pretrained_blocks_10_attn_qkv_bias_to_fp16"), val = tensor<fp16, [1152]>(BLOBFILE(path = tensor<string, []>("@model_path/weights/weight.bin"), offset = tensor<uint64, []>(37905664)))];
            tensor<fp16, [1, 1370, 1152]> linear_40_cast_fp16 = linear(bias = pretrained_blocks_10_attn_qkv_bias_to_fp16, weight = pretrained_blocks_10_attn_qkv_weight_to_fp16, x = x_69_cast_fp16)[name = tensor<string, []>("linear_40_cast_fp16")];
            tensor<int32, [5]> var_923 = const()[name = tensor<string, []>("op_923"), val = tensor<int32, [5]>([1, 1370, 3, 6, 64])];
            tensor<fp16, [1, 1370, 3, 6, 64]> var_924_cast_fp16 = reshape(shape = var_923, x = linear_40_cast_fp16)[name = tensor<string, []>("op_924_cast_fp16")];
            tensor<int32, [5]> var_925 = const()[name = tensor<string, []>("op_925"), val = tensor<int32, [5]>([2, 0, 3, 1, 4])];
            tensor<int32, [5]> var_927_begin_0 = const()[name = tensor<string, []>("op_927_begin_0"), val = tensor<int32, [5]>([0, 0, 0, 0, 0])];
            tensor<int32, [5]> var_927_end_0 = const()[name = tensor<string, []>("op_927_end_0"), val = tensor<int32, [5]>([1, 1, 6, 1370, 64])];
            tensor<bool, [5]> var_927_end_mask_0 = const()[name = tensor<string, []>("op_927_end_mask_0"), val = tensor<bool, [5]>([false, true, true, true, true])];
            tensor<bool, [5]> var_927_squeeze_mask_0 = const()[name = tensor<string, []>("op_927_squeeze_mask_0"), val = tensor<bool, [5]>([true, false, false, false, false])];
            tensor<fp16, [3, 1, 6, 1370, 64]> qkv_21_cast_fp16 = transpose(perm = var_925, x = var_924_cast_fp16)[name = tensor<string, []>("transpose_7")];
            tensor<fp16, [1, 6, 1370, 64]> var_927_cast_fp16 = slice_by_index(begin = var_927_begin_0, end = var_927_end_0, end_mask = var_927_end_mask_0, squeeze_mask = var_927_squeeze_mask_0, x = qkv_21_cast_fp16)[name = tensor<string, []>("op_927_cast_fp16")];
            tensor<fp16, []> var_928_to_fp16 = const()[name = tensor<string, []>("op_928_to_fp16"), val = tensor<fp16, []>(0x1p-3)];
            tensor<fp16, [1, 6, 1370, 64]> q_21_cast_fp16 = mul(x = var_927_cast_fp16, y = var_928_to_fp16)[name = tensor<string, []>("q_21_cast_fp16")];
            tensor<int32, [5]> k_21_begin_0 = const()[name = tensor<string, []>("k_21_begin_0"), val = tensor<int32, [5]>([1, 0, 0, 0, 0])];
            tensor<int32, [5]> k_21_end_0 = const()[name = tensor<string, []>("k_21_end_0"), val = tensor<int32, [5]>([2, 1, 6, 1370, 64])];
            tensor<bool, [5]> k_21_end_mask_0 = const()[name = tensor<string, []>("k_21_end_mask_0"), val = tensor<bool, [5]>([false, true, true, true, true])];
            tensor<bool, [5]> k_21_squeeze_mask_0 = const()[name = tensor<string, []>("k_21_squeeze_mask_0"), val = tensor<bool, [5]>([true, false, false, false, false])];
            tensor<fp16, [1, 6, 1370, 64]> k_21_cast_fp16 = slice_by_index(begin = k_21_begin_0, end = k_21_end_0, end_mask = k_21_end_mask_0, squeeze_mask = k_21_squeeze_mask_0, x = qkv_21_cast_fp16)[name = tensor<string, []>("k_21_cast_fp16")];
            tensor<int32, [5]> v_21_begin_0 = const()[name = tensor<string, []>("v_21_begin_0"), val = tensor<int32, [5]>([2, 0, 0, 0, 0])];
            tensor<int32, [5]> v_21_end_0 = const()[name = tensor<string, []>("v_21_end_0"), val = tensor<int32, [5]>([3, 1, 6, 1370, 64])];
            tensor<bool, [5]> v_21_end_mask_0 = const()[name = tensor<string, []>("v_21_end_mask_0"), val = tensor<bool, [5]>([false, true, true, true, true])];
            tensor<bool, [5]> v_21_squeeze_mask_0 = const()[name = tensor<string, []>("v_21_squeeze_mask_0"), val = tensor<bool, [5]>([true, false, false, false, false])];
            tensor<fp16, [1, 6, 1370, 64]> v_21_cast_fp16 = slice_by_index(begin = v_21_begin_0, end = v_21_end_0, end_mask = v_21_end_mask_0, squeeze_mask = v_21_squeeze_mask_0, x = qkv_21_cast_fp16)[name = tensor<string, []>("v_21_cast_fp16")];
            tensor<bool, []> attn_41_transpose_x_1 = const()[name = tensor<string, []>("attn_41_transpose_x_1"), val = tensor<bool, []>(false)];
            tensor<bool, []> attn_41_transpose_y_1 = const()[name = tensor<string, []>("attn_41_transpose_y_1"), val = tensor<bool, []>(true)];
            tensor<fp16, [1, 6, 1370, 1370]> attn_41_cast_fp16 = matmul(transpose_x = attn_41_transpose_x_1, transpose_y = attn_41_transpose_y_1, x = q_21_cast_fp16, y = k_21_cast_fp16)[name = tensor<string, []>("attn_41_cast_fp16")];
            tensor<fp16, [1, 6, 1370, 1370]> input_203_cast_fp16 = softmax(axis = var_895, x = attn_41_cast_fp16)[name = tensor<string, []>("input_203_cast_fp16")];
            tensor<bool, []> var_936_transpose_x_0 = const()[name = tensor<string, []>("op_936_transpose_x_0"), val = tensor<bool, []>(false)];
            tensor<bool, []> var_936_transpose_y_0 = const()[name = tensor<string, []>("op_936_transpose_y_0"), val = tensor<bool, []>(false)];
            tensor<fp16, [1, 6, 1370, 64]> var_936_cast_fp16 = matmul(transpose_x = var_936_transpose_x_0, transpose_y = var_936_transpose_y_0, x = input_203_cast_fp16, y = v_21_cast_fp16)[name = tensor<string, []>("op_936_cast_fp16")];
            tensor<int32, [4]> var_937_perm_0 = const()[name = tensor<string, []>("op_937_perm_0"), val = tensor<int32, [4]>([0, 2, 1, 3])];
            tensor<int32, [3]> var_938 = const()[name = tensor<string, []>("op_938"), val = tensor<int32, [3]>([1, 1370, 384])];
            tensor<fp16, [1, 1370, 6, 64]> var_937_cast_fp16 = transpose(perm = var_937_perm_0, x = var_936_cast_fp16)[name = tensor<string, []>("transpose_6")];
            tensor<fp16, [1, 1370, 384]> input_205_cast_fp16 = reshape(shape = var_938, x = var_937_cast_fp16)[name = tensor<string, []>("input_205_cast_fp16")];
            tensor<fp16, [384, 384]> pretrained_blocks_10_attn_proj_weight_to_fp16 = const()[name = tensor<string, []>("pretrained_blocks_10_attn_proj_weight_to_fp16"), val = tensor<fp16, [384, 384]>(BLOBFILE(path = tensor<string, []>("@model_path/weights/weight.bin"), offset = tensor<uint64, []>(37908032)))];
            tensor<fp16, [384]> pretrained_blocks_10_attn_proj_bias_to_fp16 = const()[name = tensor<string, []>("pretrained_blocks_10_attn_proj_bias_to_fp16"), val = tensor<fp16, [384]>(BLOBFILE(path = tensor<string, []>("@model_path/weights/weight.bin"), offset = tensor<uint64, []>(38203008)))];
            tensor<fp16, [1, 1370, 384]> linear_41_cast_fp16 = linear(bias = pretrained_blocks_10_attn_proj_bias_to_fp16, weight = pretrained_blocks_10_attn_proj_weight_to_fp16, x = input_205_cast_fp16)[name = tensor<string, []>("linear_41_cast_fp16")];
            tensor<fp16, [384]> pretrained_blocks_10_ls1_gamma_to_fp16 = const()[name = tensor<string, []>("pretrained_blocks_10_ls1_gamma_to_fp16"), val = tensor<fp16, [384]>(BLOBFILE(path = tensor<string, []>("@model_path/weights/weight.bin"), offset = tensor<uint64, []>(38203840)))];
            tensor<fp16, [1, 1370, 384]> var_945_cast_fp16 = mul(x = linear_41_cast_fp16, y = pretrained_blocks_10_ls1_gamma_to_fp16)[name = tensor<string, []>("op_945_cast_fp16")];
            tensor<fp16, [1, 1370, 384]> input_209_cast_fp16 = add(x = input_201_cast_fp16, y = var_945_cast_fp16)[name = tensor<string, []>("input_209_cast_fp16")];
            tensor<int32, [1]> input_211_axes_0 = const()[name = tensor<string, []>("input_211_axes_0"), val = tensor<int32, [1]>([-1])];
            tensor<fp16, [384]> pretrained_blocks_10_norm2_weight_to_fp16 = const()[name = tensor<string, []>("pretrained_blocks_10_norm2_weight_to_fp16"), val = tensor<fp16, [384]>(BLOBFILE(path = tensor<string, []>("@model_path/weights/weight.bin"), offset = tensor<uint64, []>(38204672)))];
            tensor<fp16, [384]> pretrained_blocks_10_norm2_bias_to_fp16 = const()[name = tensor<string, []>("pretrained_blocks_10_norm2_bias_to_fp16"), val = tensor<fp16, [384]>(BLOBFILE(path = tensor<string, []>("@model_path/weights/weight.bin"), offset = tensor<uint64, []>(38205504)))];
            tensor<fp16, [1, 1370, 384]> input_211_cast_fp16 = layer_norm(axes = input_211_axes_0, beta = pretrained_blocks_10_norm2_bias_to_fp16, epsilon = var_900_to_fp16, gamma = pretrained_blocks_10_norm2_weight_to_fp16, x = input_209_cast_fp16)[name = tensor<string, []>("input_211_cast_fp16")];
            tensor<fp16, [1536, 384]> pretrained_blocks_10_mlp_fc1_weight_to_fp16 = const()[name = tensor<string, []>("pretrained_blocks_10_mlp_fc1_weight_to_fp16"), val = tensor<fp16, [1536, 384]>(BLOBFILE(path = tensor<string, []>("@model_path/weights/weight.bin"), offset = tensor<uint64, []>(38206336)))];
            tensor<fp16, [1536]> pretrained_blocks_10_mlp_fc1_bias_to_fp16 = const()[name = tensor<string, []>("pretrained_blocks_10_mlp_fc1_bias_to_fp16"), val = tensor<fp16, [1536]>(BLOBFILE(path = tensor<string, []>("@model_path/weights/weight.bin"), offset = tensor<uint64, []>(39386048)))];
            tensor<fp16, [1, 1370, 1536]> linear_42_cast_fp16 = linear(bias = pretrained_blocks_10_mlp_fc1_bias_to_fp16, weight = pretrained_blocks_10_mlp_fc1_weight_to_fp16, x = input_211_cast_fp16)[name = tensor<string, []>("linear_42_cast_fp16")];
            tensor<string, []> input_215_mode_0 = const()[name = tensor<string, []>("input_215_mode_0"), val = tensor<string, []>("EXACT")];
            tensor<fp16, [1, 1370, 1536]> input_215_cast_fp16 = gelu(mode = input_215_mode_0, x = linear_42_cast_fp16)[name = tensor<string, []>("input_215_cast_fp16")];
            tensor<fp16, [384, 1536]> pretrained_blocks_10_mlp_fc2_weight_to_fp16 = const()[name = tensor<string, []>("pretrained_blocks_10_mlp_fc2_weight_to_fp16"), val = tensor<fp16, [384, 1536]>(BLOBFILE(path = tensor<string, []>("@model_path/weights/weight.bin"), offset = tensor<uint64, []>(39389184)))];
            tensor<fp16, [384]> pretrained_blocks_10_mlp_fc2_bias_to_fp16 = const()[name = tensor<string, []>("pretrained_blocks_10_mlp_fc2_bias_to_fp16"), val = tensor<fp16, [384]>(BLOBFILE(path = tensor<string, []>("@model_path/weights/weight.bin"), offset = tensor<uint64, []>(40568896)))];
            tensor<fp16, [1, 1370, 384]> linear_43_cast_fp16 = linear(bias = pretrained_blocks_10_mlp_fc2_bias_to_fp16, weight = pretrained_blocks_10_mlp_fc2_weight_to_fp16, x = input_215_cast_fp16)[name = tensor<string, []>("linear_43_cast_fp16")];
            tensor<fp16, [384]> pretrained_blocks_10_ls2_gamma_to_fp16 = const()[name = tensor<string, []>("pretrained_blocks_10_ls2_gamma_to_fp16"), val = tensor<fp16, [384]>(BLOBFILE(path = tensor<string, []>("@model_path/weights/weight.bin"), offset = tensor<uint64, []>(40569728)))];
            tensor<fp16, [1, 1370, 384]> var_963_cast_fp16 = mul(x = linear_43_cast_fp16, y = pretrained_blocks_10_ls2_gamma_to_fp16)[name = tensor<string, []>("op_963_cast_fp16")];
            tensor<fp16, [1, 1370, 384]> input_221_cast_fp16 = add(x = input_209_cast_fp16, y = var_963_cast_fp16)[name = tensor<string, []>("input_221_cast_fp16")];
            tensor<int32, []> var_974 = const()[name = tensor<string, []>("op_974"), val = tensor<int32, []>(-1)];
            tensor<int32, [1]> x_75_axes_0 = const()[name = tensor<string, []>("x_75_axes_0"), val = tensor<int32, [1]>([-1])];
            tensor<fp16, [384]> pretrained_blocks_11_norm1_weight_to_fp16 = const()[name = tensor<string, []>("pretrained_blocks_11_norm1_weight_to_fp16"), val = tensor<fp16, [384]>(BLOBFILE(path = tensor<string, []>("@model_path/weights/weight.bin"), offset = tensor<uint64, []>(40570560)))];
            tensor<fp16, [384]> pretrained_blocks_11_norm1_bias_to_fp16 = const()[name = tensor<string, []>("pretrained_blocks_11_norm1_bias_to_fp16"), val = tensor<fp16, [384]>(BLOBFILE(path = tensor<string, []>("@model_path/weights/weight.bin"), offset = tensor<uint64, []>(40571392)))];
            tensor<fp16, []> var_979_to_fp16 = const()[name = tensor<string, []>("op_979_to_fp16"), val = tensor<fp16, []>(0x1.1p-20)];
            tensor<fp16, [1, 1370, 384]> x_75_cast_fp16 = layer_norm(axes = x_75_axes_0, beta = pretrained_blocks_11_norm1_bias_to_fp16, epsilon = var_979_to_fp16, gamma = pretrained_blocks_11_norm1_weight_to_fp16, x = input_221_cast_fp16)[name = tensor<string, []>("x_75_cast_fp16")];
            tensor<fp16, [1152, 384]> pretrained_blocks_11_attn_qkv_weight_to_fp16 = const()[name = tensor<string, []>("pretrained_blocks_11_attn_qkv_weight_to_fp16"), val = tensor<fp16, [1152, 384]>(BLOBFILE(path = tensor<string, []>("@model_path/weights/weight.bin"), offset = tensor<uint64, []>(40572224)))];
            tensor<fp16, [1152]> pretrained_blocks_11_attn_qkv_bias_to_fp16 = const()[name = tensor<string, []>("pretrained_blocks_11_attn_qkv_bias_to_fp16"), val = tensor<fp16, [1152]>(BLOBFILE(path = tensor<string, []>("@model_path/weights/weight.bin"), offset = tensor<uint64, []>(41457024)))];
            tensor<fp16, [1, 1370, 1152]> linear_44_cast_fp16 = linear(bias = pretrained_blocks_11_attn_qkv_bias_to_fp16, weight = pretrained_blocks_11_attn_qkv_weight_to_fp16, x = x_75_cast_fp16)[name = tensor<string, []>("linear_44_cast_fp16")];
            tensor<int32, [5]> var_1002 = const()[name = tensor<string, []>("op_1002"), val = tensor<int32, [5]>([1, 1370, 3, 6, 64])];
            tensor<fp16, [1, 1370, 3, 6, 64]> var_1003_cast_fp16 = reshape(shape = var_1002, x = linear_44_cast_fp16)[name = tensor<string, []>("op_1003_cast_fp16")];
            tensor<int32, [5]> var_1004 = const()[name = tensor<string, []>("op_1004"), val = tensor<int32, [5]>([2, 0, 3, 1, 4])];
            tensor<int32, [5]> var_1006_begin_0 = const()[name = tensor<string, []>("op_1006_begin_0"), val = tensor<int32, [5]>([0, 0, 0, 0, 0])];
            tensor<int32, [5]> var_1006_end_0 = const()[name = tensor<string, []>("op_1006_end_0"), val = tensor<int32, [5]>([1, 1, 6, 1370, 64])];
            tensor<bool, [5]> var_1006_end_mask_0 = const()[name = tensor<string, []>("op_1006_end_mask_0"), val = tensor<bool, [5]>([false, true, true, true, true])];
            tensor<bool, [5]> var_1006_squeeze_mask_0 = const()[name = tensor<string, []>("op_1006_squeeze_mask_0"), val = tensor<bool, [5]>([true, false, false, false, false])];
            tensor<fp16, [3, 1, 6, 1370, 64]> qkv_23_cast_fp16 = transpose(perm = var_1004, x = var_1003_cast_fp16)[name = tensor<string, []>("transpose_5")];
            tensor<fp16, [1, 6, 1370, 64]> var_1006_cast_fp16 = slice_by_index(begin = var_1006_begin_0, end = var_1006_end_0, end_mask = var_1006_end_mask_0, squeeze_mask = var_1006_squeeze_mask_0, x = qkv_23_cast_fp16)[name = tensor<string, []>("op_1006_cast_fp16")];
            tensor<fp16, []> var_1007_to_fp16 = const()[name = tensor<string, []>("op_1007_to_fp16"), val = tensor<fp16, []>(0x1p-3)];
            tensor<fp16, [1, 6, 1370, 64]> q_cast_fp16 = mul(x = var_1006_cast_fp16, y = var_1007_to_fp16)[name = tensor<string, []>("q_cast_fp16")];
            tensor<int32, [5]> k_begin_0 = const()[name = tensor<string, []>("k_begin_0"), val = tensor<int32, [5]>([1, 0, 0, 0, 0])];
            tensor<int32, [5]> k_end_0 = const()[name = tensor<string, []>("k_end_0"), val = tensor<int32, [5]>([2, 1, 6, 1370, 64])];
            tensor<bool, [5]> k_end_mask_0 = const()[name = tensor<string, []>("k_end_mask_0"), val = tensor<bool, [5]>([false, true, true, true, true])];
            tensor<bool, [5]> k_squeeze_mask_0 = const()[name = tensor<string, []>("k_squeeze_mask_0"), val = tensor<bool, [5]>([true, false, false, false, false])];
            tensor<fp16, [1, 6, 1370, 64]> k_cast_fp16 = slice_by_index(begin = k_begin_0, end = k_end_0, end_mask = k_end_mask_0, squeeze_mask = k_squeeze_mask_0, x = qkv_23_cast_fp16)[name = tensor<string, []>("k_cast_fp16")];
            tensor<int32, [5]> v_begin_0 = const()[name = tensor<string, []>("v_begin_0"), val = tensor<int32, [5]>([2, 0, 0, 0, 0])];
            tensor<int32, [5]> v_end_0 = const()[name = tensor<string, []>("v_end_0"), val = tensor<int32, [5]>([3, 1, 6, 1370, 64])];
            tensor<bool, [5]> v_end_mask_0 = const()[name = tensor<string, []>("v_end_mask_0"), val = tensor<bool, [5]>([false, true, true, true, true])];
            tensor<bool, [5]> v_squeeze_mask_0 = const()[name = tensor<string, []>("v_squeeze_mask_0"), val = tensor<bool, [5]>([true, false, false, false, false])];
            tensor<fp16, [1, 6, 1370, 64]> v_cast_fp16 = slice_by_index(begin = v_begin_0, end = v_end_0, end_mask = v_end_mask_0, squeeze_mask = v_squeeze_mask_0, x = qkv_23_cast_fp16)[name = tensor<string, []>("v_cast_fp16")];
            tensor<bool, []> attn_45_transpose_x_1 = const()[name = tensor<string, []>("attn_45_transpose_x_1"), val = tensor<bool, []>(false)];
            tensor<bool, []> attn_45_transpose_y_1 = const()[name = tensor<string, []>("attn_45_transpose_y_1"), val = tensor<bool, []>(true)];
            tensor<fp16, [1, 6, 1370, 1370]> attn_45_cast_fp16 = matmul(transpose_x = attn_45_transpose_x_1, transpose_y = attn_45_transpose_y_1, x = q_cast_fp16, y = k_cast_fp16)[name = tensor<string, []>("attn_45_cast_fp16")];
            tensor<fp16, [1, 6, 1370, 1370]> input_223_cast_fp16 = softmax(axis = var_974, x = attn_45_cast_fp16)[name = tensor<string, []>("input_223_cast_fp16")];
            tensor<bool, []> var_1015_transpose_x_0 = const()[name = tensor<string, []>("op_1015_transpose_x_0"), val = tensor<bool, []>(false)];
            tensor<bool, []> var_1015_transpose_y_0 = const()[name = tensor<string, []>("op_1015_transpose_y_0"), val = tensor<bool, []>(false)];
            tensor<fp16, [1, 6, 1370, 64]> var_1015_cast_fp16 = matmul(transpose_x = var_1015_transpose_x_0, transpose_y = var_1015_transpose_y_0, x = input_223_cast_fp16, y = v_cast_fp16)[name = tensor<string, []>("op_1015_cast_fp16")];
            tensor<int32, [4]> var_1016_perm_0 = const()[name = tensor<string, []>("op_1016_perm_0"), val = tensor<int32, [4]>([0, 2, 1, 3])];
            tensor<int32, [3]> var_1017 = const()[name = tensor<string, []>("op_1017"), val = tensor<int32, [3]>([1, 1370, 384])];
            tensor<fp16, [1, 1370, 6, 64]> var_1016_cast_fp16 = transpose(perm = var_1016_perm_0, x = var_1015_cast_fp16)[name = tensor<string, []>("transpose_4")];
            tensor<fp16, [1, 1370, 384]> input_225_cast_fp16 = reshape(shape = var_1017, x = var_1016_cast_fp16)[name = tensor<string, []>("input_225_cast_fp16")];
…
            tensor<int32, [4]> layer_2_rn_pad_0 = const()[name = tensor<string, []>("layer_2_rn_pad_0"), val = tensor<int32, [4]>([1, 1, 1, 1])];
            tensor<int32, [2]> layer_2_rn_strides_0 = const()[name = tensor<string, []>("layer_2_rn_strides_0"), val = tensor<int32, [2]>([1, 1])];
            tensor<int32, [2]> layer_2_rn_dilations_0 = const()[name = tensor<string, []>("layer_2_rn_dilations_0"), val = tensor<int32, [2]>([1, 1])];
            tensor<int32, []> layer_2_rn_groups_0 = const()[name = tensor<string, []>("layer_2_rn_groups_0"), val = tensor<int32, []>(1)];
            tensor<fp16, [64, 96, 3, 3]> depth_head_scratch_layer2_rn_weight_to_fp16 = const()[name = tensor<string, []>("depth_head_scratch_layer2_rn_weight_to_fp16"), val = tensor<fp16, [64, 96, 3, 3]>(BLOBFILE(path = tensor<string, []>("@model_path/weights/weight.bin"), offset = tensor<uint64, []>(47537024)))];
            tensor<fp16, [1, 64, 74, 74]> layer_2_rn_cast_fp16 = conv(dilations = layer_2_rn_dilations_0, groups = layer_2_rn_groups_0, pad = layer_2_rn_pad_0, pad_type = layer_2_rn_pad_type_0, strides = layer_2_rn_strides_0, weight = depth_head_scratch_layer2_rn_weight_to_fp16, x = input_259_has_output_shape_cast_fp16)[name = tensor<string, []>("layer_2_rn_cast_fp16")];
            tensor<string, []> layer_3_rn_pad_type_0 = const()[name = tensor<string, []>("layer_3_rn_pad_type_0"), val = tensor<string, []>("custom")];
            tensor<int32, [4]> layer_3_rn_pad_0 = const()[name = tensor<string, []>("layer_3_rn_pad_0"), val = tensor<int32, [4]>([1, 1, 1, 1])];
            tensor<int32, [2]> layer_3_rn_strides_0 = const()[name = tensor<string, []>("layer_3_rn_strides_0"), val = tensor<int32, [2]>([1, 1])];
            tensor<int32, [2]> layer_3_rn_dilations_0 = const()[name = tensor<string, []>("layer_3_rn_dilations_0"), val = tensor<int32, [2]>([1, 1])];
            tensor<int32, []> layer_3_rn_groups_0 = const()[name = tensor<string, []>("layer_3_rn_groups_0"), val = tensor<int32, []>(1)];
            tensor<fp16, [64, 192, 3, 3]> depth_head_scratch_layer3_rn_weight_to_fp16 = const()[name = tensor<string, []>("depth_head_scratch_layer3_rn_weight_to_fp16"), val = tensor<fp16, [64, 192, 3, 3]>(BLOBFILE(path = tensor<string, []>("@model_path/weights/weight.bin"), offset = tensor<uint64, []>(47647680)))];
            tensor<fp16, [1, 64, 37, 37]> layer_3_rn_cast_fp16 = conv(dilations = layer_3_rn_dilations_0, groups = layer_3_rn_groups_0, pad = layer_3_rn_pad_0, pad_type = layer_3_rn_pad_type_0, strides = layer_3_rn_strides_0, weight = depth_head_scratch_layer3_rn_weight_to_fp16, x = input_261_cast_fp16)[name = tensor<string, []>("layer_3_rn_cast_fp16")];
            tensor<string, []> input_265_pad_type_0 = const()[name = tensor<string, []>("input_265_pad_type_0"), val = tensor<string, []>("custom")];
            tensor<int32, [4]> input_265_pad_0 = const()[name = tensor<string, []>("input_265_pad_0"), val = tensor<int32, [4]>([1, 1, 1, 1])];
            tensor<int32, [2]> input_265_strides_0 = const()[name = tensor<string, []>("input_265_strides_0"), val = tensor<int32, [2]>([1, 1])];
            tensor<int32, [2]> input_265_dilations_0 = const()[name = tensor<string, []>("input_265_dilations_0"), val = tensor<int32, [2]>([1, 1])];
            tensor<int32, []> input_265_groups_0 = const()[name = tensor<string, []>("input_265_groups_0"), val = tensor<int32, []>(1)];
            tensor<fp16, [64, 384, 3, 3]> depth_head_scratch_layer4_rn_weight_to_fp16 = const()[name = tensor<string, []>("depth_head_scratch_layer4_rn_weight_to_fp16"), val = tensor<fp16, [64, 384, 3, 3]>(BLOBFILE(path = tensor<string, []>("@model_path/weights/weight.bin"), offset = tensor<uint64, []>(47868928)))];
            tensor<fp16, [1, 64, 19, 19]> input_265_cast_fp16 = conv(dilations = input_265_dilations_0, groups = input_265_groups_0, pad = input_265_pad_0, pad_type = input_265_pad_type_0, strides = input_265_strides_0, weight = depth_head_scratch_layer4_rn_weight_to_fp16, x = input_263_cast_fp16)[name = tensor<string, []>("input_265_cast_fp16")];
            tensor<fp16, [1, 64, 19, 19]> input_267_cast_fp16 = relu(x = input_265_cast_fp16)[name = tensor<string, []>("input_267_cast_fp16")];
            tensor<string, []> input_269_pad_type_0 = const()[name = tensor<string, []>("input_269_pad_type_0"), val = tensor<string, []>("custom")];
            tensor<int32, [4]> input_269_pad_0 = const()[name = tensor<string, []>("input_269_pad_0"), val = tensor<int32, [4]>([1, 1, 1, 1])];
            tensor<int32, [2]> input_269_strides_0 = const()[name = tensor<string, []>("input_269_strides_0"), val = tensor<int32, [2]>([1, 1])];
            tensor<int32, [2]> input_269_dilations_0 = const()[name = tensor<string, []>("input_269_dilations_0"), val = tensor<int32, [2]>([1, 1])];
            tensor<int32, []> input_269_groups_0 = const()[name = tensor<string, []>("input_269_groups_0"), val = tensor<int32, []>(1)];
            tensor<fp16, [64, 64, 3, 3]> depth_head_scratch_refinenet4_resConfUnit2_conv1_weight_to_fp16 = const()[name = tensor<string, []>("depth_head_scratch_refinenet4_resConfUnit2_conv1_weight_to_fp16"), val = tensor<fp16, [64, 64, 3, 3]>(BLOBFILE(path = tensor<string, []>("@model_path/weights/weight.bin"), offset = tensor<uint64, []>(48311360)))];
            tensor<fp16, [64]> depth_head_scratch_refinenet4_resConfUnit2_conv1_bias_to_fp16 = const()[name = tensor<string, []>("depth_head_scratch_refinenet4_resConfUnit2_conv1_bias_to_fp16"), val = tensor<fp16, [64]>(BLOBFILE(path = tensor<string, []>("@model_path/weights/weight.bin"), offset = tensor<uint64, []>(48385152)))];
            tensor<fp16, [1, 64, 19, 19]> input_269_cast_fp16 = conv(bias = depth_head_scratch_refinenet4_resConfUnit2_conv1_bias_to_fp16, dilations = input_269_dilations_0, groups = input_269_groups_0, pad = input_269_pad_0, pad_type = input_269_pad_type_0, strides = input_269_strides_0, weight = depth_head_scratch_refinenet4_resConfUnit2_conv1_weight_to_fp16, x = input_267_cast_fp16)[name = tensor<string, []>("input_269_cast_fp16")];
            tensor<fp16, [1, 64, 19, 19]> input_271_cast_fp16 = relu(x = input_269_cast_fp16)[name = tensor<string, []>("input_271_cast_fp16")];
            tensor<string, []> x_89_pad_type_0 = const()[name = tensor<string, []>("x_89_pad_type_0"), val = tensor<string, []>("custom")];
            tensor<int32, [4]> x_89_pad_0 = const()[name = tensor<string, []>("x_89_pad_0"), val = tensor<int32, [4]>([1, 1, 1, 1])];
            tensor<int32, [2]> x_89_strides_0 = const()[name = tensor<string, []>("x_89_strides_0"), val = tensor<int32, [2]>([1, 1])];
            tensor<int32, [2]> x_89_dilations_0 = const()[name = tensor<string, []>("x_89_dilations_0"), val = tensor<int32, [2]>([1, 1])];
            tensor<int32, []> x_89_groups_0 = const()[name = tensor<string, []>("x_89_groups_0"), val = tensor<int32, []>(1)];
            tensor<fp16, [64, 64, 3, 3]> depth_head_scratch_refinenet4_resConfUnit2_conv2_weight_to_fp16 = const()[name = tensor<string, []>("depth_head_scratch_refinenet4_resConfUnit2_conv2_weight_to_fp16"), val = tensor<fp16, [64, 64, 3, 3]>(BLOBFILE(path = tensor<string, []>("@model_path/weights/weight.bin"), offset = tensor<uint64, []>(48385344)))];
            tensor<fp16, [64]> depth_head_scratch_refinenet4_resConfUnit2_conv2_bias_to_fp16 = const()[name = tensor<string, []>("depth_head_scratch_refinenet4_resConfUnit2_conv2_bias_to_fp16"), val = tensor<fp16, [64]>(BLOBFILE(path = tensor<string, []>("@model_path/weights/weight.bin"), offset = tensor<uint64, []>(48459136)))];
            tensor<fp16, [1, 64, 19, 19]> x_89_cast_fp16 = conv(bias = depth_head_scratch_refinenet4_resConfUnit2_conv2_bias_to_fp16, dilations = x_89_dilations_0, groups = x_89_groups_0, pad = x_89_pad_0, pad_type = x_89_pad_type_0, strides = x_89_strides_0, weight = depth_head_scratch_refinenet4_resConfUnit2_conv2_weight_to_fp16, x = input_271_cast_fp16)[name = tensor<string, []>("x_89_cast_fp16")];
            tensor<fp16, [1, 64, 19, 19]> input_273_cast_fp16 = add(x = x_89_cast_fp16, y = input_265_cast_fp16)[name = tensor<string, []>("input_273_cast_fp16")];
            tensor<fp32, []> input_275_scale_factor_height_0 = const()[name = tensor<string, []>("input_275_scale_factor_height_0"), val = tensor<fp32, []>(0x1.f28714p+0)];
            tensor<fp32, []> input_275_scale_factor_width_0 = const()[name = tensor<string, []>("input_275_scale_factor_width_0"), val = tensor<fp32, []>(0x1.f28714p+0)];
            tensor<bool, []> input_275_align_corners_0 = const()[name = tensor<string, []>("input_275_align_corners_0"), val = tensor<bool, []>(true)];
            tensor<fp16, [1, 64, 37, 37]> input_275_cast_fp16 = upsample_bilinear(align_corners = input_275_align_corners_0, scale_factor_height = input_275_scale_factor_height_0, scale_factor_width = input_275_scale_factor_width_0, x = input_273_cast_fp16)[name = tensor<string, []>("input_275_cast_fp16")];
            tensor<string, []> x_93_pad_type_0 = const()[name = tensor<string, []>("x_93_pad_type_0"), val = tensor<string, []>("valid")];
            tensor<int32, [2]> x_93_strides_0 = const()[name = tensor<string, []>("x_93_strides_0"), val = tensor<int32, [2]>([1, 1])];
            tensor<int32, [4]> x_93_pad_0 = const()[name = tensor<string, []>("x_93_pad_0"), val = tensor<int32, [4]>([0, 0, 0, 0])];
            tensor<int32, [2]> x_93_dilations_0 = const()[name = tensor<string, []>("x_93_dilations_0"), val = tensor<int32, [2]>([1, 1])];
            tensor<int32, []> x_93_groups_0 = const()[name = tensor<string, []>("x_93_groups_0"), val = tensor<int32, []>(1)];
            tensor<fp16, [64, 64, 1, 1]> depth_head_scratch_refinenet4_out_conv_weight_to_fp16 = const()[name = tensor<string, []>("depth_head_scratch_refinenet4_out_conv_weight_to_fp16"), val = tensor<fp16, [64, 64, 1, 1]>(BLOBFILE(path = tensor<string, []>("@model_path/weights/weight.bin"), offset = tensor<uint64, []>(48459328)))];
            tensor<fp16, [64]> depth_head_scratch_refinenet4_out_conv_bias_to_fp16 = const()[name = tensor<string, []>("depth_head_scratch_refinenet4_out_conv_bias_to_fp16"), val = tensor<fp16, [64]>(BLOBFILE(path = tensor<string, []>("@model_path/weights/weight.bin"), offset = tensor<uint64, []>(48467584)))];
            tensor<fp16, [1, 64, 37, 37]> x_93_cast_fp16 = conv(bias = depth_head_scratch_refinenet4_out_conv_bias_to_fp16, dilations = x_93_dilations_0, groups = x_93_groups_0, pad = x_93_pad_0, pad_type = x_93_pad_type_0, strides = x_93_strides_0, weight = depth_head_scratch_refinenet4_out_conv_weight_to_fp16, x = input_275_cast_fp16)[name = tensor<string, []>("x_93_cast_fp16")];
            tensor<fp16, [1, 64, 37, 37]> input_277_cast_fp16 = relu(x = layer_3_rn_cast_fp16)[name = tensor<string, []>("input_277_cast_fp16")];
            tensor<string, []> input_279_pad_type_0 = const()[name = tensor<string, []>("input_279_pad_type_0"), val = tensor<string, []>("custom")];
            tensor<int32, [4]> input_279_pad_0 = const()[name = tensor<string, []>("input_279_pad_0"), val = tensor<int32, [4]>([1, 1, 1, 1])];
            tensor<int32, [2]> input_279_strides_0 = const()[name = tensor<string, []>("input_279_strides_0"), val = tensor<int32, [2]>([1, 1])];
            tensor<int32, [2]> input_279_dilations_0 = const()[name = tensor<string, []>("input_279_dilations_0"), val = tensor<int32, [2]>([1, 1])];
            tensor<int32, []> input_279_groups_0 = const()[name = tensor<string, []>("input_279_groups_0"), val = tensor<int32, []>(1)];
            tensor<fp16, [64, 64, 3, 3]> depth_head_scratch_refinenet3_resConfUnit1_conv1_weight_to_fp16 = const()[name = tensor<string, []>("depth_head_scratch_refinenet3_resConfUnit1_conv1_weight_to_fp16"), val = tensor<fp16, [64, 64, 3, 3]>(BLOBFILE(path = tensor<string, []>("@model_path/weights/weight.bin"), offset = tensor<uint64, []>(48467776)))];
            tensor<fp16, [64]> depth_head_scratch_refinenet3_resConfUnit1_conv1_bias_to_fp16 = const()[name = tensor<string, []>("depth_head_scratch_refinenet3_resConfUnit1_conv1_bias_to_fp16"), val = tensor<fp16, [64]>(BLOBFILE(path = tensor<string, []>("@model_path/weights/weight.bin"), offset = tensor<uint64, []>(48541568)))];
            tensor<fp16, [1, 64, 37, 37]> input_279_cast_fp16 = conv(bias = depth_head_scratch_refinenet3_resConfUnit1_conv1_bias_to_fp16, dilations = input_279_dilations_0, groups = input_279_groups_0, pad = input_279_pad_0, pad_type = input_279_pad_type_0, strides = input_279_strides_0, weight = depth_head_scratch_refinenet3_resConfUnit1_conv1_weight_to_fp16, x = input_277_cast_fp16)[name = tensor<string, []>("input_279_cast_fp16")];
            tensor<fp16, [1, 64, 37, 37]> input_281_cast_fp16 = relu(x = input_279_cast_fp16)[name = tensor<string, []>("input_281_cast_fp16")];
            tensor<string, []> x_91_pad_type_0 = const()[name = tensor<string, []>("x_91_pad_type_0"), val = tensor<string, []>("custom")];
            tensor<int32, [4]> x_91_pad_0 = const()[name = tensor<string, []>("x_91_pad_0"), val = tensor<int32, [4]>([1, 1, 1, 1])];
            tensor<int32, [2]> x_91_strides_0 = const()[name = tensor<string, []>("x_91_strides_0"), val = tensor<int32, [2]>([1, 1])];
            tensor<int32, [2]> x_91_dilations_0 = const()[name = tensor<string, []>("x_91_dilations_0"), val = tensor<int32, [2]>([1, 1])];
            tensor<int32, []> x_91_groups_0 = const()[name = tensor<string, []>("x_91_groups_0"), val = tensor<int32, []>(1)];
            tensor<fp16, [64, 64, 3, 3]> depth_head_scratch_refinenet3_resConfUnit1_conv2_weight_to_fp16 = const()[name = tensor<string, []>("depth_head_scratch_refinenet3_resConfUnit1_conv2_weight_to_fp16"), val = tensor<fp16, [64, 64, 3, 3]>(BLOBFILE(path = tensor<string, []>("@model_path/weights/weight.bin"), offset = tensor<uint64, []>(48541760)))];
            tensor<fp16, [64]> depth_head_scratch_refinenet3_resConfUnit1_conv2_bias_to_fp16 = const()[name = tensor<string, []>("depth_head_scratch_refinenet3_resConfUnit1_conv2_bias_to_fp16"), val = tensor<fp16, [64]>(BLOBFILE(path = tensor<string, []>("@model_path/weights/weight.bin"), offset = tensor<uint64, []>(48615552)))];
            tensor<fp16, [1, 64, 37, 37]> x_91_cast_fp16 = conv(bias = depth_head_scratch_refinenet3_resConfUnit1_conv2_bias_to_fp16, dilations = x_91_dilations_0, groups = x_91_groups_0, pad = x_91_pad_0, pad_type = x_91_pad_type_0, strides = x_91_strides_0, weight = depth_head_scratch_refinenet3_resConfUnit1_conv2_weight_to_fp16, x = input_281_cast_fp16)[name = tensor<string, []>("x_91_cast_fp16")];
            tensor<fp16, [1, 64, 37, 37]> y_1_cast_fp16 = add(x = x_91_cast_fp16, y = layer_3_rn_cast_fp16)[name = tensor<string, []>("y_1_cast_fp16")];
            tensor<fp16, [1, 64, 37, 37]> input_283_cast_fp16 = add(x = x_93_cast_fp16, y = y_1_cast_fp16)[name = tensor<string, []>("input_283_cast_fp16")];
            tensor<fp16, [1, 64, 37, 37]> input_285_cast_fp16 = relu(x = input_283_cast_fp16)[name = tensor<string, []>("input_285_cast_fp16")];
            tensor<string, []> input_287_pad_type_0 = const()[name = tensor<string, []>("input_287_pad_type_0"), val = tensor<string, []>("custom")];
            tensor<int32, [4]> input_287_pad_0 = const()[name = tensor<string, []>("input_287_pad_0"), val = tensor<int32, [4]>([1, 1, 1, 1])];
            tensor<int32, [2]> input_287_strides_0 = const()[name = tensor<string, []>("input_287_strides_0"), val = tensor<int32, [2]>([1, 1])];
            tensor<int32, [2]> input_287_dilations_0 = const()[name = tensor<string, []>("input_287_dilations_0"), val = tensor<int32, [2]>([1, 1])];
            tensor<int32, []> input_287_groups_0 = const()[name = tensor<string, []>("input_287_groups_0"), val = tensor<int32, []>(1)];
            tensor<fp16, [64, 64, 3, 3]> depth_head_scratch_refinenet3_resConfUnit2_conv1_weight_to_fp16 = const()[name = tensor<string, []>("depth_head_scratch_refinenet3_resConfUnit2_conv1_weight_to_fp16"), val = tensor<fp16, [64, 64, 3, 3]>(BLOBFILE(path = tensor<string, []>("@model_path/weights/weight.bin"), offset = tensor<uint64, []>(48615744)))];
            tensor<fp16, [64]> depth_head_scratch_refinenet3_resConfUnit2_conv1_bias_to_fp16 = const()[name = tensor<string, []>("depth_head_scratch_refinenet3_resConfUnit2_conv1_bias_to_fp16"), val = tensor<fp16, [64]>(BLOBFILE(path = tensor<string, []>("@model_path/weights/weight.bin"), offset = tensor<uint64, []>(48689536)))];
            tensor<fp16, [1, 64, 37, 37]> input_287_cast_fp16 = conv(bias = depth_head_scratch_refinenet3_resConfUnit2_conv1_bias_to_fp16, dilations = input_287_dilations_0, groups = input_287_groups_0, pad = input_287_pad_0, pad_type = input_287_pad_type_0, strides = input_287_strides_0, weight = depth_head_scratch_refinenet3_resConfUnit2_conv1_weight_to_fp16, x = input_285_cast_fp16)[name = tensor<string, []>("input_287_cast_fp16")];
            tensor<fp16, [1, 64, 37, 37]> input_289_cast_fp16 = relu(x = input_287_cast_fp16)[name = tensor<string, []>("input_289_cast_fp16")];
            tensor<string, []> x_95_pad_type_0 = const()[name = tensor<string, []>("x_95_pad_type_0"), val = tensor<string, []>("custom")];
            tensor<int32, [4]> x_95_pad_0 = const()[name = tensor<string, []>("x_95_pad_0"), val = tensor<int32, [4]>([1, 1, 1, 1])];
            tensor<int32, [2]> x_95_strides_0 = const()[name = tensor<string, []>("x_95_strides_0"), val = tensor<int32, [2]>([1, 1])];
            tensor<int32, [2]> x_95_dilations_0 = const()[name = tensor<string, []>("x_95_dilations_0"), val = tensor<int32, [2]>([1, 1])];
            tensor<int32, []> x_95_groups_0 = const()[name = tensor<string, []>("x_95_groups_0"), val = tensor<int32, []>(1)];
            tensor<fp16, [64, 64, 3, 3]> depth_head_scratch_refinenet3_resConfUnit2_conv2_weight_to_fp16 = const()[name = tensor<string, []>("depth_head_scratch_refinenet3_resConfUnit2_conv2_weight_to_fp16"), val = tensor<fp16, [64, 64, 3, 3]>(BLOBFILE(path = tensor<string, []>("@model_path/weights/weight.bin"), offset = tensor<uint64, []>(48689728)))];
            tensor<fp16, [64]> depth_head_scratch_refinenet3_resConfUnit2_conv2_bias_to_fp16 = const()[name = tensor<string, []>("depth_head_scratch_refinenet3_resConfUnit2_conv2_bias_to_fp16"), val = tensor<fp16, [64]>(BLOBFILE(path = tensor<string, []>("@model_path/weights/weight.bin"), offset = tensor<uint64, []>(48763520)))];
            tensor<fp16, [1, 64, 37, 37]> x_95_cast_fp16 = conv(bias = depth_head_scratch_refinenet3_resConfUnit2_conv2_bias_to_fp16, dilations = x_95_dilations_0, groups = x_95_groups_0, pad = x_95_pad_0, pad_type = x_95_pad_type_0, strides = x_95_strides_0, weight = depth_head_scratch_refinenet3_resConfUnit2_conv2_weight_to_fp16, x = input_289_cast_fp16)[name = tensor<string, []>("x_95_cast_fp16")];
            tensor<fp16, [1, 64, 37, 37]> input_291_cast_fp16 = add(x = x_95_cast_fp16, y = input_283_cast_fp16)[name = tensor<string, []>("input_291_cast_fp16")];
            tensor<fp32, []> input_293_scale_factor_height_0 = const()[name = tensor<string, []>("input_293_scale_factor_height_0"), val = tensor<fp32, []>(0x1p+1)];
            tensor<fp32, []> input_293_scale_factor_width_0 = const()[name = tensor<string, []>("input_293_scale_factor_width_0"), val = tensor<fp32, []>(0x1p+1)];
            tensor<bool, []> input_293_align_corners_0 = const()[name = tensor<string, []>("input_293_align_corners_0"), val = tensor<bool, []>(true)];
            tensor<fp16, [1, 64, 74, 74]> input_293_cast_fp16 = upsample_bilinear(align_corners = input_293_align_corners_0, scale_factor_height = input_293_scale_factor_height_0, scale_factor_width = input_293_scale_factor_width_0, x = input_291_cast_fp16)[name = tensor<string, []>("input_293_cast_fp16")];
            tensor<string, []> x_99_pad_type_0 = const()[name = tensor<string, []>("x_99_pad_type_0"), val = tensor<string, []>("valid")];
            tensor<int32, [2]> x_99_strides_0 = const()[name = tensor<string, []>("x_99_strides_0"), val = tensor<int32, [2]>([1, 1])];
            tensor<int32, [4]> x_99_pad_0 = const()[name = tensor<string, []>("x_99_pad_0"), val = tensor<int32, [4]>([0, 0, 0, 0])];
            tensor<int32, [2]> x_99_dilations_0 = const()[name = tensor<string, []>("x_99_dilations_0"), val = tensor<int32, [2]>([1, 1])];
            tensor<int32, []> x_99_groups_0 = const()[name = tensor<string, []>("x_99_groups_0"), val = tensor<int32, []>(1)];
            tensor<fp16, [64, 64, 1, 1]> depth_head_scratch_refinenet3_out_conv_weight_to_fp16 = const()[name = tensor<string, []>("depth_head_scratch_refinenet3_out_conv_weight_to_fp16"), val = tensor<fp16, [64, 64, 1, 1]>(BLOBFILE(path = tensor<string, []>("@model_path/weights/weight.bin"), offset = tensor<uint64, []>(48763712)))];
            tensor<fp16, [64]> depth_head_scratch_refinenet3_out_conv_bias_to_fp16 = const()[name = tensor<string, []>("depth_head_scratch_refinenet3_out_conv_bias_to_fp16"), val = tensor<fp16, [64]>(BLOBFILE(path = tensor<string, []>("@model_path/weights/weight.bin"), offset = tensor<uint64, []>(48771968)))];
            tensor<fp16, [1, 64, 74, 74]> x_99_cast_fp16 = conv(bias = depth_head_scratch_refinenet3_out_conv_bias_to_fp16, dilations = x_99_dilations_0, groups = x_99_groups_0, pad = x_99_pad_0, pad_type = x_99_pad_type_0, strides = x_99_strides_0, weight = depth_head_scratch_refinenet3_out_conv_weight_to_fp16, x = input_293_cast_fp16)[name = tensor<string, []>("x_99_cast_fp16")];
            tensor<fp16, [1, 64, 74, 74]> input_295_cast_fp16 = relu(x = layer_2_rn_cast_fp16)[name = tensor<string, []>("input_295_cast_fp16")];
            tensor<string, []> input_297_pad_type_0 = const()[name = tensor<string, []>("input_297_pad_type_0"), val = tensor<string, []>("custom")];
            tensor<int32, [4]> input_297_pad_0 = const()[name = tensor<string, []>("input_297_pad_0"), val = tensor<int32, [4]>([1, 1, 1, 1])];
            tensor<int32, [2]> input_297_strides_0 = const()[name = tensor<string, []>("input_297_strides_0"), val = tensor<int32, [2]>([1, 1])];
            tensor<int32, [2]> input_297_dilations_0 = const()[name = tensor<string, []>("input_297_dilations_0"), val = tensor<int32, [2]>([1, 1])];
            tensor<int32, []> input_297_groups_0 = const()[name = tensor<string, []>("input_297_groups_0"), val = tensor<int32, []>(1)];
            tensor<fp16, [64, 64, 3, 3]> depth_head_scratch_refinenet2_resConfUnit1_conv1_weight_to_fp16 = const()[name = tensor<string, []>("depth_head_scratch_refinenet2_resConfUnit1_conv1_weight_to_fp16"), val = tensor<fp16, [64, 64, 3, 3]>(BLOBFILE(path = tensor<string, []>("@model_path/weights/weight.bin"), offset = tensor<uint64, []>(48772160)))];
            tensor<fp16, [64]> depth_head_scratch_refinenet2_resConfUnit1_conv1_bias_to_fp16 = const()[name = tensor<string, []>("depth_head_scratch_refinenet2_resConfUnit1_conv1_bias_to_fp16"), val = tensor<fp16, [64]>(BLOBFILE(path = tensor<string, []>("@model_path/weights/weight.bin"), offset = tensor<uint64, []>(48845952)))];
            tensor<fp16, [1, 64, 74, 74]> input_297_cast_fp16 = conv(bias = depth_head_scratch_refinenet2_resConfUnit1_conv1_bias_to_fp16, dilations = input_297_dilations_0, groups = input_297_groups_0, pad = input_297_pad_0, pad_type = input_297_pad_type_0, strides = input_297_strides_0, weight = depth_head_scratch_refinenet2_resConfUnit1_conv1_weight_to_fp16, x = input_295_cast_fp16)[name = tensor<string, []>("input_297_cast_fp16")];
            tensor<fp16, [1, 64, 74, 74]> input_299_cast_fp16 = relu(x = input_297_cast_fp16)[name = tensor<string, []>("input_299_cast_fp16")];
            tensor<string, []> x_97_pad_type_0 = const()[name = tensor<string, []>("x_97_pad_type_0"), val = tensor<string, []>("custom")];
            tensor<int32, [4]> x_97_pad_0 = const()[name = tensor<string, []>("x_97_pad_0"), val = tensor<int32, [4]>([1, 1, 1, 1])];
            tensor<int32, [2]> x_97_strides_0 = const()[name = tensor<string, []>("x_97_strides_0"), val = tensor<int32, [2]>([1, 1])];
            tensor<int32, [2]> x_97_dilations_0 = const()[name = tensor<string, []>("x_97_dilations_0"), val = tensor<int32, [2]>([1, 1])];
            tensor<int32, []> x_97_groups_0 = const()[name = tensor<string, []>("x_97_groups_0"), val = tensor<int32, []>(1)];
            tensor<fp16, [64, 64, 3, 3]> depth_head_scratch_refinenet2_resConfUnit1_conv2_weight_to_fp16 = const()[name = tensor<string, []>("depth_head_scratch_refinenet2_resConfUnit1_conv2_weight_to_fp16"), val = tensor<fp16, [64, 64, 3, 3]>(BLOBFILE(path = tensor<string, []>("@model_path/weights/weight.bin"), offset = tensor<uint64, []>(48846144)))];
            tensor<fp16, [64]> depth_head_scratch_refinenet2_resConfUnit1_conv2_bias_to_fp16 = const()[name = tensor<string, []>("depth_head_scratch_refinenet2_resConfUnit1_conv2_bias_to_fp16"), val = tensor<fp16, [64]>(BLOBFILE(path = tensor<string, []>("@model_path/weights/weight.bin"), offset = tensor<uint64, []>(48919936)))];
            tensor<fp16, [1, 64, 74, 74]> x_97_cast_fp16 = conv(bias = depth_head_scratch_refinenet2_resConfUnit1_conv2_bias_to_fp16, dilations = x_97_dilations_0, groups = x_97_groups_0, pad = x_97_pad_0, pad_type = x_97_pad_type_0, strides = x_97_strides_0, weight = depth_head_scratch_refinenet2_resConfUnit1_conv2_weight_to_fp16, x = input_299_cast_fp16)[name = tensor<string, []>("x_97_cast_fp16")];
            tensor<fp16, [1, 64, 74, 74]> y_3_cast_fp16 = add(x = x_97_cast_fp16, y = layer_2_rn_cast_fp16)[name = tensor<string, []>("y_3_cast_fp16")];
            tensor<fp16, [1, 64, 74, 74]> input_301_cast_fp16 = add(x = x_99_cast_fp16, y = y_3_cast_fp16)[name = tensor<string, []>("input_301_cast_fp16")];
            tensor<fp16, [1, 64, 74, 74]> input_303_cast_fp16 = relu(x = input_301_cast_fp16)[name = tensor<string, []>("input_303_cast_fp16")];
            tensor<string, []> input_305_pad_type_0 = const()[name = tensor<string, []>("input_305_pad_type_0"), val = tensor<string, []>("custom")];
            tensor<int32, [4]> input_305_pad_0 = const()[name = tensor<string, []>("input_305_pad_0"), val = tensor<int32, [4]>([1, 1, 1, 1])];
            tensor<int32, [2]> input_305_strides_0 = const()[name = tensor<string, []>("input_305_strides_0"), val = tensor<int32, [2]>([1, 1])];
            tensor<int32, [2]> input_305_dilations_0 = const()[name = tensor<string, []>("input_305_dilations_0"), val = tensor<int32, [2]>([1, 1])];
            tensor<int32, []> input_305_groups_0 = const()[name = tensor<string, []>("input_305_groups_0"), val = tensor<int32, []>(1)];
            tensor<fp16, [64, 64, 3, 3]> depth_head_scratch_refinenet2_resConfUnit2_conv1_weight_to_fp16 = const()[name = tensor<string, []>("depth_head_scratch_refinenet2_resConfUnit2_conv1_weight_to_fp16"), val = tensor<fp16, [64, 64, 3, 3]>(BLOBFILE(path = tensor<string, []>("@model_path/weights/weight.bin"), offset = tensor<uint64, []>(48920128)))];
            tensor<fp16, [64]> depth_head_scratch_refinenet2_resConfUnit2_conv1_bias_to_fp16 = const()[name = tensor<string, []>("depth_head_scratch_refinenet2_resConfUnit2_conv1_bias_to_fp16"), val = tensor<fp16, [64]>(BLOBFILE(path = tensor<string, []>("@model_path/weights/weight.bin"), offset = tensor<uint64, []>(48993920)))];
            tensor<fp16, [1, 64, 74, 74]> input_305_cast_fp16 = conv(bias = depth_head_scratch_refinenet2_resConfUnit2_conv1_bias_to_fp16, dilations = input_305_dilations_0, groups = input_305_groups_0, pad = input_305_pad_0, pad_type = input_305_pad_type_0, strides = input_305_strides_0, weight = depth_head_scratch_refinenet2_resConfUnit2_conv1_weight_to_fp16, x = input_303_cast_fp16)[name = tensor<string, []>("input_305_cast_fp16")];
            tensor<fp16, [1, 64, 74, 74]> input_307_cast_fp16 = relu(x = input_305_cast_fp16)[name = tensor<string, []>("input_307_cast_fp16")];
            tensor<string, []> x_101_pad_type_0 = const()[name = tensor<string, []>("x_101_pad_type_0"), val = tensor<string, []>("custom")];
            tensor<int32, [4]> x_101_pad_0 = const()[name = tensor<string, []>("x_101_pad_0"), val = tensor<int32, [4]>([1, 1, 1, 1])];
            tensor<int32, [2]> x_101_strides_0 = const()[name = tensor<string, []>("x_101_strides_0"), val = tensor<int32, [2]>([1, 1])];
            tensor<int32, [2]> x_101_dilations_0 = const()[name = tensor<string, []>("x_101_dilations_0"), val = tensor<int32, [2]>([1, 1])];
            tensor<int32, []> x_101_groups_0 = const()[name = tensor<string, []>("x_101_groups_0"), val = tensor<int32, []>(1)];
            tensor<fp16, [64, 64, 3, 3]> depth_head_scratch_refinenet2_resConfUnit2_conv2_weight_to_fp16 = const()[name = tensor<string, []>("depth_head_scratch_refinenet2_resConfUnit2_conv2_weight_to_fp16"), val = tensor<fp16, [64, 64, 3, 3]>(BLOBFILE(path = tensor<string, []>("@model_path/weights/weight.bin"), offset = tensor<uint64, []>(48994112)))];
            tensor<fp16, [64]> depth_head_scratch_refinenet2_resConfUnit2_conv2_bias_to_fp16 = const()[name = tensor<string, []>("depth_head_scratch_refinenet2_resConfUnit2_conv2_bias_to_fp16"), val = tensor<fp16, [64]>(BLOBFILE(path = tensor<string, []>("@model_path/weights/weight.bin"), offset = tensor<uint64, []>(49067904)))];
            tensor<fp16, [1, 64, 74, 74]> x_101_cast_fp16 = conv(bias = depth_head_scratch_refinenet2_resConfUnit2_conv2_bias_to_fp16, dilations = x_101_dilations_0, groups = x_101_groups_0, pad = x_101_pad_0, pad_type = x_101_pad_type_0, strides = x_101_strides_0, weight = depth_head_scratch_refinenet2_resConfUnit2_conv2_weight_to_fp16, x = input_307_cast_fp16)[name = tensor<string, []>("x_101_cast_fp16")];
            tensor<fp16, [1, 64, 74, 74]> input_309_cast_fp16 = add(x = x_101_cast_fp16, y = input_301_cast_fp16)[name = tensor<string, []>("input_309_cast_fp16")];
            tensor<fp32, []> input_311_scale_factor_height_0 = const()[name = tensor<string, []>("input_311_scale_factor_height_0"), val = tensor<fp32, []>(0x1p+1)];
            tensor<fp32, []> input_311_scale_factor_width_0 = const()[name = tensor<string, []>("input_311_scale_factor_width_0"), val = tensor<fp32, []>(0x1p+1)];
            tensor<bool, []> input_311_align_corners_0 = const()[name = tensor<string, []>("input_311_align_corners_0"), val = tensor<bool, []>(true)];
            tensor<fp16, [1, 64, 148, 148]> input_311_cast_fp16 = upsample_bilinear(align_corners = input_311_align_corners_0, scale_factor_height = input_311_scale_factor_height_0, scale_factor_width = input_311_scale_factor_width_0, x = input_309_cast_fp16)[name = tensor<string, []>("input_311_cast_fp16")];
            tensor<string, []> x_105_pad_type_0 = const()[name = tensor<string, []>("x_105_pad_type_0"), val = tensor<string, []>("valid")];
            tensor<int32, [2]> x_105_strides_0 = const()[name = tensor<string, []>("x_105_strides_0"), val = tensor<int32, [2]>([1, 1])];
            tensor<int32, [4]> x_105_pad_0 = const()[name = tensor<string, []>("x_105_pad_0"), val = tensor<int32, [4]>([0, 0, 0, 0])];
            tensor<int32, [2]> x_105_dilations_0 = const()[name = tensor<string, []>("x_105_dilations_0"), val = tensor<int32, [2]>([1, 1])];
            tensor<int32, []> x_105_groups_0 = const()[name = tensor<string, []>("x_105_groups_0"), val = tensor<int32, []>(1)];
            tensor<fp16, [64, 64, 1, 1]> depth_head_scratch_refinenet2_out_conv_weight_to_fp16 = const()[name = tensor<string, []>("depth_head_scratch_refinenet2_out_conv_weight_to_fp16"), val = tensor<fp16, [64, 64, 1, 1]>(BLOBFILE(path = tensor<string, []>("@model_path/weights/weight.bin"), offset = tensor<uint64, []>(49068096)))];
            tensor<fp16, [64]> depth_head_scratch_refinenet2_out_conv_bias_to_fp16 = const()[name = tensor<string, []>("depth_head_scratch_refinenet2_out_conv_bias_to_fp16"), val = tensor<fp16, [64]>(BLOBFILE(path = tensor<string, []>("@model_path/weights/weight.bin"), offset = tensor<uint64, []>(49076352)))];
            tensor<fp16, [1, 64, 148, 148]> x_105_cast_fp16 = conv(bias = depth_head_scratch_refinenet2_out_conv_bias_to_fp16, dilations = x_105_dilations_0, groups = x_105_groups_0, pad = x_105_pad_0, pad_type = x_105_pad_type_0, strides = x_105_strides_0, weight = depth_head_scratch_refinenet2_out_conv_weight_to_fp16, x = input_311_cast_fp16)[name = tensor<string, []>("x_105_cast_fp16")];
            tensor<fp16, [1, 64, 148, 148]> input_313_cast_fp16 = relu(x = layer_1_rn_cast_fp16)[name = tensor<string, []>("input_313_cast_fp16")];
            tensor<string, []> input_315_pad_type_0 = const()[name = tensor<string, []>("input_315_pad_type_0"), val = tensor<string, []>("custom")];
            tensor<int32, [4]> input_315_pad_0 = const()[name = tensor<string, []>("input_315_pad_0"), val = tensor<int32, [4]>([1, 1, 1, 1])];
            tensor<int32, [2]> input_315_strides_0 = const()[name = tensor<string, []>("input_315_strides_0"), val = tensor<int32, [2]>([1, 1])];
            tensor<int32, [2]> input_315_dilations_0 = const()[name = tensor<string, []>("input_315_dilations_0"), val = tensor<int32, [2]>([1, 1])];
            tensor<int32, []> input_315_groups_0 = const()[name = tensor<string, []>("input_315_groups_0"), val = tensor<int32, []>(1)];
            tensor<fp16, [64, 64, 3, 3]> depth_head_scratch_refinenet1_resConfUnit1_conv1_weight_to_fp16 = const()[name = tensor<string, []>("depth_head_scratch_refinenet1_resConfUnit1_conv1_weight_to_fp16"), val = tensor<fp16, [64, 64, 3, 3]>(BLOBFILE(path = tensor<string, []>("@model_path/weights/weight.bin"), offset = tensor<uint64, []>(49076544)))];
            tensor<fp16, [64]> depth_head_scratch_refinenet1_resConfUnit1_conv1_bias_to_fp16 = const()[name = tensor<string, []>("depth_head_scratch_refinenet1_resConfUnit1_conv1_bias_to_fp16"), val = tensor<fp16, [64]>(BLOBFILE(path = tensor<string, []>("@model_path/weights/weight.bin"), offset = tensor<uint64, []>(49150336)))];
            tensor<fp16, [1, 64, 148, 148]> input_315_cast_fp16 = conv(bias = depth_head_scratch_refinenet1_resConfUnit1_conv1_bias_to_fp16, dilations = input_315_dilations_0, groups = input_315_groups_0, pad = input_315_pad_0, pad_type = input_315_pad_type_0, strides = input_315_strides_0, weight = depth_head_scratch_refinenet1_resConfUnit1_conv1_weight_to_fp16, x = input_313_cast_fp16)[name = tensor<string, []>("input_315_cast_fp16")];
            tensor<fp16, [1, 64, 148, 148]> input_317_cast_fp16 = relu(x = input_315_cast_fp16)[name = tensor<string, []>("input_317_cast_fp16")];
            tensor<string, []> x_103_pad_type_0 = const()[name = tensor<string, []>("x_103_pad_type_0"), val = tensor<string, []>("custom")];
            tensor<int32, [4]> x_103_pad_0 = const()[name = tensor<string, []>("x_103_pad_0"), val = tensor<int32, [4]>([1, 1, 1, 1])];
            tensor<int32, [2]> x_103_strides_0 = const()[name = tensor<string, []>("x_103_strides_0"), val = tensor<int32, [2]>([1, 1])];
            tensor<int32, [2]> x_103_dilations_0 = const()[name = tensor<string, []>("x_103_dilations_0"), val = tensor<int32, [2]>([1, 1])];
            tensor<int32, []> x_103_groups_0 = const()[name = tensor<string, []>("x_103_groups_0"), val = tensor<int32, []>(1)];
            tensor<fp16, [64, 64, 3, 3]> depth_head_scratch_refinenet1_resConfUnit1_conv2_weight_to_fp16 = const()[name = tensor<string, []>("depth_head_scratch_refinenet1_resConfUnit1_conv2_weight_to_fp16"), val = tensor<fp16, [64, 64, 3, 3]>(BLOBFILE(path = tensor<string, []>("@model_path/weights/weight.bin"), offset = tensor<uint64, []>(49150528)))];
            tensor<fp16, [64]> depth_head_scratch_refinenet1_resConfUnit1_conv2_bias_to_fp16 = const()[name = tensor<string, []>("depth_head_scratch_refinenet1_resConfUnit1_conv2_bias_to_fp16"), val = tensor<fp16, [64]>(BLOBFILE(path = tensor<string, []>("@model_path/weights/weight.bin"), offset = tensor<uint64, []>(49224320)))];
            tensor<fp16, [1, 64, 148, 148]> x_103_cast_fp16 = conv(bias = depth_head_scratch_refinenet1_resConfUnit1_conv2_bias_to_fp16, dilations = x_103_dilations_0, groups = x_103_groups_0, pad = x_103_pad_0, pad_type = x_103_pad_type_0, strides = x_103_strides_0, weight = depth_head_scratch_refinenet1_resConfUnit1_conv2_weight_to_fp16, x = input_317_cast_fp16)[name = tensor<string, []>("x_103_cast_fp16")];
            tensor<fp16, [1, 64, 148, 148]> y_cast_fp16 = add(x = x_103_cast_fp16, y = layer_1_rn_cast_fp16)[name = tensor<string, []>("y_cast_fp16")];
            tensor<fp16, [1, 64, 148, 148]> input_319_cast_fp16 = add(x = x_105_cast_fp16, y = y_cast_fp16)[name = tensor<string, []>("input_319_cast_fp16")];
            tensor<fp16, [1, 64, 148, 148]> input_321_cast_fp16 = relu(x = input_319_cast_fp16)[name = tensor<string, []>("input_321_cast_fp16")];
            tensor<string, []> input_323_pad_type_0 = const()[name = tensor<string, []>("input_323_pad_type_0"), val = tensor<string, []>("custom")];
            tensor<int32, [4]> input_323_pad_0 = const()[name = tensor<string, []>("input_323_pad_0"), val = tensor<int32, [4]>([1, 1, 1, 1])];
            tensor<int32, [2]> input_323_strides_0 = const()[name = tensor<string, []>("input_323_strides_0"), val = tensor<int32, [2]>([1, 1])];
            tensor<int32, [2]> input_323_dilations_0 = const()[name = tensor<string, []>("input_323_dilations_0"), val = tensor<int32, [2]>([1, 1])];
            tensor<int32, []> input_323_groups_0 = const()[name = tensor<string, []>("input_323_groups_0"), val = tensor<int32, []>(1)];
            tensor<fp16, [64, 64, 3, 3]> depth_head_scratch_refinenet1_resConfUnit2_conv1_weight_to_fp16 = const()[name = tensor<string, []>("depth_head_scratch_refinenet1_resConfUnit2_conv1_weight_to_fp16"), val = tensor<fp16, [64, 64, 3, 3]>(BLOBFILE(path = tensor<string, []>("@model_path/weights/weight.bin"), offset = tensor<uint64, []>(49224512)))];
            tensor<fp16, [64]> depth_head_scratch_refinenet1_resConfUnit2_conv1_bias_to_fp16 = const()[name = tensor<string, []>("depth_head_scratch_refinenet1_resConfUnit2_conv1_bias_to_fp16"), val = tensor<fp16, [64]>(BLOBFILE(path = tensor<string, []>("@model_path/weights/weight.bin"), offset = tensor<uint64, []>(49298304)))];
            tensor<fp16, [1, 64, 148, 148]> input_323_cast_fp16 = conv(bias = depth_head_scratch_refinenet1_resConfUnit2_conv1_bias_to_fp16, dilations = input_323_dilations_0, groups = input_323_groups_0, pad = input_323_pad_0, pad_type = input_323_pad_type_0, strides = input_323_strides_0, weight = depth_head_scratch_refinenet1_resConfUnit2_conv1_weight_to_fp16, x = input_321_cast_fp16)[name = tensor<string, []>("input_323_cast_fp16")];
            tensor<fp16, [1, 64, 148, 148]> input_325_cast_fp16 = relu(x = input_323_cast_fp16)[name = tensor<string, []>("input_325_cast_fp16")];
            tensor<string, []> x_pad_type_0 = const()[name = tensor<string, []>("x_pad_type_0"), val = tensor<string, []>("custom")];
            tensor<int32, [4]> x_pad_0 = const()[name = tensor<string, []>("x_pad_0"), val = tensor<int32, [4]>([1, 1, 1, 1])];
            tensor<int32, [2]> x_strides_0 = const()[name = tensor<string, []>("x_strides_0"), val = tensor<int32, [2]>([1, 1])];
            tensor<int32, [2]> x_dilations_0 = const()[name = tensor<string, []>("x_dilations_0"), val = tensor<int32, [2]>([1, 1])];
            tensor<int32, []> x_groups_0 = const()[name = tensor<string, []>("x_groups_0"), val = tensor<int32, []>(1)];
            tensor<fp16, [64, 64, 3, 3]> depth_head_scratch_refinenet1_resConfUnit2_conv2_weight_to_fp16 = const()[name = tensor<string, []>("depth_head_scratch_refinenet1_resConfUnit2_conv2_weight_to_fp16"), val = tensor<fp16, [64, 64, 3, 3]>(BLOBFILE(path = tensor<string, []>("@model_path/weights/weight.bin"), offset = tensor<uint64, []>(49298496)))];
            tensor<fp16, [64]> depth_head_scratch_refinenet1_resConfUnit2_conv2_bias_to_fp16 = const()[name = tensor<string, []>("depth_head_scratch_refinenet1_resConfUnit2_conv2_bias_to_fp16"), val = tensor<fp16, [64]>(BLOBFILE(path = tensor<string, []>("@model_path/weights/weight.bin"), offset = tensor<uint64, []>(49372288)))];
            tensor<fp16, [1, 64, 148, 148]> x_cast_fp16 = conv(bias = depth_head_scratch_refinenet1_resConfUnit2_conv2_bias_to_fp16, dilations = x_dilations_0, groups = x_groups_0, pad = x_pad_0, pad_type = x_pad_type_0, strides = x_strides_0, weight = depth_head_scratch_refinenet1_resConfUnit2_conv2_weight_to_fp16, x = input_325_cast_fp16)[name = tensor<string, []>("x_cast_fp16")];
            tensor<fp16, [1, 64, 148, 148]> input_327_cast_fp16 = add(x = x_cast_fp16, y = input_319_cast_fp16)[name = tensor<string, []>("input_327_cast_fp16")];
            tensor<fp32, []> input_329_scale_factor_height_0 = const()[name = tensor<string, []>("input_329_scale_factor_height_0"), val = tensor<fp32, []>(0x1p+1)];
            tensor<fp32, []> input_329_scale_factor_width_0 = const()[name = tensor<string, []>("input_329_scale_factor_width_0"), val = tensor<fp32, []>(0x1p+1)];
            tensor<bool, []> input_329_align_corners_0 = const()[name = tensor<string, []>("input_329_align_corners_0"), val = tensor<bool, []>(true)];
            tensor<fp16, [1, 64, 296, 296]> input_329_cast_fp16 = upsample_bilinear(align_corners = input_329_align_corners_0, scale_factor_height = input_329_scale_factor_height_0, scale_factor_width = input_329_scale_factor_width_0, x = input_327_cast_fp16)[name = tensor<string, []>("input_329_cast_fp16")];
            tensor<string, []> input_331_pad_type_0 = const()[name = tensor<string, []>("input_331_pad_type_0"), val = tensor<string, []>("valid")];
            tensor<int32, [2]> input_331_strides_0 = const()[name = tensor<string, []>("input_331_strides_0"), val = tensor<int32, [2]>([1, 1])];
            tensor<int32, [4]> input_331_pad_0 = const()[name = tensor<string, []>("input_331_pad_0"), val = tensor<int32, [4]>([0, 0, 0, 0])];
            tensor<int32, [2]> input_331_dilations_0 = const()[name = tensor<string, []>("input_331_dilations_0"), val = tensor<int32, [2]>([1, 1])];
            tensor<int32, []> input_331_groups_0 = const()[name = tensor<string, []>("input_331_groups_0"), val = tensor<int32, []>(1)];
            tensor<fp16, [64, 64, 1, 1]> depth_head_scratch_refinenet1_out_conv_weight_to_fp16 = const()[name = tensor<string, []>("depth_head_scratch_refinenet1_out_conv_weight_to_fp16"), val = tensor<fp16, [64, 64, 1, 1]>(BLOBFILE(path = tensor<string, []>("@model_path/weights/weight.bin"), offset = tensor<uint64, []>(49372480)))];
            tensor<fp16, [64]> depth_head_scratch_refinenet1_out_conv_bias_to_fp16 = const()[name = tensor<string, []>("depth_head_scratch_refinenet1_out_conv_bias_to_fp16"), val = tensor<fp16, [64]>(BLOBFILE(path = tensor<string, []>("@model_path/weights/weight.bin"), offset = tensor<uint64, []>(49380736)))];
            tensor<fp16, [1, 64, 296, 296]> input_331_cast_fp16 = conv(bias = depth_head_scratch_refinenet1_out_conv_bias_to_fp16, dilations = input_331_dilations_0, groups = input_331_groups_0, pad = input_331_pad_0, pad_type = input_331_pad_type_0, strides = input_331_strides_0, weight = depth_head_scratch_refinenet1_out_conv_weight_to_fp16, x = input_329_cast_fp16)[name = tensor<string, []>("input_331_cast_fp16")];
            tensor<string, []> input_333_pad_type_0 = const()[name = tensor<string, []>("input_333_pad_type_0"), val = tensor<string, []>("custom")];
            tensor<int32, [4]> input_333_pad_0 = const()[name = tensor<string, []>("input_333_pad_0"), val = tensor<int32, [4]>([1, 1, 1, 1])];
            tensor<int32, [2]> input_333_strides_0 = const()[name = tensor<string, []>("input_333_strides_0"), val = tensor<int32, [2]>([1, 1])];
            tensor<int32, [2]> input_333_dilations_0 = const()[name = tensor<string, []>("input_333_dilations_0"), val = tensor<int32, [2]>([1, 1])];
            tensor<int32, []> input_333_groups_0 = const()[name = tensor<string, []>("input_333_groups_0"), val = tensor<int32, []>(1)];
            tensor<fp16, [32, 64, 3, 3]> depth_head_scratch_output_conv1_weight_to_fp16 = const()[name = tensor<string, []>("depth_head_scratch_output_conv1_weight_to_fp16"), val = tensor<fp16, [32, 64, 3, 3]>(BLOBFILE(path = tensor<string, []>("@model_path/weights/weight.bin"), offset = tensor<uint64, []>(49380928)))];
            tensor<fp16, [32]> depth_head_scratch_output_conv1_bias_to_fp16 = const()[name = tensor<string, []>("depth_head_scratch_output_conv1_bias_to_fp16"), val = tensor<fp16, [32]>(BLOBFILE(path = tensor<string, []>("@model_path/weights/weight.bin"), offset = tensor<uint64, []>(49417856)))];
            tensor<fp16, [1, 32, 296, 296]> input_333_cast_fp16 = conv(bias = depth_head_scratch_output_conv1_bias_to_fp16, dilations = input_333_dilations_0, groups = input_333_groups_0, pad = input_333_pad_0, pad_type = input_333_pad_type_0, strides = input_333_strides_0, weight = depth_head_scratch_output_conv1_weight_to_fp16, x = input_331_cast_fp16)[name = tensor<string, []>("input_333_cast_fp16")];
            tensor<fp32, []> input_335_scale_factor_height_0 = const()[name = tensor<string, []>("input_335_scale_factor_height_0"), val = tensor<fp32, []>(0x1.c00006p+0)];
            tensor<fp32, []> input_335_scale_factor_width_0 = const()[name = tensor<string, []>("input_335_scale_factor_width_0"), val = tensor<fp32, []>(0x1.c00006p+0)];
            tensor<bool, []> input_335_align_corners_0 = const()[name = tensor<string, []>("input_335_align_corners_0"), val = tensor<bool, []>(true)];
            tensor<fp16, [1, 32, 518, 518]> input_335_cast_fp16 = upsample_bilinear(align_corners = input_335_align_corners_0, scale_factor_height = input_335_scale_factor_height_0, scale_factor_width = input_335_scale_factor_width_0, x = input_333_cast_fp16)[name = tensor<string, []>("input_335_cast_fp16")];
            tensor<string, []> input_337_pad_type_0 = const()[name = tensor<string, []>("input_337_pad_type_0"), val = tensor<string, []>("custom")];
            tensor<int32, [4]> input_337_pad_0 = const()[name = tensor<string, []>("input_337_pad_0"), val = tensor<int32, [4]>([1, 1, 1, 1])];
            tensor<int32, [2]> input_337_strides_0 = const()[name = tensor<string, []>("input_337_strides_0"), val = tensor<int32, [2]>([1, 1])];
            tensor<int32, [2]> input_337_dilations_0 = const()[name = tensor<string, []>("input_337_dilations_0"), val = tensor<int32, [2]>([1, 1])];
            tensor<int32, []> input_337_groups_0 = const()[name = tensor<string, []>("input_337_groups_0"), val = tensor<int32, []>(1)];
            tensor<fp16, [32, 32, 3, 3]> depth_head_scratch_output_conv2_0_weight_to_fp16 = const()[name = tensor<string, []>("depth_head_scratch_output_conv2_0_weight_to_fp16"), val = tensor<fp16, [32, 32, 3, 3]>(BLOBFILE(path = tensor<string, []>("@model_path/weights/weight.bin"), offset = tensor<uint64, []>(49417984)))];
            tensor<fp16, [32]> depth_head_scratch_output_conv2_0_bias_to_fp16 = const()[name = tensor<string, []>("depth_head_scratch_output_conv2_0_bias_to_fp16"), val = tensor<fp16, [32]>(BLOBFILE(path = tensor<string, []>("@model_path/weights/weight.bin"), offset = tensor<uint64, []>(49436480)))];
            tensor<fp16, [1, 32, 518, 518]> input_337_cast_fp16 = conv(bias = depth_head_scratch_output_conv2_0_bias_to_fp16, dilations = input_337_dilations_0, groups = input_337_groups_0, pad = input_337_pad_0, pad_type = input_337_pad_type_0, strides = input_337_strides_0, weight = depth_head_scratch_output_conv2_0_weight_to_fp16, x = input_335_cast_fp16)[name = tensor<string, []>("input_337_cast_fp16")];
            tensor<fp16, [1, 32, 518, 518]> input_339_cast_fp16 = relu(x = input_337_cast_fp16)[name = tensor<string, []>("input_339_cast_fp16")];
            tensor<string, []> input_341_pad_type_0 = const()[name = tensor<string, []>("input_341_pad_type_0"), val = tensor<string, []>("valid")];
            tensor<int32, [2]> input_341_strides_0 = const()[name = tensor<string, []>("input_341_strides_0"), val = tensor<int32, [2]>([1, 1])];
            tensor<int32, [4]> input_341_pad_0 = const()[name = tensor<string, []>("input_341_pad_0"), val = tensor<int32, [4]>([0, 0, 0, 0])];
            tensor<int32, [2]> input_341_dilations_0 = const()[name = tensor<string, []>("input_341_dilations_0"), val = tensor<int32, [2]>([1, 1])];
            tensor<int32, []> input_341_groups_0 = const()[name = tensor<string, []>("input_341_groups_0"), val = tensor<int32, []>(1)];
            tensor<fp16, [1, 32, 1, 1]> depth_head_scratch_output_conv2_2_weight_to_fp16 = const()[name = tensor<string, []>("depth_head_scratch_output_conv2_2_weight_to_fp16"), val = tensor<fp16, [1, 32, 1, 1]>(BLOBFILE(path = tensor<string, []>("@model_path/weights/weight.bin"), offset = tensor<uint64, []>(49436608)))];
            tensor<fp16, [1]> depth_head_scratch_output_conv2_2_bias_to_fp16 = const()[name = tensor<string, []>("depth_head_scratch_output_conv2_2_bias_to_fp16"), val = tensor<fp16, [1]>([-0x1.4bcp-6])];
            tensor<fp16, [1, 1, 518, 518]> input_341_cast_fp16 = conv(bias = depth_head_scratch_output_conv2_2_bias_to_fp16, dilations = input_341_dilations_0, groups = input_341_groups_0, pad = input_341_pad_0, pad_type = input_341_pad_type_0, strides = input_341_strides_0, weight = depth_head_scratch_output_conv2_2_weight_to_fp16, x = input_339_cast_fp16)[name = tensor<string, []>("input_341_cast_fp16")];
            tensor<fp16, [1, 1, 518, 518]> input_cast_fp16 = relu(x = input_341_cast_fp16)[name = tensor<string, []>("input_cast_fp16")];
            tensor<int32, [1]> var_1471_axes_0 = const()[name = tensor<string, []>("op_1471_axes_0"), val = tensor<int32, [1]>([1])];
            tensor<fp16, [1, 518, 518]> var_1471_cast_fp16 = squeeze(axes = var_1471_axes_0, x = input_cast_fp16)[name = tensor<string, []>("op_1471_cast_fp16")];
            tensor<string, []> var_1471_cast_fp16_to_fp32_dtype_0 = const()[name = tensor<string, []>("op_1471_cast_fp16_to_fp32_dtype_0"), val = tensor<string, []>("fp32")];
            tensor<fp32, [1, 518, 518]> depth = cast(dtype = var_1471_cast_fp16_to_fp32_dtype_0, x = var_1471_cast_fp16)[name = tensor<string, []>("cast_29")];
        } -> (depth);
}